p1_navigation/checkpoint.pth (torch_old, 28451 bytes, 6 tensors)

fc1.weight f4 [64, 37]
00000000: aed7 81bc ebed c43d c13e 57bd f7c7 d3bd
00000010: 3c85 bc3d b974 3b3d 8127 b63c 386b ad3d
00000020: c3be 463d ec34 853d b11f 39bd a704 5ebd
00000030: 3fd7 babc 6a98 1dbe d576 03bd de72 b43e
00000040: 7f13 75be 7751 bebd 6c16 eebe 7809 bebf
00000050: ff55 f73c e72b 1b3e d805 d83d 05d1 173e
00000060: 44c4 4a3e 3aeb 03bd 988f 7e3d 6abb b03d
00000070: 0119 76bd e915 a0bd 26de 11bd 9c4d b13d
00000080: 9763 c6bc 5212 99bc ec9a 15be c7b7 e2bc
00000090: 95a7 c0bc 9b4a b43e dfc1 003e 44d9 06be
000000a0: a6f4 4bbe e198 90bf 14f3 cc3d 79b1 9abd
000000b0: f0f9 35be 6c27 b6bd ec1d c4bd 467a b83d
000000c0: 1416 8c3b f00c 193d 904f 623d 0daa f63c
000000d0: c775 233e 2d5c 8b3d 78b6 dc3b 5817 ebbd
000000e0: 9202 8cbe 342b fbbc 1066 3bbe 68da 243a
000000f0: f146 da3c a26e 603e 2aa1 ccbd c8e8 413e
00000100: 9014 b13d ab6c aa3d 579d 393e 565a 333d
00000110: 9dfb da3d c798 1c3e 38cc 073d 31e0 113d
00000120: e98a afbc a70d 7c3b a70e f13e 808f 2ebe
00000130: 1092 1abe 4c19 b5be 4521 c7bf 27c8 77bc
00000140: adfe f53c 79ea be3d bf46 1a3e 8577 f33c
00000150: 31e7 673d 6cdd 283c 2360 e039 9c49 71bd
00000160: b07d 973c ad56 cbbd 155a 2c3d b61b c93d
00000170: f709 6a3e 5b6b a83e 429e d7bb 6634 b93d
00000180: 5629 e1bc 3d9b a43d 5748 543d 155d bebd
00000190: 4452 6f3e ad06 163e 9717 1d3d 37f8 0fba
000001a0: 068f 23be 1129 c5bd 68a7 5ebd b5f0 eebd
000001b0: 559c 09bd 51cc 113d 9806 be3a 6a1c f4bd
000001c0: fc22 8ebe fb41 7b3e 34d2 69be 9424 83bf
000001d0: beed 1cbe a955 983d 2830 8f3d 8d5b b7be
000001e0: db15 013e 8428 9a3c 7601 91bc 9f3f d3ba
000001f0: 4c06 2ebf 62f8 d2bd e647 63be 822d 41bf
00000200: cdfb 243e c5ae 1bbf 8a10 d3be 8241 233e
00000210: 1ea0 b1bd f30d 16be bdbb 3fbd 71f8 aebe
00000220: a4d1 803d 7d7a 70be 755e d13c e92e 9cbc
00000230: 7106 db3d 2893 33be 6123 bcbd 36af 5a3e
00000240: 8880 2dbf 5e85 1fbe 66a0 633e fd04 49bb
00000250: 8922 7cbd 0996 84be 53d3 88bd 38c0 76be
00000260: 363c d7be f393 f3be 875b 5ebe 7a71 593e
00000270: 416a 993d 0599 b2bf 089d 27bd b82a 6e3d
00000280: 43c0 f0bd e1ad 11bd 646b a1be 679b e6be
00000290: 1c17 b13d f05e be3d 9a59 0dbd 2d42 dbbe
000002a0: b408 cabe b05e d93c cec3 723e feba f4bd
000002b0: 4117 5cbe ade7 eebd 13bb 9abe 8019 943e
000002c0: 807f 16be 6f71 5fbf eedf 823d 1d04 0ebe
000002d0: 37ad 1f3e 6ff7 bcbe 5554 c7bd e8a6 a73c
000002e0: ab94 003d 9c2d d2bb 3a5e ddbc 4829 743c
000002f0: de74 c3bd 1742 bc3d dacb 803e af1f d33c
00000300: 03ba 63be a989 1ebe bb1b 6bbf 6586 32be
00000310: 2e57 a7bd 81bf 883d 56d8 c33c 00c5 c03c
00000320: 46e4 543d 9d1e 753d a90c 27bd ee24 d0bd
00000330: aa88 37be 8396 e13d a11d 923d daa2 8a3d
00000340: d6a2 8f3d a707 1bbd aee0 3a3d fa60 6abd
00000350: e621 8ebd d42c e43d cb5b fabd 8616 0d3d
00000360: a992 3bbe 61c3 93bc cc98 2e3e 27ce 6bbc
00000370: ea29 8fbd f9e0 2e3d a2d7 1cbd 4d7e 1d3d
00000380: 85b4 e4bd f480 e73d c2aa aabe 3212 22bd
00000390: 8e4e 70be fb6d a93d 89e1 15be 3128 a03d
000003a0: 8560 8ebe 46f8 023e 1c96 ff3d 2f04 c23c
000003b0: 47b2 b03e ac14 4bbe 4508 9dbb 4689 feba
000003c0: c5e5 e23c e2e7 523e 1e3c 7cbc 4259 ef3c
000003d0: 88e4 a5bd 11f6 6fbe 905b a1bd 2c72 61be
000003e0: f921 1ebd c975 8b3d 30ea e7bd 79ff 9c3d
000003f0: 8d09 42bb 1648 65bd 41e1 793d fa11 acbd
-0.015849914 0.09615692 -0.05255008 -0.10340875 0.092051 0.045765612 0.022235634 0.08467716
0.04852177 0.06504235 -0.04519624 -0.054203656 -0.022807715 -0.15390173 -0.03209575 0.35243887
-0.23933218 -0.09292882 -0.46501482 -1.484664 0.030192373 0.15153466 0.105479896 0.14825828
0.19801432 -0.03220675 0.06214866 0.086294964 -0.06008244 -0.07816679 -0.035612248 0.08657381
-0.02421741 -0.018685494 -0.1460988 -0.027675522 -0.02351741 0.3521317 0.12573956 -0.13168818
-0.19917545 -1.1296655 0.10007301 -0.075533815 -0.17771125 -0.08894238 -0.0957602 0.09007697
0.004275093 0.037365854 0.055251658 0.030110383 0.15962897 0.068046905 0.006735619 -0.11479062
-0.2734571 -0.03066025 -0.18300653 0.00062886486 0.026645156 0.21917203 -0.09991677 0.18936455
0.086465 0.08321508 0.18126427 0.043787323 0.10692523 0.15292655 0.033153743 0.035614196
-0.021428542 0.0038460286 0.4708149 -0.17046928 -0.15094781 -0.35370862 -1.5557028 -0.015123404
0.030028665 0.09322066 0.1506605 0.029720077 0.056616966 0.010306697 0.00042796237 -0.05890809
0.01849255 -0.099286415 0.042078096 0.098197386 0.22855364 0.32894406 -0.006580145 0.09043197
-0.02748553 0.08037422 0.0518268 -0.09295098 0.23371226 0.14650984 0.038352575 -0.0005492004
-0.15972528 -0.096269734 -0.05435887 -0.11667005 -0.033596355 0.035595242 0.0014497815 -0.11919482
-0.27761066 0.24536888 -0.22834092 -1.0245538 -0.15325066 0.074382134 0.06991607 -0.35812035
0.12605993 0.018818147 -0.017700892 -0.0016116983 -0.6797836 -0.103012815 -0.22195396 -0.75460064
0.1611168 -0.6081355 -0.41223556 0.15942958 -0.08673118 -0.14653759 -0.0468099 -0.3417392
0.06289986 -0.23484226 0.025557736 -0.019065337 0.10694588 -0.17536604 -0.091864355 0.213559
-0.6777425 -0.1557822 0.22229156 -0.003067314 -0.061556373 -0.25895718 -0.06680932 -0.24096763
-0.42038125 -0.47573814 -0.21714602 0.21234694 0.074909694 -1.3952948 -0.04092124 0.05814621
-0.11755421 -0.035566214 -0.31527245 -0.45040438 0.08646986 0.09295452 -0.03450928 -0.42823926
-0.39459765 0.026534408 0.23707506 -0.119497284 -0.21493246 -0.116652824 -0.3022085 0.28925705
-0.14697075 -0.8728246 0.063903674 -0.13868757 0.1559342 -0.36907527 -0.09732882 0.02046533
0.03139178 -0.0064141285 -0.02702247 0.01490242 -0.09543775 0.09192293 0.25155526 0.025771944
-0.22238927 -0.154822 -0.9183919 -0.1743408 -0.08170925 0.066771515 0.023906868 0.023531437
0.05197551 0.05984365 -0.040783558 -0.10163294 -0.17923227 0.11015036 0.071345575 0.06769343
0.0701348 -0.037849095 0.045624427 -0.05722139 -0.06940059 0.11141363 -0.12224539 0.03444531
-0.18317665 -0.0180375 0.17050475 -0.014392412 -0.06990416 0.04269502 -0.03829158 0.038450528
-0.11167244 0.11303893 -0.33333403 -0.039568134 -0.23467466 0.0827293 -0.14636816 0.07820166
-0.27808014 0.12790021 0.12479803 0.023683636 0.34511015 -0.19832104 -0.0047922456 -0.0019419573
0.027697453 0.20596269 -0.015395192 0.029217366 -0.081002295 -0.2343371 -0.07878792 -0.2201621
-0.038606618 0.06809575 -0.113239646 0.07665915 -0.0029607743 -0.05597695 0.061005834 -0.08401866

fc1.bias f4 [64]
00000000: 7f86 2c3e 28c5 1d3c c1b3 b7bd ea41 8fbd
00000010: 8fd4 5c3e fd8e 8abc 969b abbd a19d 7a3d
00000020: 63eb 393b 7b22 32be fc49 143e 216d 443e
00000030: 7184 873d 5f77 3c3d af66 1ebe 2641 f9bb
00000040: a415 2e3d a333 0d3d 4927 dcbc f9e0 4ebe
00000050: c6c9 49bd 2b0b b13d 71e7 a63d dd18 a2bd
00000060: c2e7 9ebd 0423 8d3e 1d02 9e3c 2fee 34be
00000070: 5f83 383e 6737 a5bb f058 3f3d ff93 31be
00000080: 215a 0e3e 54ac fb3b 11b0 e5bd 4308 5b3d
00000090: 9c36 1ebd 1daf 20bc 372b aa3b fee9 f7bd
000000a0: fab2 72be c716 ffbc f673 063d 1868 463e
000000b0: c3a3 5abd e131 babd c230 0bbd c828 9fbd
000000c0: 3be1 0ebe e17a c03d 9b0d 10be 5ced ce3d
000000d0: 77f0 28bd f688 1dbe 4a49 43be ef67 17bd
000000e0: 9e97 a23d b788 303d 4e10 febd f56c e7bd
000000f0: 4317 9c3b 0d2c 883d 3655 8cbc 16c5 823c
0.16848181 0.009629525 -0.08969832 -0.06994994 0.2156546 -0.016913885 -0.08379285 0.061185483
0.0028369061 -0.17395966 0.14481348 0.19182254 0.06617058 0.04601228 -0.15468858 -0.0076066433
0.042501107 0.034473073 -0.026874201 -0.20203008 -0.04926469 0.08644708 0.08149613 -0.079148985
-0.07759048 0.27565777 0.019288117 -0.17668985 0.18018864 -0.005042005 0.046715677 -0.17341612
0.13901569 0.007680455 -0.112152226 0.053474676 -0.0386263 -0.009807375 0.00519314 -0.12105177
-0.23701087 -0.03113879 0.032825433 0.19375646 -0.05337883 -0.09091545 -0.033982046 -0.0777145
-0.13953106 0.09398437 -0.1406769 0.101038665 -0.04124495 -0.15384278 -0.19070926 -0.036964353
0.07939075 0.04309913 -0.124054536 -0.11300079 0.004763515 0.06649027 -0.017130475 0.015963119

fc2.weight f4 [64, 64]
00000000: a15a 03bf a8b1 383e 6daa 883e 36e0 4e3e
00000010: 7ef6 853e 3fd7 1bbf c11e bdbe cff5 2ebf
00000020: ac9e a43d f0e1 6dbd c0a4 babd f159 1abf
00000030: 2c65 c3be 87c8 10be a3e8 29bf 2bc8 e9be
00000040: e3c8 1abd c068 46be 6d4f 2e3c cb22 95bd
00000050: 2a59 31be 803b 86be 794c 653e a7d4 f7be
00000060: 2491 73be 83dc b9be 1cad 323e 84ff d33b
00000070: ec6f 113e 8103 87be 30d1 8fbe 6bbb d9be
00000080: b9d2 ebbd f0c8 ae3d 3c99 98be 2115 0f3d
00000090: e5d1 27be 67e3 293e a85f 3e3d 262b 353e
000000a0: ac40 46bd 4a75 99be 2ed0 d73c 77d7 0b3d
000000b0: bbff 403e 0ff7 953e 361e d5be 0bfd a1be
000000c0: 0ab2 10bf 500b 363e 2847 82be 566f c4be
000000d0: 4f13 45bf b5a3 dcbe 804d 163c 2b2c d5be
000000e0: f749 fd3c ea5a e1bc 5b7a 26bf 96c1 d4bd
000000f0: d6f3 0bbe da97 c03d 3ae3 443d 64a8 123e
00000100: 147f 393e e315 303d 31f4 89be c269 b13d
00000110: 645f 94bb df9b 183e 847d 8dbd 21fb d3bc
00000120: 5f3a d1bd 1c30 d2bd dbcb bbbd 0482 533e
00000130: 02fb 57be d6be fb3c cb22 953d b9e7 813e
00000140: fb7b 0c3e 4bf2 97bb 135d 26be 2b78 3c3e
00000150: a555 383c 6cfb 083d e796 453d 27e1 3bbd
00000160: 1559 053c 431d 953e f822 c2bb cdd0 76be
00000170: 157f 623c e3de 32be 5c93 ac3e d81d 82bd
00000180: 5e55 9ebd af2f 6abc 3156 be3d 0ba6 aabd
00000190: 0ed0 59be 7721 da3c e68d acbd 2b98 35be
000001a0: 7f7c 37be 1ebe cdbc cf0f 013e 0e0d 9bbc
000001b0: 21c9 263d 49a1 223d 5ee3 94bd 0577 a43c
000001c0: 44d4 b2bd d72b 75be c511 77bd 2bc6 7e3e
000001d0: baae 66bd 0451 17bc 5985 c4bd 936f 393d
000001e0: c267 42be 3600 85bd 8f9f b83d 0600 58bd
000001f0: 15a3 b8bd 373d 8a3d bf90 30be da89 963d
00000200: decb b7bd c0f4 d33d 59d7 fb3a 05f4 073d
00000210: dd9c b43c 0b63 163a 77b2 dcbd 3c42 633b
00000220: 654c 61be dd47 ebbd f994 223d 4dff 6dbd
00000230: f5f2 04be 7f31 253e 23e9 babd dfe4 283e
00000240: 1ff1 c3be 77a9 2dbd 2817 87bb 628d e1bd
00000250: 1c61 40be 8ca1 163e 4191 edbc 15f1 383e
00000260: 5a38 2dbe f246 133e 94a1 e33d 5c40 5d3e
00000270: 29a4 e9bd cf5a 0c3e a09c 93bc b874 3bbd
00000280: a00c c8bd 2242 5fbd 261a 40be 86ee 2c3d
00000290: ab87 803b 12c0 d73d 16fc 333d 5a94 813b
000002a0: 757f 9e3e 04ab 1abc 1e73 4bbe 2a8a 4ebd
000002b0: 6128 d1bd 4a05 34bd ddc6 6c3e a20a 32be
000002c0: a76b 883d 15bb 72bb bfc1 67bd 6504 2dbe
000002d0: 3c98 26be 9040 e53e bd51 0dbe 2e23 a2bc
000002e0: c7fa b7bd a08c 54be 5737 513e 5966 2abd
000002f0: c484 bb3c ef06 8f3e dc38 433e 0dd4 ba3e
00000300: 602b 82be 236e 31be 7fd8 54bd 9f65 d839
00000310: aa43 8e3c 0038 7dbd 98c8 adbe 64f5 8abd
00000320: a50f b6be 0547 123e 64bd 30bc 6523 073c
00000330: 544d 66bd b763 063e f736 e0be e8d5 31be
00000340: e427 a3be c6e0 8abe 991d 17be 0ed7 b1bc
00000350: 509f e43c 038e f53d 0d0b 8fbd dbf6 983e
00000360: cb6e 97bd 2b59 633e 1194 653e d0e7 933d
00000370: b24b 573e d2cc 0dbc 7bed 063d 9920 89be
00000380: 1cd8 b8bc a0f3 97bd c061 2a3d 8a5d 263e
00000390: ce7c b5be 4e4f 4fbd 8a77 0d3d 1adc 24bd
000003a0: 0543 66bd 0a63 f23d b771 42bd 13b1 43be
000003b0: b8ce 80be d6d0 923d 2428 e0be cf36 05be
000003c0: 1cc2 db3c b03b b03e 5dc4 92be 9c05 3fbc
000003d0: 8c96 93be 62d7 e63c 438d 75bc 14ee 633e
000003e0: 7095 a1be d1ea a9be 37ba ddbd 06e6 c9bd
000003f0: d27a 9abd 2d2b 8d3d 3b29 57be 6ee6 23bc
-0.51310164 0.1803652 0.26692525 0.20202717 0.2616462 -0.60875314 -0.36937526 -0.68343824
0.08038077 -0.0580768 -0.09113455 -0.6029349 -0.38163126 -0.14138995 -0.663706 -0.4566053
-0.037789237 -0.19375896 0.010639054 -0.07282027 -0.1731917 -0.2621727 0.22392453 -0.48404428
-0.23785836 -0.3630105 0.17448848 0.006469669 0.14202851 -0.2636986 -0.28089285 -0.425258
-0.115148015 0.085344195 -0.2980441 0.03493226 -0.16388662 0.16590653 0.046477944 0.17692241
-0.04840152 -0.29972297 0.026344385 0.03414103 0.18847553 0.29290053 -0.41624612 -0.3163837
-0.56521666 0.17777753 -0.25444913 -0.38366193 -0.7698259 -0.4309365 0.009173751 -0.4163526
0.030919058 -0.027509172 -0.6503045 -0.10388486 -0.13667235 0.094039634 0.048068263 0.14322048
0.18114883 0.042989623 -0.26944116 0.0866275 -0.004527973 0.1490321 -0.06908706 -0.025876584
-0.102162115 -0.102630824 -0.09169742 0.20655066 -0.21091846 0.030730646 0.07282027 0.25372103
0.1371917 -0.004637038 -0.16246442 0.18405215 0.011250888 0.0334429 0.048239615 -0.04586902
0.008138915 0.29123887 -0.0059245788 -0.24103089 0.013824244 -0.17467837 0.33706176 -0.063533485
-0.07731126 -0.014293595 0.092937835 -0.083324514 -0.21270773 0.026627285 -0.084255025 -0.17733829
-0.17918585 -0.025115069 0.12603687 -0.018927123 0.040719155 0.039704595 -0.07269929 0.020076284
-0.08731893 -0.23942505 -0.06031968 0.24880283 -0.056318976 -0.009235624 -0.095957465 0.04527242
-0.18984893 -0.06494181 0.090148084 -0.052734397 -0.090154804 0.06749957 -0.17242716 0.07350512
-0.089744315 0.10349417 0.0019213959 0.0331917 0.022047454 0.00057368045 -0.10776227 0.003467693
-0.22001798 -0.11488316 0.039692853 -0.058104802 -0.12983306 0.16132163 -0.091264986 0.16493557
-0.38269898 -0.042397942 -0.0041226335 -0.11013295 -0.18787044 0.14710063 -0.028999927 0.18060715
-0.16916028 0.14382532 0.11114803 0.21606582 -0.11408264 0.13706516 -0.01801902 -0.04576561
-0.09768033 -0.05450643 -0.18759975 0.04221966 0.003922423 0.105346814 0.04394158 0.0039544525
0.30956617 -0.009440187 -0.19868132 -0.050424732 -0.1021278 -0.043950357 0.23122735 -0.17386869
0.06661158 -0.003703778 -0.056581255 -0.16896208 -0.1626901 0.4477582 -0.13800712 -0.019792166
-0.08983379 -0.20756769 0.20431267 -0.041601513 0.022890456 0.27934977 0.19064659 0.36489907
-0.25423717 -0.1732717 -0.05196428 0.00041274444 0.01736625 -0.061820984 -0.33942103 -0.06785086
-0.3555881 0.14284904 -0.010787342 0.008248185 -0.05622609 0.13123976 -0.43791935 -0.17366755
-0.31866372 -0.27124614 -0.14757384 -0.021708991 0.027907997 0.11989977 -0.0698453 0.29875836
-0.07394179 0.22201984 0.22419764 0.07221949 0.21024969 -0.00865479 0.032941323 -0.26782683
-0.022563986 -0.07419515 0.041597128 0.1624662 -0.3544678 -0.05061274 0.03453783 -0.040248968
-0.05621626 0.118352965 -0.04747173 -0.19110517 -0.25157714 0.071687385 -0.43780625 -0.13009189
0.026825957 0.34420538 -0.28665438 -0.011659052 -0.28825796 0.028178874 -0.014987293 0.22258788
-0.31559324 -0.33186963 -0.10826533 -0.098583266 -0.07542957 0.06893001 -0.21011822 -0.010003669

fc2.bias f4 [64]
00000000: e400 d13c 5e5f 1a3d 9205 c53c 32b0 303d
00000010: 9837 3d3e 4f44 09be 07d8 e6bd c892 0c3e
00000020: ffa8 743e d9bc d43e d9a0 1f3c 1729 843e
00000030: 2e4e 6c3e c349 90bc 0c0b b2bd 43fc 193d
00000040: 5450 923c f150 003d 65cf c7bd 0084 1a3e
00000050: 2516 8c3d 94dd 923e 20c2 c3bd 380c f9bd
00000060: 52c3 c53d fa23 02be 7bb7 bdbc 816b e7bd
00000070: ae8b edbc 8576 5a3b e141 5939 d902 dcbd
00000080: 94f1 edbd 4e3d d23d 574c 353d 3be1 14bb
00000090: 58f2 7f3c 899b adbd edda e13d c904 e33c
000000a0: 8552 29be bbc7 ea3e 23ef 893e 7829 74bd
000000b0: f88d 3e3e 2864 11be 643e 883e 30ec e2bd
000000c0: 0560 9f3d 1948 01be 0e7f 4bbd 5eff a53e
000000d0: 922d 16bc 4286 d3bd a31a 833e 4334 04be
000000e0: 1c48 46be 9e3c 46bd 0a2c 89bc b904 89bd
000000f0: 4ae7 933d 11bf 723e 52e6 ed3d abbc 84bd
0.02551312 0.037688605 0.024050508 0.043136783 0.18478239 -0.13404964 -0.11271673 0.13727868
0.23892592 0.4155033 0.009742939 0.258126 0.23076698 -0.017613297 -0.08693513 0.03759409
0.017860569 0.03132719 -0.09756354 0.15089417 0.06840161 0.28684676 -0.09558511 -0.12160534
0.09656395 -0.12709036 -0.02315878 -0.112998016 -0.028997269 0.0033334803 0.00020719274 -0.10742731
-0.11618343 0.10265599 0.044262256 -0.0022717256 0.015621744 -0.084769316 0.11028085 0.027712243
-0.16535385 0.45855507 0.2694026 -0.05960986 0.18608844 -0.14198363 0.266101 -0.110802054
0.07781986 -0.1262516 -0.049681716 0.32421392 -0.009166138 -0.10328342 0.2560626 -0.12910561
-0.19363445 -0.048397653 -0.016744632 -0.06690354 0.07221849 0.23705699 0.11616196 -0.06481298

fc3.weight f4 [4, 64]
00000000: ef8c 14be 8c34 283e b1b4 4ebc e4d5 cd3d
00000010: 9198 3d3e f48b b13e 65b1 c83d 6ad9 00be
00000020: 0e0e 0c3e 26a9 063e 4149 ae3d 8499 9e3e
00000030: d659 7c3e 6701 16bd 3050 1cbd c898 833e
00000040: 24be aa3e 7f83 f43d 9ec5 5dbc a216 0f3e
00000050: bc1f dd3e d753 1a3e e8d4 b8bd b40c dcbd
00000060: d175 b23d 9a5f 75bd 2a4c 7fbe bfe5 8ebe
00000070: 31a2 a13e 8c4b 0d3f 5f31 8bbe 9e04 b53e
00000080: e904 cdbd faeb 6c3d 775c 0b3e e61e e23d
00000090: 3cd1 953e bbee bf3d 2a28 713e 4498 a03e
000000a0: 2e6d 6cbd b81f 0e3e fe79 503e 600b 0a3d
000000b0: 6c5f 3f3e 292d b9bd 8d16 403e f66c 803e
000000c0: d7a9 363d 74b8 b7bc 8b46 e13d 139b 703e
000000d0: 3db5 a23d 5cc2 f23d 1fb0 1b3e 8d29 88be
000000e0: 9ce4 6dbe df73 17bc 3f8f 353e 5e56 c13d
000000f0: a18f d9be 1663 323e 51f8 03bf a1a2 02be
00000100: dbb7 d43e 232d 043e fe9a ed3d d3ee 393e
00000110: 77a9 6f3e 0e8b b23e 10ed 8b3d f5a6 233e
00000120: d110 7a3d 4277 0d3e 1361 973e 6e7e 7c3e
00000130: 11b0 1d3e 7300 9b3e a741 8dbc a1d9 dc3e
00000140: 6566 0f3f 89b0 683d afd2 96bd 372b c83d
00000150: 3d56 af3e 3854 1c3e 995c 25be 7d9e 68be
00000160: 0b1b 923d 6de9 0ebd 60e9 f4bd d08a 6ebd
00000170: 1023 b13e 6d5f d73e 70e0 1bbe 55fe 9b3e
00000180: 68a2 6dbe 5e68 fb3d cd76 073e 5584 053e
00000190: f334 7e3e 2c00 483e 177b 6b3e 45f1 973e
000001a0: bc1d 0abe f215 433e 74cd 123e 9d38 233d
000001b0: cc7e eb3d 346f 07be 321a 143e 6d2e f6be
000001c0: 801f 55bd 0869 c8bd 25ae 1a3e ef59 4c3e
000001d0: bc60 0dbe 5d7a 023e b330 133e 0c5e b1bb
000001e0: 3a75 2abe 9e02 7fbe b6bb 98be 5807 8bbe
000001f0: a1cd 03bf 9be6 083e c32f 6ebe d693 c1bd
00000200: 52b0 f8be 1d90 bc3d f782 73bd 28c3 4a3e
00000210: f56b 5d3e cc5d 453e a4f9 f63d 9741 1f3e
00000220: fd7a c03b d2e9 303e d159 0ebe a1e8 3e3e
00000230: 0e62 453e 857e c2be 665c 98bd 4adb 4abd
00000240: ed64 3d3f 42fa 29be b4b1 10bd 70ae 983b
00000250: 05fa ad3d 97fb 8b3e 6b5d a0be 548f f53d
00000260: 907a 643e beb5 57bd 0470 e2bd e976 a1be
00000270: 2e13 763d 7e99 1e3f 1425 b9bc 7096 f23d
00000280: df15 23be 2aca 313d 2bc0 a03e f140 ce3e
00000290: 572e a13d fd77 b83d eafd 873d 8ebd 7f3e
000002a0: f629 f83d e76c 403e d2c8 993e 5612 443e
000002b0: 2b82 bd3d ca51 6cbe d466 233e 17ae c53d
000002c0: b06f 8b3e 09c4 9dbe b55c 203e cf8b 863e
000002d0: e760 01bf 4cca 883e 9fde b13d cfb9 9fbc
000002e0: e9ca 8fbe fdc1 95be 7405 c6be 632d 1dbd
000002f0: 7e24 593d 0628 133e 0a4b c0be ac61 afbe
00000300: 5ce4 df3e 4094 2b3e baf9 7cbe b054 72be
00000310: 00fa a93d f67d 323f 6b9f 4fbd 3559 083e
00000320: c433 2c3e dbc1 423e 03b6 043f 2f30 0b3e
00000330: a131 543e 0a89 223e 3930 323d e36d 5b3e
00000340: a1eb c03d 5f37 a13e f4c5 b53d 3e72 243e
00000350: ca22 973d f10a 773e aa52 ecbd cdca e4bc
00000360: 2e10 113e 9175 a8bd 7c71 59be 2e92 8d3d
00000370: bf79 093f b1e8 1e3e 89bd 803d 677d 363e
00000380: e882 c4be 470c 5d3e 869f a33b 64ec 473e
00000390: 8610 a6bd dbcd 813e 8a42 ae3e 83ee c33e
000003a0: 3339 a2be c433 373e d3b2 5a3e 127b eebd
000003b0: 0abb 393e 5bbd 18be 69b9 b63d 9ac5 18be
000003c0: 5cc6 253e 5068 8bbe db12 b33e 21d7 8f3e
000003d0: ca00 0fbf 75bc b4be 1cea 6e3e 73ca 8b3d
000003e0: ae8f c9bd 0d38 64be 24be b03e e73a 63be
000003f0: abb6 97be 14ea ec3d 392f 35be 774b edbd
-0.14506887 0.16426295 -0.012616322 0.10050562 0.1851523 0.34677088 0.0979946 -0.12582937
0.13677236 0.13150463 0.08510066 0.30976498 0.24643645 -0.03662243 -0.03816241 0.257025
0.3334819 0.119391434 -0.013535885 0.13973477 0.43188274 0.15071045 -0.09024984 -0.107446104
0.08713878 -0.059905626 -0.24931398 -0.27909657 0.31569055 0.551934 -0.27186105 0.35355085
-0.10010702 0.057842232 0.13609491 0.1104105 0.29261196 0.09371706 0.23550478 0.3136617
-0.05772131 0.13879287 0.20359036 0.033702254 0.18688744 -0.09041817 0.18758602 0.2508313
0.044595566 -0.022426821 0.10999783 0.23496656 0.07944725 0.11853477 0.15203904 -0.265942
-0.23231739 -0.009243934 0.17730425 0.09440301 -0.42492393 0.17420611 -0.51550776 -0.1275735
0.4154652 0.12907843 0.11601828 0.1815751 0.2340449 0.34871715 0.068323255 0.15981658
0.061051194 0.13815024 0.2956625 0.24657604 0.15399195 0.3027378 -0.01724322 0.43134788
0.56015617 0.056808982 -0.073644035 0.097738676 0.34245482 0.15266502 -0.16148604 -0.22716708
0.07134064 -0.03489058 -0.11958575 -0.05823785 0.34597063 0.42064992 -0.15222335 0.30467477
-0.23206484 0.12275766 0.13228913 0.13038762 0.24824886 0.19531316 0.22996174 0.29676262
-0.13487905 0.1905134 0.14336187 0.039848913 0.11498794 -0.13226014 0.14463118 -0.48082295
-0.052031994 -0.09785658 0.15105493 0.19956182 -0.13806432 0.1274199 0.14374046 -0.0054128226
-0.16646281 -0.24903342 -0.29830712 -0.2715404 -0.5148564 0.13369219 -0.23260407 -0.094520256
-0.48572022 0.09207175 -0.05945107 0.19801009 0.21623214 0.19274062 0.12059334 0.15552364
0.0058740363 0.17276695 -0.1390145 0.18643428 0.19275686 -0.37987152 -0.074394986 -0.049525537
0.73982126 -0.16599372 -0.03532572 0.0046594664 0.08494953 0.27340385 -0.31321272 0.11990228
0.22312379 -0.052663557 -0.110565215 -0.31536034 0.060076885 0.6195296 -0.022600688 0.118451
-0.15926312 0.04340569 0.31396613 0.4028392 0.07870167 0.09007261 0.06640227 0.24974653
0.121173784 0.18791543 0.30036026 0.1914762 0.09253343 -0.23078075 0.15957195 0.09652346
0.27233648 -0.30813625 0.15660365 0.2627854 -0.50538486 0.2671684 0.0868504 -0.01949778
-0.28084496 -0.29249564 -0.38676035 -0.038373362 0.053013317 0.14370736 -0.3755725 -0.34254205
0.43728912 0.16755772 -0.24704638 -0.23665118 0.08299637 0.6972345 -0.050689142 0.1331528
0.16816622 0.19019262 0.5184023 0.135926 0.20722057 0.15872589 0.04350302 0.21428637
0.09419943 0.31487557 0.08875647 0.16059205 0.07379682 0.24125268 -0.115392044 -0.027928734
0.14166328 -0.08225549 -0.21234697 0.06912647 0.53701395 0.15518452 0.06286151 0.17821275
-0.38381124 0.21586715 0.004993382 0.1952377 -0.0810862 0.25352368 0.3403514 0.38267908
-0.31684265 0.17890841 0.21357279 -0.116445675 0.18137756 -0.14915983 0.08922083 -0.14919129
0.1618895 -0.27228022 0.34975323 0.28093818 -0.5586058 -0.3530003 0.23331493 0.068257235
-0.09841858 -0.22287007 0.34520066 -0.22190438 -0.29631552 0.11568084 -0.17693795 -0.115866594

fc3.bias f4 [4]
00000000: 842e 8e3e c4b4 7f3e 2202 163e 41d1 303e
0.27769864 0.249713 0.14649251 0.17267324
