p1_navigation/checkpoint.pth (torch_old, 28417 bytes, 6 tensors)

fc1.weight f4 [64, 37]
-0.0416207 -0.02001533 0.121407546 -0.10826543 0.03438888 -0.12073429 0.061563242 0.13957892
0.11506058 -0.16295795 -0.06259843 -0.11856368 -0.06618832 -0.15642409 -0.17164606 -0.024226068
0.09046154 0.13085245 -0.118514955 -0.13380566 0.18145558 -0.19692971 0.08126221 0.15401866
-0.27092028 -0.0951852 0.02349655 0.003183858 0.09540448 -0.14316443 -0.18600723 0.18958966
0.06418605 -0.34477404 -0.1809448 -0.18910542 -0.03578548 0.21016285 0.104704574 -0.026894309
-0.011343065 -0.24174958 0.0021725486 -0.089456454 -0.17111805 -0.03010493 0.2159058 0.18873432
-0.13335192 0.007098171 0.04556777 -0.16517846 -0.042701293 -0.00869753 0.13723022 0.1237759
0.089859605 -0.02611124 -0.20655157 -0.062258855 0.032687467 0.22264029 -0.1347777 -0.020126808
0.16846232 0.037628904 0.06617119 0.09721952 0.013031131 0.15501408 -0.040020145 -0.2734143
0.13689741 0.05725612 0.2451065 0.15298 -0.043049872 -0.22075751 -0.032408092 -0.036411345
-0.21122538 0.22523104 -0.11826644 -0.17261446 0.20527637 -0.13464084 -0.099653594 -0.0989816
0.12789808 -0.12969996 0.02545413 0.04021103 0.14052562 0.17312035 -0.17139398 -0.31308582
0.08495442 0.11045993 -0.17712 -0.121525265 -0.008968511 0.24875401 -0.13503222 0.023429114
-0.27888453 -0.026886921 -0.07432026 -0.1812345 0.027724996 0.081289366 -0.027487539 0.4376283
-0.42323133 -0.2859342 -0.35391688 -2.000142 -0.011599051 0.018302025 0.0025320614 0.04135235
0.033228572 0.016831761 0.046673708 0.016806742 0.012665819 -0.0066068894 -0.074938625 0.0007168113
-0.038783528 -0.038879484 0.0415241 -0.0033190814 0.0024134107 0.017941127 0.008938703 0.014296327
0.018730365 0.03734336 0.091485865 0.15372495 0.06169265 0.04012185 0.047346864 0.050061535
0.078324005 0.029574413 0.0037288708 -0.0040109786 -0.13093013 -0.026294194 -0.14406845 -0.0030552796
0.07306716 0.36292985 0.070662804 -0.27796152 -0.2662134 -0.68561816 0.004646448 -0.03467887
-0.010269645 0.07222239 0.05130127 0.00989317 -0.11842667 0.03309005 -0.083962925 0.028540928
-0.102449425 -0.017268432 0.09302519 0.06006275 0.16127232 0.24692574 -0.017581157 0.061706316
-0.32281864 -0.6057849 -0.016063578 0.0534259 0.0018248346 0.25262865 0.26677376 0.002038915
0.011684031 0.06826058 0.015907563 0.08771584 0.023062458 0.027814252 0.44955894 -0.21025011
-0.6573649 -0.37611905 -1.8795055 0.052408952 0.0027906264 0.0054923575 -0.097845756 0.017031867
0.102869615 0.07801401 -0.04795225 -0.030146582 -0.14488259 0.20946094 -0.01595162 0.05153138
0.15690376 0.048596684 0.05069413 0.024704192 0.11532682 0.056299474 -0.061211467 0.038639538
0.020848013 0.018397456 0.24204539 -0.0013283464 -0.0202145 0.008735565 0.073487855 -0.02392812
-0.24671936 0.049577333 0.012341426 0.14473788 -0.20949814 -0.144333 0.05446295 -0.06424633
0.16865772 0.02318201 -0.013954309 -0.16287875 -0.23372835 -0.16189052 -0.23622215 0.12313539
0.13771333 0.1870181 -0.092334144 0.014343806 0.0029206693 -0.08603587 -0.13206157 0.009797877
-0.20333636 -0.21109666 -0.02330273 -0.032770745 -0.1507813 -0.076995425 0.06258964 0.029486613
00000000: 787a 2abd 30f7 a3bc 85a4 f83d 44ba ddbd
00000010: 5bdb 0c3d 8a43 f7bd bd29 7c3d c7ed 0e3e
00000020: e2a4 eb3d 73de 26be 9b33 80bd 84d1 f2bd
00000030: be8d 87bd a32d 20be fcc3 2fbe bf75 c6bc
00000040: e643 b93d 2ffe 053e f8b7 f2bd 5a04 09be
00000050: 7ecf 393e f1a7 49be cd6c a63d 11b7 1d3e
00000060: 10b6 8abe 75f0 c2bd d67b c03c 46a8 503b
00000070: 6d63 c33d b299 12be ae78 3ebe cb23 423e
00000080: fa73 833d 3986 b0be 9849 39be daa4 41be
00000090: cc93 12bd ee34 573e 5a6f d63d 7451 dcbc
000000a0: 43d8 39bc 348d 77be 5161 0e3b f234 b7bd
000000b0: 9239 2fbe 9d9e f6bc 6916 5d3e 9243 413e
000000c0: 688d 08be c697 e83b 45a5 3a3d 8b24 29be
000000d0: 8de7 2ebd 1680 0ebc 1486 0c3e 387e fd3d
000000e0: 5008 b83d 3de7 d5bc 4182 53be 2403 7fbd
000000f0: 4be3 053d d1fb 633e 2a03 0abe fae0 a4bc
00000100: 6381 2c3e c420 1a3d c384 873d 071b c73d
00000110: 8680 553c 03bc 1e3e 2aec 23bd f6fc 8bbe
00000120: d62e 0c3e 6585 6a3d 33fd 7a3e caa6 1c3e
00000130: 1055 30bd 420e 62be 59be 04bd 1024 15bd
00000140: 774b 58be f7a2 663e ad35 f2bd d8c1 30be
00000150: f833 523e 4adf 09be 2f17 ccbd ddb6 cabd
00000160: b7f7 023e 11d0 04be 2e85 d03c 52b4 243d
00000170: f3e5 0f3e 7646 313e e781 2fbe c94c a0be
00000180: 95fc ad3d d138 e23d f25e 35be 3de2 f8bd
00000190: a9f0 12bc 5fb9 7e3e e345 0abe 6aee bf3c
000001a0: f4c9 8ebe f641 dcbc 3835 98bd 8995 39be
000001b0: 881f e33c 0a7b a63d 8c2d e1bc d110 e03e
000001c0: c7b1 d8be f865 92be 9834 b5be 5402 00c0
000001d0: f209 3ebc 21ee 953c f1f0 253b 1561 293d
000001e0: af1a 083d c3e2 893c ee2c 3f3d 4bae 893c
000001f0: 4c84 4f3c 9b7e d8bb 6c79 99bd 64e8 3b3a
00000200: 7adb 1ebd 1840 1fbd 2d15 2a3d f284 59bb
00000210: 502a 1e3b 45f9 923c a373 123c 243b 6a3c
00000220: 6c70 993c 5af5 183d f15c bb3d 136a 1d3e
00000230: 6fb1 7c3d cf56 243d c9ee 413d 530d 4d3d
00000240: 5668 a03d 0a46 f23c 1260 743b 876e 83bb
00000250: 8c12 06be ec66 d7bc ae86 13be 163b 48bb
00000260: 3ca4 953d f1d1 b93e a9b7 903d f950 8ebe
00000270: 1f4d 88be ac84 2fbf 3b41 983b 6e0b 0ebd
00000280: 0342 28bc 55e9 933d 4821 523d f616 223c
00000290: af89 f2bd 6f89 073d c1f4 abbd aace e93c
000002a0: 01d1 d1bd 8776 8dbc fe83 be3d 5c04 763d
000002b0: 9224 253e 1ada 7c3e 5c06 90bc c3bf 7c3d
000002c0: 7c48 a5be b814 1bbf c497 83bc 1ed5 5a3d
000002d0: 4a2f ef3a 8b58 813e 9296 883e 519f 053b
000002e0: 616e 3f3c 34cc 8b3d 9450 823c 5da4 b33d
000002f0: 7bed bc3c b7da e33c 972c e63e ce4b 57be
00000300: 1149 28bf ad92 c0be a393 f0bf c5aa 563d
00000310: f1e2 363b 3cf9 b33b 5b63 c8bd 6a86 8b3c
00000320: 4ead d23d cfc5 9f3d 9469 44bd f7f5 f6bc
00000330: 1a5c 14be ee7c 563e f9ac 82bc 9112 533d
00000340: 61ab 203e 510d 473d a6a4 4f3d 7260 ca3c
00000350: 7830 ec3d 479a 663d e0b8 7abd 7e44 1e3d
00000360: 74c9 aa3c 43b6 963c bfda 773e e91b aeba
00000370: e198 a5bc 9d1f 0f3c cd80 963d e804 c4bc
00000380: 00a4 7cbe 9a11 4b3d b133 4a3c 2b36 143e
00000390: ae86 56be 08cc 13be 8b14 5f3d 9493 83bd
000003a0: 9cb4 2c3e 33e8 bd3c 9da0 64bc b0c9 26be
000003b0: 7c56 6fbe a1c6 25be 38e4 71be 682e fc3d
000003c0: b904 0d3e ac81 3f3e af19 bdbd 4802 6b3c
000003d0: b368 3f3b 9333 b0bd 263b 07be 4687 203c
000003e0: 6837 50be b929 58be 5ee5 bebc 9e3a 06bd
000003f0: 6a66 1abe c7af 9dbd ff2e 803d e98d f13c

fc1.bias f4 [64]
0.17102475 -0.04237252 -0.19478081 -0.073071055 0.21189749 0.0717832 -0.1374133 0.06850967
0.01805385 -0.1748875 0.09682904 0.1311311 0.08652298 0.07296902 0.011410088 -0.06182876
0.032741886 0.015158301 0.0044343616 -0.18844062 -0.13030747 -0.035510395 -0.027159361 -0.1363698
-0.07569303 0.11934206 -0.04180382 0.0201458 0.11907263 0.11096578 -0.07118408 -0.16635978
0.14252463 -0.068314895 -0.07459265 0.14805621 -0.07015417 0.06447266 -0.10610677 -0.092860796
-0.05186085 -0.10413588 -0.12555847 0.16519453 -0.07580532 -0.089202926 0.009752847 -0.22855145
-0.19108476 0.03283234 -0.16276334 0.17700195 -0.10932504 -0.08097137 -0.13031173 0.018940805
0.063163295 -0.033218134 -0.021546861 -0.115843184 0.012207136 0.063105404 0.0010624207 -0.015598568
00000000: 1d21 2f3e cf8e 2dbd 9f74 47be 47a6 95bd
00000010: a8fb 583e 1203 933d 12b6 0cbe cc4e 8c3d
00000020: abe5 933c b515 33be 4e4e c63d 3b47 063e
00000030: f632 b13d c870 953d 61f1 3a3c 2740 7dbd
00000040: 5b1c 063d 865a 783c 1f4e 913b 94f6 40be
00000050: 526f 05be 5973 11bd 4f7d debc 86a4 0bbe
00000060: f304 9bbd 9c69 f43d 7b3a 2bbd ce08 a53c
00000070: 5adc f33d 0742 e33d f5c8 91bd 385a 2abe
00000080: faf1 113e aee8 8bbd 08c4 98bd 0c9c 173e
00000090: fdac 8fbd 3e0a 843d 824e d9bd cd2d bebd
000000a0: 0b6c 54bd 3145 d5bd 6692 00be c128 293e
000000b0: d23f 9bbd 06b0 b6bd 68ca 1f3c 6409 6abe
000000c0: b9ab 43be 347b 063d 6fab 26be 0040 353e
000000d0: cee5 dfbd 51d4 a5bd 7070 05be bf29 9b3c
000000e0: c25b 813d bd0f 08bd 0b83 b0bc 313f edbd
000000f0: 7000 483c 683d 813d ec40 8b3a 2391 7fbc

fc2.weight f4 [64, 64]
-0.07241631 -0.24852471 0.10606389 0.025879376 -0.34963086 -0.47730717 -0.1878231 -0.06528847
0.07180626 0.14371286 -0.24945591 -0.20873547 -0.4867528 0.008906372 0.36083582 0.03846996
-0.6551371 0.00074640533 -0.112056516 -0.04671727 -0.26806006 0.13418896 0.107052356 -0.06358169
-0.107181825 0.12888455 0.3213755 -0.18499382 0.12266631 0.105087206 0.1397895 -0.26932654
0.042059857 -0.34636006 0.12511703 0.2627936 -0.19331549 -0.16021459 0.3133402 -0.22614607
0.22271787 0.00028045583 -0.013047908 -0.5568706 0.009783846 -0.005184564 -0.3838634 -0.158328
-0.11228778 -0.21341853 -0.473079 0.0999378 -0.25552633 -0.063470915 -0.4327466 -0.3955764
-0.28136933 0.030111516 -0.22687954 0.056246854 0.38076055 -0.316102 -0.380984 -0.32475933
-0.020175245 -0.05108543 -0.15776882 -0.0010560905 0.19250031 0.22836849 0.040343326 0.053482797
0.037609212 -0.10932421 0.024780864 0.22008471 0.07565781 0.22812001 -0.17786086 -0.009537765
0.07469249 0.16353884 0.06366622 -0.037082754 -0.23388898 -0.064832196 0.12926212 -0.01504097
0.05621392 -0.021781819 -0.15229075 0.24795616 0.04533458 -0.37209672 0.06584935 -0.09902705
-0.08395632 -0.0031558077 0.006087866 0.21338677 -0.009365608 0.22070149 0.36675426 -0.10766304
0.09670306 -0.058477882 -0.18622789 -0.19569361 -0.0809008 -0.131791 -0.048297632 -0.07839699
0.018910129 0.10460604 -0.04497902 0.38571057 -0.13183402 0.14559259 -0.27923402 0.20648411
-0.19684842 -0.05286317 0.2716718 -0.026444953 -0.07552886 -0.122880764 -0.15461062 -0.15400434
0.08843983 -0.06475588 0.11553391 -0.5736852 0.10187078 0.20931768 -0.06399023 0.022058195
0.103668295 -0.21160345 0.05171675 0.08065129 0.1395021 0.17729796 -0.2553482 -0.12852298
-0.11960072 0.23735175 0.09902307 -0.02869815 -0.243712 -0.05341146 0.031230954 0.08591114
0.118758895 0.01294696 -0.069526374 0.38941804 0.10858429 0.043700952 0.15403777 0.13882904
-0.09912409 0.023988217 -0.18289095 0.42299122 0.22731969 0.14799456 0.071118034 0.0020567756
0.43541133 -0.29036817 -0.19969882 -0.117170855 -0.10813092 -0.084841445 -0.0038842862 -0.08752793
0.053567063 -0.21908775 -0.10260078 0.2548935 -0.14350756 0.3681857 -0.39619094 0.2905591
-0.031737745 -0.21554883 0.21908526 0.24348754 -0.06146845 -0.0010439741 -0.10942439 -0.059600383
-0.15735786 -0.5733501 0.1127395 -0.122584924 -0.15747921 0.080152355 0.061781332 -0.020913506
0.004946876 0.16344212 -0.30331257 0.0077777994 -0.45493418 -0.014109807 -0.113250285 -0.20526133
-0.19857137 -0.047395695 -0.12537351 -0.020752097 -0.2944095 0.22530608 0.21902443 0.21079057
0.12557808 -0.34517437 0.2007764 0.056694347 0.17854685 0.004366962 0.05290365 0.18216811
-0.39845994 -0.28064796 0.113677405 0.20927672 -0.25766915 0.12809232 -0.1715863 -0.011738303
0.14835705 0.21657759 -0.005541002 -0.27653992 -0.6246537 0.16140585 -0.34702858 -0.14419335
0.028489511 0.12866354 -0.4441743 0.08860274 -0.0476508 -0.38500148 -0.27460146 -0.0031066288
-0.15228473 0.09877124 -0.07970359 0.23566161 -0.27070516 -0.2718502 -0.113280065 -0.28056386
00000000: 014f 94bd 437d 7ebe 0638 d93d fc00 d43c
00000010: d102 b3be 9b61 f4be b354 40be f6b5 85bd
00000020: 290f 933d 7729 133e 5f71 7fbe c0be 55be
00000030: aa37 f9be 08ec 113c 79bf b83e ad92 1d3d
00000040: 11b7 27bf 6aaa 433a e37d e5bd 9c5a 3fbd
00000050: 2b3f 89be d568 093e 443e db3d 1e37 82bd
00000060: 2582 dbbd 50fa 033e 548b a43e 056f 3dbe
00000070: 7938 fb3d f637 d73d fb24 0f3e 2be5 89be
00000080: f546 2c3d 1b56 b1be ae1e 003e e28c 863e
00000090: 7ff4 45be 4b0f 24be 206e a03e d692 67be
000000a0: 2710 643e 250a 9339 e5c6 55bc 128f 0ebf
000000b0: 6d4c 203c 46e3 a9bb be89 c4be bc20 22be
000000c0: 23f7 e5bd 638a 5abe 6937 f2be 30ac cc3d
000000d0: 59d4 82be 0afd 81bd f690 ddbe fd88 cabe
000000e0: a40f 90be 6dac f63c 1c53 68be 1a63 663d
000000f0: 0cf3 c23e 1fd8 a1be 5610 c3be db46 a6be
00000100: 8e46 a5bc f53e 51bd 268e 21be 846c 8aba
00000110: cd1e 453e 6ed9 693e 0b3f 253d c710 5b3d
00000120: 1e0c 1a3d 5fe5 dfbd 3d01 cb3c e35d 613e
00000130: 7bf2 9a3d 4b98 693e 2821 36be 4944 1cbc
00000140: 60f8 983d ba76 273e 6f63 823d 16e4 17bd
00000150: 9880 6fbe bec6 84bd 4a5d 043e 676e 76bc
00000160: 9140 663d c96f b2bc 1bf2 1bbe 38e8 7d3e
00000170: c1b0 393d 7683 bebe 06dc 863d b2ce cabd
00000180: 4bf1 abbd abd1 4ebb b97c c73b 1082 5a3e
00000190: 3572 19bc 92ff 613e 37c7 bb3e 717e dcbd
000001a0: 410c c63d 8186 6fbd 86b2 3ebe e863 48be
000001b0: 52af a5bd 38f4 06be bdd3 45bd 9a8e a0bd
000001c0: 6ae9 9a3c b13b d63d ec3b 38bd db7b c53e
000001d0: 7fff 06be 3916 153e c3f7 8ebe 9270 533e
000001e0: a292 49be 0d87 58bd 9118 8b3e 16a3 d8bc
000001f0: e0ae 9abd e9a8 fbbd 3f52 1ebe 50b3 1dbe
00000200: f11f b53d bb9e 84bd 0b9d ec3d 09dd 12bf
00000210: a1a1 d03d 6057 563e 4f0d 83bd 63b3 b43c
00000220: 0b50 d43d 93ae 58be f1d4 533d 812c a53d
00000230: a3d9 0e3e 998d 353e 00bd 82be 879b 03be
00000240: 39f1 f4bd 560c 733e 9bcc ca3d 6218 ebbc
00000250: a38f 79be fac5 5abd 0fd8 ff3c 2ef2 af3d
00000260: dd37 f33d 7c1f 543c d863 8ebd cd61 c73e
00000270: 7161 de3d c5ff 323d 14bc 1d3e 3329 0e3e
00000280: 9201 cbbd f082 c43c c447 3bbe 4e92 d83e
00000290: 7ec6 683e e38b 173e 55a6 913d f8ca 063b
000002a0: 3cee de3e 23ab 94be d97d 4cbe 46f7 efbd
000002b0: be73 ddbd 5ac1 adbd 828f 7ebb d841 b3bd
000002c0: 2369 5b3d 8a58 60be 5c20 d2bd 6781 823e
000002d0: a5f3 12be d682 bc3e 8ad9 cabe 2ac4 943e
000002e0: 70ff 01bd d5b8 5cbe e357 603e cc54 793e
000002f0: 57c6 7bbd f5d5 88ba e519 e0bd 881f 74bd
00000300: 6b22 21be 12c7 12bf f8e3 e63d ce0d fbbd
00000310: 3b42 21be eb26 a43d 6c0e 7d3d cd52 abbc
00000320: 6719 a23b 5f5d 273e c94b 9bbe e9dc fe3b
00000330: 22ed e8be d22c 67bc c4ef e7bd 0730 52be
00000340: 4b56 4bbe fd21 42bd ea61 00be 4d00 aabc
00000350: d8bc 96be a3b6 663e f147 603e 7cd9 573e
00000360: 8a97 003e b2ba b0be 5498 4d3e 5538 683d
00000370: fcd4 363e bb18 8f3b 7fb1 583d 478a 3a3e
00000380: f102 ccbe 17b1 8fbe b3cf e83d a34c 563e
00000390: 36ed 83be a22a 033e 52b4 2fbe 0352 40bc
000003a0: e9ea 173e 84c6 5d3e 4b91 b5bb a496 8dbe
000003b0: 4ee9 1fbf 9347 253e bbad b1be 6ca7 13be
000003c0: d662 e93c 60c0 033e d06a e3be 5a75 b53d
000003d0: 7c2d 43bd ea1e c5be 9098 8cbe 9598 4bbb
000003e0: 87f0 1bbe 9348 ca3d a33b a3bd 4751 713e
000003f0: de99 8abe f32f 8bbe 61ff e7bd 11a6 8fbe

fc2.bias f4 [64]
0.016454227 0.062213026 0.12170138 -0.045943994 0.20649058 -0.06853738 -0.08357642 0.082833156
0.2795676 0.41672498 -0.21858534 0.103630014 0.028176203 0.022607049 -0.18325695 0.07610405
-0.021501103 -0.11278503 -0.09344281 0.24505349 0.056406047 0.478222 -0.17546985 -0.0433208
-0.06856004 -0.093374684 0.025223121 0.013472299 -0.022201208 -0.05848863 0.26911402 -0.13423082
-0.024117807 0.05905096 0.03191542 -0.1261793 -0.1924481 -0.055876456 0.29200608 -0.0026619926
-0.11739064 0.49185064 0.30097347 -0.06517738 0.22626333 -0.079234555 0.22549854 -0.16263397
0.10569813 -0.20897451 -0.09762789 0.39315915 -0.07639356 -0.033596486 0.14113767 -0.075250216
-0.21714494 -0.06880251 0.0005575714 -0.15611511 -0.010777306 0.34096426 0.13138472 -0.0633119
00000000: 04cb 863c 16d3 7e3d 933e f93d c52f 3cbd
00000010: 4472 533e 535d 8cbd 1d2a abbd 6ea4 a93d
00000020: 7c23 8f3e fa5c d53e d6d4 5fbe f93b d43d
00000030: c8d1 e63c 6b32 b93c b6a7 3bbe 71dc 9b3d
00000040: 1523 b0bc d6fb e6bd f25e bfbd 4def 7a3e
00000050: 070a 673d 84d9 f43e 5eae 33be 2771 31bd
00000060: 3569 8cbd 3a3b bfbd b8a0 ce3c ebba 5c3c
00000070: 4fdf b5bc c691 6fbd 50c9 893e ce73 09be
00000080: b592 c5bc 6bdf 713d beb9 023d 2535 01be
00000090: 1d11 45be b6de 64bd d281 953e d374 2ebb
000000a0: 816a f0bd d9d3 fb3e 3219 9a3e b87b 85bd
000000b0: 93b1 673e ba45 a2bd 17e9 663e 8589 26be
000000c0: 4378 d83d 6afd 55be 22f1 c7bd 284c c93e
000000d0: 3a74 9cbd 789c 09bd 6586 103e c91c 9abd
000000e0: 3e5b 5ebe 55e8 8cbd fc29 123a a4dc 1fbe
000000f0: 4c93 30bc de92 ae3e b789 063e aba9 81bd

fc3.weight f4 [4, 64]
-0.34057364 0.2980292 0.23846947 -0.29463395 0.45129648 0.28269565 -0.15745465 0.042351596
0.17682433 0.12731878 -0.17770079 0.17069103 0.37976828 0.0022137368 -0.36753926 -0.4392494
-0.022470545 0.410743 -0.28192833 0.14102018 0.04394191 0.13960215 0.07175608 0.1329248
-0.3122492 0.18530148 -0.38551906 -0.46291944 0.34270155 0.021018188 0.09204152 0.05977383
0.19150989 0.32474732 -0.0031088856 0.009283886 -0.14598298 -0.65626603 0.13778958 0.30587986
0.0012827142 0.16668577 0.08707799 -0.039268762 0.094131194 -0.14319776 0.17864197 -0.06542135
0.079478025 -0.09487363 0.2783273 0.15286915 -0.17204799 0.1336023 0.1687028 0.3750207
-0.26183796 0.25592127 -0.10738335 -0.051870827 -0.1486672 0.18991488 0.47378525 0.5123045
0.58098954 0.16694747 0.29046795 -0.12627311 0.27921784 0.08545035 -0.17601751 0.060568828
0.119060375 0.14485084 -0.05090733 0.51307255 0.3358987 0.1906718 -0.16483569 -0.014144561
-0.11479445 0.4857267 -0.14480788 0.08723761 0.2572224 0.22278611 -0.08070876 0.41646808
0.07556797 -0.047556635 0.21271962 0.109274246 0.4084856 0.11661456 0.24910854 0.23426571
0.12830885 0.34638062 0.0880793 -0.040108506 -0.3120523 0.06551513 0.21309629 0.36740896
0.2331572 0.15728743 0.08198138 -0.115757406 0.11304668 -0.1675495 0.17383014 -0.31564954
-0.008760595 -0.20625322 0.16620593 0.128277 0.071054526 0.38494396 0.18993221 0.3313666
-0.28632146 0.1507935 -0.14514342 -0.040603578 -0.12935229 0.096342385 0.21884957 0.30225328
-0.08416954 0.20009644 0.37648845 0.08572416 0.31468004 -0.29647058 0.20884736 0.3171227
-0.0052029393 0.14699958 -0.17280568 0.55722594 0.57332766 -0.40689313 -0.09243668 -0.033814415
0.03141938 0.2729376 -0.24089342 0.098703384 0.22311656 0.22368975 -0.19729611 0.05599864
0.31870598 -0.011624465 -0.03253223 -0.14158525 -0.06507497 0.17546712 0.1296553 -0.08796494
-0.52336264 0.27118325 0.09797792 0.087400034 0.11398136 -0.20998426 0.281494 -0.022729715
-0.2924562 0.16823809 0.1643516 0.22154444 0.06053675 -0.13014477 0.14343765 0.19750893
0.14360239 -0.33728486 -0.52424973 0.2744742 0.04022835 0.12866975 0.09873813 0.368341
-0.32078037 -0.31638736 -0.2530583 -0.046828926 -0.275899 0.20551607 0.1971378 0.31611884
0.12728132 0.057404894 0.2564798 -0.49710682 0.15156911 -0.07717179 -0.2195235 0.17208356
0.17761911 0.17687075 -0.12688005 -0.065397136 0.25254318 0.23295653 0.16021922 -0.39162862
0.11740197 0.52083063 0.2998032 0.10945864 0.20945412 0.21407829 -0.19547875 -0.46838418
0.36206904 -0.2455804 -0.40991032 0.3040319 0.2787647 -0.19990505 0.14340562 0.39855137
-0.29271853 0.39589977 -0.2166058 0.020697864 -0.25860664 0.38941383 0.25576028 -0.009343001
-0.163672 0.22813648 0.2575629 -0.16281196 0.21453658 -0.2280574 0.079966106 -0.08897561
0.09377199 -0.030139908 0.33440095 0.25585425 -0.4635076 0.3658936 0.14140913 0.088373475
-0.33015838 -0.39880657 -0.4345135 -0.24927497 0.13222165 0.052133277 0.11592762 0.6067059
00000000: ab5f aebe 4997 983e 5731 743e 43da 96be
00000010: 5510 e73e 7cbd 903e cb3b 21be de78 2d3d
00000020: 7011 353e db5f 023e 32f7 35be a1c9 2e3e
00000030: fd70 c23e 5714 113b 1b2e bcbe 4ce5 e0be
00000040: 2614 b8bc e84c d23e e958 90be 9867 103e
00000050: 6ffc 333d def3 0e3e daf4 923d 701d 083e
00000060: 21df 9fbe acbf 3d3e c162 c5be c703 edbe
00000070: 9476 af3e 562e ac3c 4480 bc3d 67d5 743d
00000080: 2b1b 443e 4845 a63e 72be 4bbb 711b 183c
00000090: 907c 15be 0d01 28bf b618 0d3e 499c 9c3e
000000a0: bf20 a83a adaf 2a3e f255 b23d 48d8 20bd
000000b0: dbc7 c03d 6fa2 12be eced 363e a1fb 85bd
000000c0: 60c5 a23d 1b4d c2bd ea80 8e3e bb89 1c3e
000000d0: 592d 30be 0bcf 083e 6dc0 2c3e b702 c03e
000000e0: a00f 86be 1d08 833e cdeb dbbd 8176 54bd
000000f0: 373c 18be 0c79 423e fb93 f23e 6326 033f
00000100: bbbb 143f 47f4 2a3e 37b8 943e bd4d 01be
00000110: a4f5 8e3e 9800 af3d ef3d 34be 0517 783d
00000120: edd5 f33d c753 143e 3484 50bd b958 033f
00000130: eafa ab3e 783f 433e b0ca 28be 97be 67bc
00000140: 5a19 ebbd 2cb1 f83e 8448 14be a2a9 b23d
00000150: a8b2 833e 0b22 643e a24a a5bd 4e3b d53e
00000160: 61c3 9a3d bfca 42bd 2cd3 593e 2dcb df3d
00000170: 0625 d13e 9dd3 ee3d 4f16 7f3e 5ae3 6f3e
00000180: 6563 033e cd58 b13e ec62 b43d d148 24bd
00000190: 52c5 9fbe cc2c 863d ea35 5a3e 071d bc3e
000001a0: c3c0 6e3e f50f 213e dbe5 a73d 3812 edbd
000001b0: 0585 e73d 1992 2bbe 8700 323e d19c a1be
000001c0: 9988 0fbc 0b34 53be e331 2a3e 0c5b 033e
000001d0: 0985 913d 6017 c53e 977d 423e e2a8 a93e
000001e0: ba98 92be 9c69 1a3e 7aa0 14be f04f 26bd
000001f0: ed74 04be 284f c53d 1a1a 603e f1c0 9a3e
00000200: 1461 acbd 15e6 4c3e 18c3 c03e 2690 af3d
00000210: be1d a13e feca 97be 15dc 553e e85d a23e
00000220: 6b7d aabb 0f87 163e f9f3 30be 5ca6 0e3f
00000230: 9ac5 123f 4c54 d0be 714f bdbd fc80 0abd
00000240: 9cb1 003d 7abe 8b3e c4ac 76be 0025 ca3d
00000250: ab78 643e ed0e 653e fe07 4abe d45e 653d
00000260: 6e2d a33e 8a74 3ebc 8440 05bd b9fb 10be
00000270: 0746 85bd a7ad 333e 5cc4 043e f626 b4bd
00000280: 18fb 05bf 88d8 8a3e a6a8 c83d cafe b23d
00000290: 0f6f e93d 1d06 57be fb1f 903e ab33 babc
000002a0: d2bc 95be 9b46 2c3e c94b 283e 8cdc 623e
000002b0: 62f5 773d ac44 05be 52e1 123e c83f 4a3e
000002c0: 810c 133e 9ab0 acbe 3b35 06bf e287 8c3e
000002d0: 7bc6 243d 01c2 033e 3737 ca3d 3197 bc3e
000002e0: 533d a4be 86fd a1be dc90 81be b0cf 3fbd
000002f0: a242 8dbe ce72 523e 7ede 493e 54da a13e
00000300: 0956 023e 6521 6b3d 5251 833e c984 febe
00000310: ef34 1b3e 3e0c 9ebd c5ca 60be ac36 303e
00000320: c9e1 353e 9b1d 353e d8ec 01be efee 85bd
00000330: 574d 813e 288c 6e3e 8210 243e 8c83 c8be
00000340: 7270 f03d 2855 053f ce7f 993e da2b e03d
00000350: 247b 563e 5737 5b3e 952b 48be 0dd0 efbe
00000360: 1d61 b93e 6e79 7bbe c4df d1be 12aa 9b3e
00000370: 3fba 8e3e e9b3 4cbe ecd8 123e ed0e cc3e
00000380: 34df 95be 60b3 ca3e e9cd 5dbe 918e a93c
00000390: 1768 84be 4061 c73e 03f3 823e 6313 19bc
000003a0: a299 27be 9c9c 693e 49df 833e 2eb8 26be
000003b0: 7aaf 5b3e e187 69be 45c5 a33d d838 b6bd
000003c0: 870b c03d f8e7 f6bc 9a36 ab3e 54ff 823e
000003d0: de50 edbe 6856 bb3e 8ecd 103e 27fd b43d
000003e0: 850a a9be 6030 ccbe 8e78 debe f041 7fbe
000003f0: 1d65 073e b489 553d 766b ed3d 1451 1b3f

fc3.bias f4 [4]
0.29995644 0.23248555 0.16058941 0.15106836
00000000: e493 993e b110 6e3e 8d71 243e aab1 1a3e
