p3_collab-compet/agent_0_checkpoint_actor.pth (torch_old, 183870 bytes, 6 tensors)

fc1.weight f4 [256, 48]
-0.122161806 -0.20168458 0.007818174 0.0069053043 -0.00497117 -0.23386931 0.012873877 0.060249228
0.005274845 -0.075728424 -0.14352204 0.10856582 -0.10507496 -0.3664681 -0.081699334 0.19929716
0.044344332 -0.034089066 -0.1448427 0.097522475 -0.12014016 -0.43643606 -0.10628671 0.16762674
-0.18187149 -0.14944468 -0.02487185 -0.3488781 0.002652955 -0.2867683 0.0699261 -0.34336743
-0.15327883 -0.21686685 -0.23628159 -0.524272 0.085135184 -0.3647362 -0.26913223 -0.47723064
-0.19901714 -0.3542447 -0.21590766 -0.8419342 0.12930693 -0.431433 -0.16925566 -0.80966854
-0.17320296 -0.008821774 -0.030176712 -0.019322366 -0.2544113 -0.82498366 0.0027908322 0.004571139
-0.10604594 0.043156173 -0.019536603 -0.17879686 -0.13480623 -1.0138503 0.06965295 -0.13990527
-0.13337106 0.13020562 -0.027829012 0.029318152 0.12369728 -1.4698696 -0.042220645 -0.01551254
-0.12360743 0.37962416 0.012679107 -0.055558942 0.20696081 -0.8303522 0.0088052945 -0.10505932
-0.014363522 0.29692602 0.27156675 -0.0027542114 0.1297147 -1.1220158 0.24469258 -0.06831448
-0.10253248 0.39950472 0.15491405 0.17709121 -0.2269541 -1.4451041 0.08411366 0.21686205
0.03026453 0.13846119 0.027691657 -0.15243886 -0.22069997 -0.4662888 -0.00010667539 -0.05962305
0.00032478673 0.11789282 -0.14343353 0.048521608 -0.016042843 -0.43500412 -0.17415415 -0.033544946
-0.008198467 0.21981877 -0.057301875 -0.054234598 0.22208188 -0.565781 -0.07300197 -0.039418217
0.13464874 -0.48806182 -0.25404835 -0.33636788 0.18512423 -0.46694863 -0.18589234 -0.3597923
0.0130898915 -0.5108488 0.09439247 -0.32745472 -0.02951758 -0.4181639 0.15616502 -0.42586023
0.08092355 -0.5725599 -0.0024401336 -0.42703205 -0.23774512 -0.5997759 0.104148574 -0.45877823
-0.14479755 0.56752175 -0.09720581 0.3532605 -0.22761759 -0.23404506 -0.04945686 0.2875972
-0.10219275 0.6024967 -0.010243621 0.27112946 -0.091153264 -0.10904129 -0.032678258 0.29382375
0.060999446 0.5909395 -0.005401672 -0.07788592 -0.024783555 -0.030644506 -0.099498406 -0.056905817
0.28323007 0.1565975 -0.36863682 -0.10804356 0.12923418 -0.27186397 -0.34115502 -0.110746905
0.23275243 0.06002456 -0.3959022 -0.3102006 0.121629655 -0.15357125 -0.36156085 -0.37548754
0.30185235 -0.009838642 0.013018633 -0.15431555 0.08406633 0.08022266 -0.07102033 -0.16694497
-0.0983562 0.3677828 -0.255566 0.1573758 -0.1354984 -0.5471587 -0.18882807 0.13132319
0.04481064 0.37099326 -0.062831044 -0.0654555 -0.068697445 -0.64617854 -0.13002197 -0.024982756
0.034582004 0.3732905 -0.13372634 -0.19151956 -0.07683841 -0.7995532 -0.09131161 -0.25771725
0.22231416 -0.05322693 -0.04231822 -0.34545833 0.06488173 -0.510168 0.017184466 -0.2251591
0.1755453 -0.21402994 -0.045196686 -0.08539822 0.06203372 -0.7204018 0.00890273 -0.14743172
0.17212278 -0.2842428 -0.14218625 -0.13017993 0.13486505 -0.8250626 -0.07993048 -0.1838344
0.33662134 -1.0017736 0.042237926 -0.956468 0.023198588 -0.042853907 0.05940718 -0.95793575
0.110410176 -1.1390421 -0.057890866 -0.73987746 -0.43071967 0.029341262 -0.07831053 -0.74396974
00000000: f82f fabd 6786 4ebe cc17 003c e445 e23b
00000010: 32e5 a2bb 707b 6fbe f4ec 523c e5c7 763d
00000020: 9bd8 ac3b 8117 9bbd 71f7 12be c257 de3d
00000030: 8a31 d7bd b5a1 bbbe fb51 a7bd 8e14 4c3e
00000040: 67a2 353d faa0 0bbd a551 14be ddb9 c73d
00000050: 0b0c f6bd 8c74 dfbe d9ac d9bd 58a6 2b3e
00000060: 853c 3abe 0708 19be 0dc0 cbbc 26a0 b2be
00000070: 33dd 2d3b 4bd3 92be 6a35 8f3d dbcd afbe
00000080: 20f5 1cbe 5812 5ebe cdf3 71be b136 06bf
00000090: 5b5b ae3d b4be babe b3cb 89be 9357 f4be
000000a0: 26cb 4bbe 905f b5be e616 5dbe 0089 57bf
000000b0: 0969 043e c9e4 dcbe 5b51 2dbe 7046 4fbf
000000c0: 1e5c 31be 3489 10bc 2735 f7bc f049 9ebc
000000d0: 3342 82be 2132 53bf 65e6 363b 7ec9 953b
000000e0: 9d2e d9bd 87c4 303d 3a0b a0bc 8616 37be
000000f0: a50a 0abe d9c5 81bf 35a6 8e3d 5443 0fbe
00000100: 6c92 08be 9f54 053e abf9 e3bc 9f2c f03c
00000110: 0055 fd3d b024 bcbf 8eef 2cbd 4f28 7ebc
00000120: e425 fdbd 195e c23e 07bc 4f3c c691 63bd
00000130: 89ed 533e f691 54bf 1544 103c 5729 d7bd
00000140: fa54 6bbc b006 983e cc0a 8b3e 0080 34bb
00000150: eed3 043e 379e 8fbf b190 7a3e 76e8 8bbd
00000160: 8dfc d1bd e28b cc3e caa1 1e3e 6657 353e
00000170: a866 68be 2cf9 b8bf c843 ac3d 1611 5e3e
00000180: 52ed f73c c5c8 0d3e 9dd9 e23c ef18 1cbe
00000190: 2cff 61be 68bd eebe eab6 dfb8 4d37 74bd
000001a0: 2348 aa39 ca71 f13d 3de0 12be 98be 463d
000001b0: 486c 83bc dcb8 debe 7755 32be 6d66 09bd
000001c0: dd52 06bc 2c18 613e 5fb5 6abd 1925 5ebd
000001d0: 6f69 633e 06d7 10bf 0f82 95bd ff74 21bd
000001e0: 5ce1 093e 3de3 f9be a012 82be 6938 acbe
000001f0: 3591 3d3e e413 efbe 905a 3ebe b236 b8be
00000200: fc76 563c fdc6 02bf d750 c13d 25a8 a7be
00000210: dace f1bc 9419 d6be b9e9 1f3e 5a0a dabe
00000220: 3fbb a53d 4993 12bf a6ea 1fbb f2a3 dabe
00000230: 7573 73be ea8a 19bf d94b d53d fbe4 eabe
00000240: cf45 14be 1b49 113f d713 c7bd 8fde b43e
00000250: 9614 69be 82a9 6fbe 4793 4abd f13f 933e
00000260: 6f4a d1bd 393d 1a3f dcd4 27bc 7bd1 8a3e
00000270: 90ae babd 0a51 dfbd a3d9 05bd 1170 963e
00000280: 8eda 793d d047 173f 8200 b1bb a782 9fbd
00000290: e206 cbbc 300a fbbc d2c5 cbbd 1316 69bd
000002a0: 8803 913e 185b 203e f7bd bcbe f145 ddbd
000002b0: f755 043e c131 8bbe dfab aebe 46cf e2bd
000002c0: a756 6e3e 50dc 753d b1b3 cabe 9dd2 9ebe
000002d0: f818 f93d c841 1dbe 811e b9be e73f c0be
000002e0: 648c 9a3e 4132 21bc 1b4c 553c e504 1ebe
000002f0: f82a ac3d c74b a43d 1b73 91bd 9ff3 2abe
00000300: fa6e c9bd 074e bc3e 8cd9 82be 1f27 213e
00000310: 18c0 0abe 9812 0cbf 255c 41be 9679 063e
00000320: 5d8b 373d d4f2 bd3e 90ad 80bd 880d 86bd
00000330: 3fb1 8cbd f56b 25bf 7b24 05be a3a8 ccbc
00000340: dca5 0d3d ef1f bf3e 8fef 08be b41d 44be
00000350: 755d 9dbd 85af 4cbf 9501 bbbd 84f3 83be
00000360: 53a6 633e 7b04 5abd df55 2dbd eadf b0be
00000370: b6e0 843d 5f9a 02bf 70c6 8c3c 1b90 66be
00000380: 26c2 333e aa2a 5bbe 2920 39bd 43e5 aebd
00000390: 1217 7e3d 416c 38bf c2dc 113c 57f8 16be
000003a0: f440 303e 4688 91be 4699 11be e34d 05be
000003b0: 101a 0a3e 4d37 53bf 97b2 a3bd 163f 3cbe
000003c0: a259 ac3e 1e3a 80bf ad01 2d3d 16db 74bf
000003d0: f70a be3c 9487 2fbd f154 733d 473b 75bf
000003e0: bb1e e23d 22cc 91bf f91e 6dbd 9c68 3dbf
000003f0: 4a87 dcbe 165d f03c 4561 a0bd cd74 3ebf

fc1.bias f4 [256]
0.037784137 0.09048977 -0.11846841 -0.31891376 -0.31239155 0.23287532 -0.2460339 0.1584681
-0.11802878 -0.22080894 -0.27573723 0.2643197 -0.19628204 0.2559132 -0.3219619 0.0067569776
-0.15635839 -0.23585406 -0.11185081 -0.16860928 -0.08025459 -0.3910078 -0.07189413 -0.17921422
0.07847085 -0.078895636 0.12989292 -0.40037763 -0.3881786 -0.28159916 0.044927362 0.26919273
-0.09470102 0.10170523 -0.08512048 -0.2582021 -0.36289814 0.123864524 0.10047814 -0.21196648
0.08235383 0.012902385 0.020874504 -0.118573956 -0.35822368 -0.20603622 0.052828252 0.027354814
-0.067290865 0.07211066 -0.26206324 -0.2735637 -0.20052545 -0.24603762 -0.36661825 -0.11692641
-0.100177296 -0.16156857 -0.08533253 0.14593375 0.066845916 -0.186161 -0.23683402 0.014586822
0.025946498 -0.23251079 -0.43688357 -0.10925637 -0.09268781 -0.124136604 -0.04868598 -0.2489037
-0.036703072 -0.062175818 -0.04296331 0.17859688 -0.2557947 -0.21172571 -0.14340712 -0.37468767
0.07088888 0.390772 0.0017389639 -0.24685436 0.034480702 -0.27909106 -0.2324997 -0.097683094
0.107862435 -0.10353225 -0.12215645 -0.25162023 -0.26661775 -0.20527698 -0.18560898 0.06303167
0.18406571 0.030186491 -0.010605437 -0.041482784 -0.2069906 -0.26217094 0.12407552 -0.23106168
-0.16843066 -0.21271114 -0.32195204 -0.32926694 0.048166532 -0.20351946 -0.4237123 0.0005916091
0.025627945 -0.2527189 -0.35284775 -0.06125535 -0.11304943 -0.16570003 -0.37897676 -0.2387495
-0.18202673 -0.060554337 -0.15769117 -0.28515697 -0.3961016 -0.057397768 -0.317246 0.41079795
0.2807631 -0.28291687 -0.3075577 -0.3669252 -0.25510558 -0.42499408 -0.11089453 0.14108507
-0.20132832 -0.18465538 -0.1405067 -0.1963108 0.22011961 -0.29895362 -0.17262088 -0.18208155
-0.07215028 -0.2703274 0.05898757 0.28235424 -0.23283787 -0.29048792 -0.044293493 0.09237504
0.3553467 -0.09912888 -0.16162375 -0.06877624 -0.20977971 -0.27899235 0.0065948777 0.06557177
-0.17086422 0.08642785 -0.15551722 -0.3668422 0.035707362 -0.30774122 -0.3292249 -0.033345964
-0.18422827 -0.13634104 0.0064179157 -0.1759918 -0.1157792 -0.14968741 0.053589262 -0.20421536
0.093075484 -0.2925013 -0.17570244 -0.19708844 0.054284874 -0.0055839205 -0.22049983 -0.47834685
-0.3794923 -0.022926563 0.023852188 -0.07328778 -0.03359358 -0.14503701 -0.17600156 0.25289473
0.22312793 -0.14618202 -0.17505506 0.038234893 -0.20649247 -0.14096932 -0.07915187 -0.48579723
0.096070506 -0.028635236 0.1717143 -0.14495192 -0.28551793 -0.117889985 0.18213047 -0.2298404
-0.087274946 0.0051738536 0.18345523 -0.17587467 -0.23116182 -0.016702604 0.081595555 0.05863204
-0.32538635 0.02852157 -0.0091082705 -0.21832749 -0.06962681 -0.2649742 -0.30905154 -0.3483064
0.09160438 -0.26566702 -0.32683462 0.2483929 0.18777649 -0.34071192 -0.0068266653 -0.1688015
-0.24855602 -0.3765805 -0.34820652 -0.035192203 -0.18279105 -0.26406503 0.16234426 -0.12493086
0.076591834 -0.39737046 -0.21592687 -0.17952411 -0.1832993 -0.06936526 -0.025740346 -0.19606261
-0.15738775 0.15858328 -0.27088603 -0.28791156 -0.2711382 -0.064018436 -0.07403806 -0.14845124
00000000: 8ac3 1a3d b352 b93d 919f f2bd aa48 a3be
00000010: c9f1 9fbe de76 6e3e 50f0 7bbe 7645 223e
00000020: 13b9 f1bd bd1b 62be 6e2d 8dbe e954 873e
00000030: 29fe 48be 0e07 833e 31d8 a4be a369 dd3b
00000040: 6a1c 20be ba83 71be 0a12 e5bd e9a7 2cbe
00000050: 855c a4bd 2d32 c8be 3b3d 93bd ef83 37be
00000060: 53b5 a03d 0994 a1bd a602 053e 4cfe ccbe
00000070: 58bf c6be c42d 90be c105 383d a1d3 893e
00000080: 9cf2 c1bd d54a d03d a553 aebd 1133 84be
00000090: c9cd b9be afac fd3d 7cc7 cd3d be0d 59be
000000a0: 20a9 a83d 8664 533c 0201 ab3c e7d6 f2bd
000000b0: 1869 b7be 29fb 52be 7062 583d 3417 e03c
000000c0: cbcf 89bd c1ae 933d 272d 86be 8b10 8cbe
000000d0: 8b56 4dbe 49f1 7bbe 63b5 bbbe 1d77 efbd
000000e0: c129 cdbd 3b72 25be d2c2 aebd a86f 153e
000000f0: 83e6 883d fda0 3ebe 9e84 72be 91fd 6e3c
00000100: c08d d43c 4f17 6ebe 34af dfbe cec1 dfbd
00000110: 1bd3 bdbd 553b febd f36a 47bd 9de0 7ebe
00000120: f655 16bd 12ac 7ebd 4cfa 2fbd 1ae2 363e
00000130: 86f7 82be a0ce 58be 51d9 12be 10d7 bfbe
00000140: 302e 913d 4513 c83e f2ed e33a 64c7 7cbe
00000150: a33b 0d3d 06e5 8ebe 6714 6ebe 130e c8bd
00000160: fbe6 dc3d b708 d4bd 292d fabd 5ed4 80be
00000170: 1f82 88be 2134 52be 4810 3ebe c016 813d
00000180: b97b 3c3e a949 f73c 6dc2 2dbc dae9 29bd
00000190: 58f5 53be 453b 86be 4e1b fe3d 6f9b 6cbe
000001a0: 1679 2cbe f3d0 59be e6d6 a4be ad95 a8be
000001b0: 454a 453d 6867 50be d2f0 d8be 3716 1b3a
000001c0: b2f1 d13c 5f64 81be 76a8 b4be e4e6 7abd
000001d0: 7686 e7bd 45ad 29be 3e09 c2be c07a 74be
000001e0: 3765 3abe d307 78bd cb79 21be 1800 92be
000001f0: d4cd cabe ec19 6bbd 116e a2be 1c54 d23e
00000200: 2ec0 8f3e 7bda 90be 3478 9dbe 9fdd bbbe
00000210: 339d 82be d398 d9be ac1c e3bd 9b78 103e
00000220: 0329 4ebe 4d16 3dbe fde0 0fbe b305 49be
00000230: 0967 613e 7310 99be 87c3 30be 9673 3abe
00000240: 87c3 93bd 5a68 8abe f39c 713d bc90 903e
00000250: 0d6d 6ebe d5ba 94be 186d 35bd 202f bd3d
00000260: 01f0 b53e 1504 cbbd b280 25be 8fda 8cbd
00000270: 7ed0 56be 16d8 8ebe d819 d83b 7e4a 863d
00000280: 08f7 2ebe 1601 b13d e83f 1fbe bed2 bbbe
00000290: e241 123d 4290 9dbe 2b90 a8be c795 08bd
000002a0: 56a6 3cbe fc9c 0bbe 614d d23b 3237 34be
000002b0: a51d edbd a847 19be 6a80 5b3d d51d 51be
000002c0: 5c9e be3d bbc2 95be 57eb 33be 8dd1 49be
000002d0: d159 5e3d 52f9 b6bb b5ca 61be e1e9 f4be
000002e0: d14c c2be 7dd0 bbbc aa65 c33c e717 96bd
000002f0: 6c99 09bd 9584 14be c139 34be 6b7b 813e
00000300: a67b 643e bdb0 15be a241 33be 319c 1c3d
00000310: c372 53be 435a 10be 601a a2bd 6aba f8be
00000320: 9dc0 c43d 7194 eabc e0d5 2f3e 476e 14be
00000330: 682f 92be 4e70 f1bd 6980 3a3e 485b 6bbe
00000340: 35bd b2bd 6e89 a93b b0db 3b3e 7d18 34be
00000350: afb5 6cbe e6d3 88bc 921b a73d 2628 703d
00000360: 0a99 a6be 11a6 e93c db3a 15bc 3e91 5fbe
00000370: 8098 8ebd b3aa 87be 013c 9ebe 3755 b2be
00000380: 149b bb3d 8205 88be de56 a7be b55a 7e3e
00000390: 7b48 403e cb71 aebe 38b2 dfbb 4dda 2cbe
000003a0: 7885 7ebe 29cf c0be 2048 b2be b325 10bd
000003b0: 942d 3bbe 8833 87be 933d 263e c0db ffbd
000003c0: 2edc 9c3d 2474 cbbe ef1b 5dbe 2bd5 37be
000003d0: d0b2 3bbe 600f 8ebd 6bdd d2bc a3c4 48be
000003e0: 412a 21be a863 223e 93b1 8abe 2569 93be
000003f0: a0d2 8abe 191c 83bd 44a1 97bd 9a03 18be

fc2.weight f4 [128, 256]
-0.071763285 -0.0067056622 0.019786922 -0.01785891 -0.036289174 -0.06490932 0.0028825891 0.010006996
-0.05813193 -0.072054245 -0.057154473 -0.0020250492 -0.092246756 -0.022690129 0.029513255 0.03658281
-0.07239777 -0.10365825 -0.10381813 -0.081278816 -0.12524882 0.031825613 -0.149527 -0.010908242
-0.046620563 -0.087169446 -0.058100447 0.095009424 -0.06723982 -0.15242463 -0.13913089 -0.025436247
0.05217475 -0.07730103 -0.13046621 -0.034053713 -0.11340512 -0.100086614 -0.06171862 -0.102962896
-0.18955278 0.06634461 -0.074504815 -0.054756526 -0.05241519 -0.03834604 -0.06279507 0.044833474
-0.13383277 0.030349882 0.0004381557 -0.11676276 -0.05484479 0.03583462 0.035107046 -0.07741961
-0.036714587 -0.039065607 0.007877668 0.002280955 0.055353954 0.033718493 -0.016025966 0.023661125
-0.019532766 0.09561604 0.032862905 -0.053346403 -0.06433082 -0.061355796 -0.014295006 -0.040290732
0.0662742 0.04765958 -0.0852611 0.012760171 -0.046473216 -0.05913859 -0.052147917 -0.05180808
-0.036688883 -0.04048225 0.020274099 -0.015791232 -0.003979032 0.018187387 0.028983107 0.044577412
-0.09845767 0.0065372516 -0.05756152 -0.071054384 -0.033687312 -0.033881146 0.010612185 0.028756896
-0.05663205 0.04823376 0.035238683 0.06394538 0.06521811 0.0047195707 -0.042775717 -0.16497412
-0.020422861 0.03194638 -0.013027336 -0.0052200947 -0.11004692 -0.14020056 0.03035708 0.030533906
-0.048806127 -0.0260233 -0.038652495 -0.0038604694 -0.06674359 -0.048789468 -0.099941246 -0.0046875803
-0.10072038 -0.04899874 -0.16083628 -0.110377 0.100702554 -0.036694653 0.037763186 -0.014571711
-0.12765628 0.061871488 -0.0031707059 -0.070093855 -0.09108083 -0.048550833 -0.0004669978 -0.11445048
-0.013580512 0.006768974 -0.035017136 -0.06303648 0.03987658 0.06259229 0.11372551 -0.04202883
0.09944554 0.048307844 0.04854216 -0.10363626 0.051355664 -0.09078204 -0.018567953 -0.09648673
-0.053724144 -0.05521982 -0.088352434 -0.002496952 -0.0764986 -0.033741627 0.029951617 0.008778878
-0.040411413 -0.121891245 0.048478432 -0.11250313 0.039862983 -0.03349911 -0.0050123516 0.0042226203
-0.04531349 0.042970218 -0.11991771 -0.09810872 -0.009360882 -0.11240809 0.0874079 -0.047867052
-0.0150051955 -0.024284214 0.024532976 -0.04430433 0.023606934 0.041166045 0.028442172 -0.061483182
0.02628061 0.015301914 0.004921708 -0.050787017 -0.10763605 0.062196895 -0.01535114 -0.091579504
-0.15313986 -0.062810026 -0.041062474 0.06696272 0.05112837 0.026180567 -0.026811777 -0.1034411
-0.09337478 -0.097111456 0.01910022 0.04894589 0.027464205 -0.10373758 -0.10428749 -0.020561712
-0.044127505 0.08118017 -0.040010612 -0.10438286 -0.07546242 0.058085095 0.03993962 -0.035924375
0.10704427 0.0060538007 0.06541171 -0.06995244 0.057910014 -0.09276744 0.024640704 0.02766219
0.10835978 -0.054326672 0.02420129 -0.06162867 -0.0067400625 -0.07903216 0.009917058 -0.014429057
-0.050082788 0.10941773 -0.03290373 -0.054652806 -0.008052559 -0.030769452 -0.0018607249 0.029587653
0.04716916 -0.0498335 0.051846582 -0.015247697 -0.13343543 0.004283925 0.050008185 0.05766966
0.050924107 0.00092604966 -0.037663653 0.032046728 -0.012314592 0.04611893 -0.11732 0.07068102
00000000: a1f8 92bd 2cbb dbbb 2f18 a23c d94c 92bc
00000010: f5a3 14bd 2def 84bd d2e9 3c3b 62f4 233c
00000020: bf1b 6ebd 2d91 93bd cf1a 6abd b0b6 04bb
00000030: deeb bcbd a6e0 b9bc c8c5 f13c dbd7 153d
00000040: 4845 94bd c74a d4bd 9a9e d4bd 8275 a6bd
00000050: 3a41 00be 935b 023d 9b1d 19be 7cb8 32bc
00000060: 34f5 3ebd e585 b2bd bcfa 6dbd 4d94 c23d
00000070: 08b5 89bd 3415 1cbe 5478 0ebe ad5f d0bc
00000080: 31b5 553d 0150 9ebd ef98 05be e87b 0bbd
00000090: f240 e8bd 36fa ccbd aacc 7cbd 36de d2bd
000000a0: 201a 42be afdf 873d fb95 98bd 6148 60bd
000000b0: 4fb1 56bd bd10 1dbd b49a 80bd 4ea3 373d
000000c0: 750b 09be 51a0 f83c 43b8 e539 5021 efbd
000000d0: eea4 60bd 53c7 123d 68cc 0f3d 2c8e 9ebd
000000e0: 0962 16bd 4203 20bd 5611 013c 137c 153b
000000f0: d4ba 623d 671c 0a3d e348 83bc fad4 c13c
00000100: 2e03 a0bc 58d2 c33d 419b 063d c281 5abd
00000110: e1bf 83bd 3750 7bbd 9a35 6abc e507 25bd
00000120: c5ba 873d b136 433d 5f9d aebd 0910 513c
00000130: b35a 3ebd 4e3b 72bd 0e99 55bd b634 54bd
00000140: 1547 16bd b7d0 25bd de15 a63c 9d5c 81bc
00000150: 8a62 82bb b7fd 943c fb6d ed3c ce96 363d
00000160: 2da4 c9bd 7136 d63b a1c5 6bbd f684 91bd
00000170: b5fb 09bd f5c6 0abd bbde 2d3c 9593 eb3c
00000180: 02f7 67bd c390 453d 7056 103d ccf5 823d
00000190: 1391 853d a1a6 9a3b 9735 2fbd faee 28be
000001a0: d84d a7bc 35da 023d 9c70 55bc 540d abbb
000001b0: 4860 e1bd bc90 0fbe 69af f83c 3e22 fa3c
000001c0: efe8 47bd d12e d5bc 1452 1ebd eeff 7cbb
000001d0: ddb0 88bd 77d7 47bd ffad ccbd 469a 99bb
000001e0: 7d46 cebd e7b2 48bd 44b2 24be 560d e2bd
000001f0: 243d ce3d 224d 16bd 92ad 1a3d 30be 6ebc
00000200: 54b8 02be f56c 7d3d 9ecb 4fbb 5e8d 8fbd
00000210: 9688 babd 3ddd 46bd 62d7 f4b9 0365 eabd
00000220: cc80 5ebc 45ce dd3b 216e 0fbd 4519 81bd
00000230: a055 233d 6330 803d ece8 e83d 6c26 2cbd
00000240: 1aaa cb3d 72de 453d 25d4 463d 3f3f d4bd
00000250: 515a 523d efeb b9bd d21b 98bc d69a c5bd
00000260: d90d 5cbd 2e2e 62bd 1ff2 b4bd e7a3 23bb
00000270: 4cab 9cbd a934 0abd 185d f53c 48d5 0f3c
00000280: 7086 25bd 1ea2 f9bd 5291 463d 0b68 e6bd
00000290: 5e47 233d 5d36 09bd a73e a4bb e85d 8a3b
000002a0: a39a 39bd 8a01 303d 6b97 f5bd 39ed c8bd
000002b0: 635e 19bc 3636 e6bd ea02 b33d 3e10 44bd
000002c0: 5ad8 75bc b0ef c6bc 61f9 c83c 7578 35bd
000002d0: 5463 c13c ba9d 283d 8fff e83c cad5 7bbd
000002e0: 6f4a d73c e1b4 7a3c 4746 a13b 0c06 50bd
000002f0: 4a70 dcbd 2cc2 7e3d 5983 7bbc 098e bbbd
00000300: b2d0 1cbe 8ba2 80bd 2031 28bd c023 893d
00000310: fb6b 513d a178 d63c 5fa4 dbbc edd8 d3bd
00000320: 473b bfbd 5fe2 c6bd 1178 9c3c 7c7b 483d
00000330: 9dfc e03c 5e74 d4bd ae94 d5bd 0971 a8bc
00000340: 0bbf 34bd ca41 a63d 2be2 23bd aec6 d5bd
00000350: 0b8c 9abd a3ea 6d3d ba97 233d 7025 13bd
00000360: 073a db3d f65e c63b 93f6 853d 3a43 8fbd
00000370: 0d33 6d3d dbfc bdbd 4ddb c93c d19b e23c
00000380: bbeb dd3d a585 5ebd c941 c63c 586e 7cbd
00000390: bedb dcbb 9ddb a1bd 287b 223c da67 6cbc
000003a0: 9c23 4dbd 6716 e03d 10c6 06bd 9fdb 5fbd
000003b0: e1ee 03bc 3810 fcbc 91e3 f3ba ce61 f23c
000003c0: 7334 413d 361e 4cbd 155d 543d 7ad1 79bc
000003d0: 4ca3 08be 2b60 8c3b 62d5 4c3d 0537 6c3d
000003e0: cc95 503d 24c2 723a 3445 1abd 6e43 033d
000003f0: 24c3 49bc 34e7 3c3d 7845 f0bd 36c1 903d

fc2.bias f4 [128]
-0.054146703 0.061314896 -0.3234031 -0.094116636 -0.19559687 0.0699332 -0.2734931 -0.18055971
-0.18771829 -0.25402236 -0.11896774 0.013183774 -0.39646006 -0.13075425 -0.0110472385 -0.0996348
-0.05222869 0.0049451916 -0.28880998 -0.28065756 -0.05076856 -0.022755263 -0.13226105 -0.14331442
-0.24599308 0.054341994 -0.07402612 -0.21599562 -0.17783126 -0.26300576 -0.26661527 -0.09688909
-0.26363218 -0.22158337 -0.12808369 -0.025693662 -0.27760652 0.002442378 -0.20077099 -0.1544467
-0.044226654 -0.20617487 0.07961352 -0.14232852 0.010654647 -0.106613345 -0.14996946 -0.1992281
-0.2839612 -0.24146199 -0.021731691 0.024571978 -0.3559504 -0.016777176 -0.054209895 -0.4833261
-0.19729476 -0.13198917 -0.33532012 -0.11944386 -0.102994375 -0.17801343 -0.11767205 -0.010708835
-0.22875004 -0.05931337 -0.18284132 0.016599543 -0.07182255 -0.17517927 -0.0011673428 0.0076237675
-0.18417375 -0.11710775 -0.062076498 -0.0637142 -0.16005751 -0.09244492 -0.1029305 -0.38558802
-0.17820312 -0.06625389 -0.17715392 -0.29252604 -0.297213 -0.18320492 -0.123151705 0.05564767
-0.041308165 0.084335454 0.013286364 -0.007812184 0.07235401 -0.21862015 -0.06070122 0.09288256
-0.033132162 -0.19569595 -0.23611958 0.08715083 -0.19079785 0.07789274 -0.30893525 -0.0014019627
-0.13560188 -0.1556425 -0.3740648 0.07157065 -0.35651892 -0.27640057 -0.16762508 -0.31966165
-0.16443136 -0.18052392 0.19576305 -0.09199828 -0.12985496 -0.005737791 0.0042805537 -0.22150294
-0.08539328 -0.026911797 -0.07278021 0.10042914 -0.015097393 0.054329198 -0.07413593 -0.19621694
00000000: efc8 5dbd 5425 7b3d 1795 a5be 39c0 c0bd
00000010: 8c4a 48be 2339 8f3d 4a07 8cbe a5e4 38be
00000020: 3939 40be 380f 82be 5ca5 f3bd c200 583c
00000030: d0fc cabe 71e4 05be 7aff 34bc 540d ccbd
00000040: c0ed 55bd 460b a23b e7de 93be 59b2 8fbe
00000050: b2f2 4fbd 3f69 babc 716f 07be 04c1 12be
00000060: 9ce5 7bbe b695 5e3d 029b 97bd f52d 5dbe
00000070: 6619 36be b1a8 86be cc81 88be ca6d c6bd
00000080: ccfa 86be c0e6 62be 5f28 03be 847b d2bc
00000090: 7122 8ebe 4e10 203b e996 4dbe 4727 1ebe
000000a0: 0227 35bd 811f 53be 6a0c a33d 91be 11be
000000b0: d490 2e3c 1958 dabd 9891 19be 7302 4cbe
000000c0: 5d63 91be d041 77be a906 b2bc 2c4b c93c
000000d0: 213f b6be 4a70 89bc 320b 5ebd 8576 f7be
000000e0: a307 4abe 2b28 07be 14af abbe fc9e f4bd
000000f0: b7ee d2bd 2749 36be 0bfe f0bd 1c74 2fbc
00000100: 733d 6abe 94f2 72bd c13a 3bbe c4fb 873c
00000110: b317 93bd 3262 33be 8601 99ba ccd0 f93b
00000120: 0b98 3cbe 30d6 efbd ed43 7ebd 977c 82bd
00000130: 1ee6 23be c353 bdbd 3acd d2bd cb6b c5be
00000140: e17a 36be 1fb0 87bd d667 35be f9c5 95be
00000150: 4d2c 98be 129a 3bbe f636 fcbd d0ee 633d
00000160: c032 29bd 11b8 ac3d 0daf 593c 59fd ffbb
00000170: 572e 943d f6dd 5fbe d8a1 78bd 3639 be3d
00000180: 97b5 07bd 8564 48be 55c9 71be 227c b23d
00000190: 8360 43be 3b86 9f3d c32c 9ebe 10c2 b7ba
000001a0: 38db 0abe bf60 1fbe 6c85 bfbe a293 923d
000001b0: a689 b6be 6084 8dbe e9a5 2bbe b1aa a3be
000001c0: b260 28be 43db 38be 1c76 483e 9869 bcbd
000001d0: b3f8 04be 1404 bcbb e343 8c3b abd1 62be
000001e0: ace2 aebd 2176 dcbc ca0d 95bd cbad cd3d
000001f0: 0e5b 77bc 4b88 5e3d 94d4 97bd 18ed 48be

fc3.weight f4 [2, 128]
-0.005033075 0.40299737 0.6084297 -0.04399059 -0.26666465 -0.043122016 -0.018886449 0.08313196
0.1806744 -0.2985059 0.0032015573 -0.018379882 0.009613226 0.051615838 0.016054772 0.0068749515
-0.01161466 -0.06821989 0.05334491 0.44248495 -0.003017781 -0.13669503 -0.00770921 0.046752244
-0.20735893 0.21252765 -0.12685657 0.058017306 -0.04246544 0.21323535 -0.005398671 0.00980391
0.03409901 0.29396176 0.23008312 -0.19703576 0.16907093 0.16720556 -0.009803032 -0.023658076
0.0016599713 0.2222071 0.0010961002 0.13553007 -0.00089150993 -0.055168495 -0.2366728 -0.01369304
0.11303648 0.11230759 -0.25438723 -0.018339781 -0.2399485 -0.07331476 -0.09545874 -0.24997677
0.2324376 0.11751112 -0.2656733 -0.4064906 -0.2233336 -0.24870525 0.06593896 0.022925498
0.017180208 -0.024770333 -0.18926626 0.057751607 -0.06999442 -0.03499998 0.009799384 0.13077995
-0.004951496 -0.00713635 0.079736635 -0.0014420351 0.009450015 0.008176561 -0.13053334 -0.037649885
-0.06988922 -0.049730077 -0.012704439 0.16210423 0.028397236 0.016330348 0.34119704 0.084292814
-0.026418505 0.24436669 -0.28617185 0.11345092 0.15142705 0.012619936 -0.14721712 0.3254718
0.13225307 -0.2625918 0.514321 0.2131203 -0.07114694 0.22869417 0.36924008 0.41019428
-0.03851985 -0.13224897 -0.21222922 0.18524922 -0.008858329 -0.14894836 0.37202284 0.47602382
-0.00137397 -0.06381922 0.24013819 -0.12588595 0.23535877 0.08346023 0.065282665 -0.21390614
-0.13521734 0.00094622205 0.006651898 0.22014625 0.052580703 -0.12043731 -0.1009199 -0.0043320926
-0.004125852 0.2474898 -0.19819686 -0.21981886 -0.4462074 0.1680292 0.22967143 0.32618734
0.09684111 0.13342252 -0.10328279 0.015873833 -0.21269777 -0.33351701 -0.008324501 -0.021328548
-0.030836634 0.21922371 -0.17007412 0.053165194 0.022752728 0.11323779 -0.11254887 -0.18069553
0.33003348 0.074203044 0.38837206 -0.2667485 -0.07674339 0.0721832 -0.29002017 -0.25720626
-0.17029198 0.2801217 0.28308207 0.14667669 -0.19626166 0.20150122 0.019433757 0.49138093
-0.010799499 -0.052183907 0.24872331 -0.11478069 -0.0066133426 0.1955045 -0.12971544 -0.07721669
-0.18296735 0.5086389 0.34406894 -0.011388428 -0.19964121 0.5432409 0.22631425 0.2029524
-0.27672213 -0.5694763 0.13663855 0.022902686 -0.22299843 0.3422197 -0.32676128 -0.2801658
-0.15781677 0.10111126 -0.094553314 -0.26277012 0.18027408 0.41261595 0.43918347 0.05949331
-0.13279533 -0.10174117 -0.18736424 0.006951844 -0.24679185 -0.052772105 0.19057676 -0.2575653
-0.5214388 -0.06685841 -0.09830464 -0.04981397 -0.06535835 -0.05614643 -0.3044871 0.1442355
0.36216047 -0.038841635 0.2235091 -0.3595738 0.088541225 -0.1199002 -0.1267262 0.2913462
0.013311802 0.042712912 -0.099872164 0.18427968 0.4646779 0.38944966 -0.126154 0.11799748
-0.064987734 0.006651358 0.29283196 0.23771234 0.35153016 0.13889809 -0.040044263 -0.14082684
-0.012612318 -0.24927711 -0.055240598 -0.2786982 0.036390524 -0.20715107 -0.049219236 -0.56695443
0.13187099 -0.011057456 -0.0049622864 -0.08156445 -0.0757636 0.42117107 0.17027545 -0.18906048
00000000: 7eec a4bb ac55 ce3e 0cc2 1b3f 7a2f 34bd
00000010: 4588 88be b6a0 30bd c1b7 9abc 1741 aa3d
00000020: b602 393e c4d5 98be 38d1 513b 6891 96bc
00000030: cb80 1d3c 216b 533d 4c85 833c 4647 e13b
00000040: 6a4b 3ebc dfb6 8bbd 3180 5a3d 638d e23e
00000050: f7c5 45bb c8f9 0bbe 8a9d fcbb 487f 3f3d
00000060: e655 54be d9a0 593e b0e6 01be 8ea3 6d3d
00000070: 3ef0 2dbd 5e5a 5a3e 56e7 b0bb 94a0 203c
00000080: 67ab 0b3d 2882 963e e99a 6b3e bec3 49be
00000090: ee20 2d3e ef37 2b3e e59c 20bc 95ce c1bc
000000a0: 6593 d93a 428a 633e 05ab 8f3a 65c8 0a3e
000000b0: 38b4 69ba 5cf8 61bd 5b5a 72be c658 60bc
000000c0: ac7f e73d 8601 e63d 0b3f 82be 4f3d 96bc
000000d0: 0fb5 75be 0d26 96bd df7f c3bd e9f9 7fbe
000000e0: 1f04 6e3e aca9 f03d 5506 88be 891f d0be
000000f0: 90b1 64be 97ac 7ebe 010b 873d 41ce bb3c
00000100: 82bd 8c3c 27eb cabc 04cf 41be f38c 6c3d
00000110: 3c59 8fbd 245c 0fbd 988d 203c 2eeb 053e
00000120: 2940 a2bb 0bd8 e9bb f64c a33d ab02 bdba
00000130: 3cd4 1a3c fcf6 053c 88aa 05be c436 1abd
00000140: 1422 8fbd c4b1 4bbd 4826 50bc a7fe 253e
00000150: 52a1 e83c 39c7 853c 61b1 ae3e b6a1 ac3d
00000160: 9f6b d8bc 433b 7a3e 1e85 92be f558 e83d
00000170: b10f 1b3e d9c3 4e3c 16c0 16be 3da4 a63e
00000180: 596d 073e 6f72 86be 8baa 033f 353c 5a3e
00000190: 7db5 91bd ce2e 6a3e 090d bd3e fc04 d23e
000001a0: fdc6 1dbd 466c 07be 9e52 59be f9b1 3d3e
000001b0: 8622 11bc eb85 18be c779 be3e 65b9 f33e
000001c0: c816 b4ba a7b3 82bd c9e6 753e 3fe8 00be
000001d0: e401 713e 32ed aa3d ebb2 853d 360a 5bbe
000001e0: 6a76 0abe e30b 783a 2af8 d93b 056e 613e
000001f0: dd5e 573d d6a7 f6bd 18af cebd 3af4 8dbb
00000200: 2832 87bb f76d 7d3e 1ef4 4abe 3218 61be
00000210: 4c75 e4be d90f 2c3e fd2e 6b3e 0702 a73e
00000220: a254 c63d ea9f 083e ed85 d3bd d709 823c
00000230: 72cd 59be bec2 aabe 7d63 08bc 35b9 aebc
00000240: 1c9d fcbc 2e7c 603e e927 2ebe bfc3 593d
00000250: ee63 ba3c 37e9 e73d 0680 e6bd 4008 39be
00000260: 26fa a83e c4f7 973d b4d8 c63e 4293 88be
00000270: a32b 9dbd c9d4 933d 867d 94be 8ab0 83be
00000280: 0561 2ebe 1d6c 8f3e 22f0 903e 6a32 163e
00000290: d1f8 48be 5656 4e3e 8b33 9f3c 4896 fb3e
000002a0: 62f0 30bc cbbe 55bd 53b1 7e3e 2312 ebbd
000002b0: bdb4 d8bb 5532 483e 20d4 04be c923 9ebd
000002c0: cb5b 3bbe 2936 023f ce29 b03e 8796 3abc
000002d0: bf6e 4cbe d611 0b3f ecbe 673e c1d2 4f3e
000002e0: 86ae 8dbe 33c9 11bf faea 0b3e 6a9e bb3c
000002f0: b359 64be 6c37 af3e 414d a7be e471 8fbe
00000300: b89a 21be 6c13 cf3d 2ba5 c1bd ce89 86be
00000310: c599 383e 6642 d33e a8dc e03e 42af 733d
00000320: 80fb 07be ad5d d0bd 69dc 3fbe 4bcc e33b
00000330: 01b7 7cbe 9027 58bd 8e26 433e 99df 83be
00000340: 037d 05bf 10ed 88bd f153 c9bd bc09 4cbd
00000350: 99da 85bd cdf9 65bd bce5 9bbe 79b2 133e
00000360: 196d b93e 6818 1fbd 92df 643e 0f1a b8be
00000370: 1a55 b53d 3c8e f5bd 83c4 01be 542b 953e
00000380: bf19 5a3c bcf3 2e3d c789 ccbd d0b3 3c3e
00000390: 43ea ed3e f265 c73e 842e 01be aaa8 f13d
000003a0: 4a18 85bd a3f3 d93b 12ee 953e dd6a 733e
000003b0: c3fb b33e 4d3b 0e3e 7405 24bd e934 10be
000003c0: e5a3 4ebc 8042 7fbe f743 62bd 88b1 8ebe
000003d0: 3b0e 153d 691f 54be 1c9a 49bd ed23 11bf
000003e0: 3009 073e 552a 35bc ad9a a2bb 430b a7bd
000003f0: f229 9bbd bca3 d73e b05c 2e3e 1299 41be

fc3.bias f4 [2]
0.053803496 0.12831765
00000000: 0e61 5c3d b465 033e
