p3_collab-compet/agent_1_checkpoint_critic.pth (torch_old, 185404 bytes, 5 tensors)

fcs1.weight f4 [256, 48]
0.14512011 -0.089133434 -0.008404436 -0.031703796 0.33282837 -0.21548425 -0.024554612 -0.0012896326
0.10429996 -0.12739357 -0.061320342 0.04355709 0.08099873 0.041106064 0.04511599 0.0067069605
0.08495833 -0.2867881 -0.026990028 0.14029916 -0.2847124 0.436534 0.012836489 0.050703563
0.22733587 -0.026917899 0.020457497 -0.03547336 -0.40305313 -0.279286 -0.015926527 -0.0015971658
0.21357517 -0.053470094 0.029327573 0.06495853 -0.1299613 0.0670901 0.0083323745 0.120662145
0.1741992 -0.247871 0.030367905 0.078636065 0.24191691 0.43541604 0.037271798 0.1554795
0.30864605 -0.14523675 -0.049420103 -0.2757496 -0.1378823 -0.119775556 -0.081557184 -0.20322788
0.34251234 -0.023261555 -0.018734315 -0.02758989 0.044263232 -0.15797915 -0.026625967 -0.009667108
0.40599853 -0.09486114 0.030517444 -0.12825216 0.2795107 -0.29461947 0.011868963 -0.21102017
0.25568172 0.13053444 -0.010343919 -0.057224188 0.05663699 -0.09635185 -0.056848336 -0.06773371
0.39648175 0.024629662 -0.062087785 -0.1912875 -0.10430716 -0.11627891 -0.022856189 -0.23133297
0.5001065 0.14130226 0.02447371 -0.13185751 -0.2733612 -0.23159342 0.0037522544 -0.10760994
-0.0839804 0.6611169 -0.03450992 -0.08213837 -0.39702135 -0.2880703 -0.04861079 0.0123505425
0.20427364 0.65270126 -0.09653615 -0.115448266 -0.16189429 -0.41868475 0.0025561634 -0.13679361
0.20591253 0.48792958 -0.12061359 -0.1454616 0.096873805 -0.6078296 -0.030316394 -0.031981595
0.3971084 0.527802 -0.092997044 0.3027043 0.40198115 -0.27380145 -0.0120355105 0.22511138
0.26776066 0.63266957 -0.0066709365 0.0621512 0.18681668 -0.43865347 -0.020551594 0.07050517
0.18522899 0.5319841 -0.059275616 -0.23893484 -0.07632381 -0.5710244 -0.038416997 -0.17421456
0.09534952 -0.28324324 -0.037563145 0.13757893 0.08052878 0.09624485 -0.0746645 0.16127521
0.11086006 -0.33708566 -0.03785383 -0.19269851 0.16479218 -0.19037835 0.02134425 -0.30578902
0.03429102 -0.2606599 0.008999414 0.2154285 0.31584755 -0.47640535 -0.052081417 0.26088178
0.34292844 0.18950912 -0.042638425 -0.08016035 -0.113293044 0.005177343 -0.0072140493 -0.031045392
0.26159793 0.0022994375 0.011265483 -0.012642545 -0.16320914 -0.15584198 -0.095423974 -0.055066396
0.41759038 0.1293998 0.08289031 0.26571357 -0.28665903 -0.49717674 0.07004985 0.24819812
0.3830135 0.16463654 0.0661015 0.045897655 0.078762084 -0.23277462 -0.0071942164 0.020977296
0.599131 0.24950495 -0.015013738 -0.029570553 0.059305694 -0.14396222 -0.002206074 0.059355203
0.3707977 0.45761046 -0.07918025 0.3896148 -0.014484269 -0.16040932 -0.03502044 0.39630154
0.5171502 0.08026139 0.012551024 -0.0130336145 -0.09951252 -0.16826391 0.01644418 0.001432728
0.40590146 0.18757348 -0.11938734 0.067713656 0.025696138 -0.22895478 -0.026522536 0.16603129
0.35646003 0.3123004 -0.11922609 0.1464001 0.036606323 -0.22694856 -0.059424303 0.08827508
0.49292433 -0.3236349 -0.07217193 -0.24654429 -0.39310515 -0.047448024 -0.059360072 -0.19611338
0.4834958 -0.39643508 -0.067269 -0.017668251 -0.4126832 -0.14490831 -0.051836945 0.013730797
00000000: 5e9a 143e 978b b6bd c2b2 09bc d7db 01bd
00000010: 7b68 aa3e e7a7 5cbe c126 c9bc e408 a9ba
00000020: 389b d53d 7673 02be 0a2b 7bbd eb68 323d
00000030: aae2 a53d d55e 283d 8bcb 383d 10c6 db3b
00000040: a2fe ad3d e4d5 92be 311a ddbc 95aa 0f3e
00000050: d3c5 91be 6281 df3e 2350 523c 8aae 4f3d
00000060: bcca 683e ed82 dcbc 7b96 a73c 844c 11bd
00000070: fb5c cebe 93fe 8ebe 5978 82bc fe57 d1ba
00000080: 73b3 5a3e 7503 5bbd 6140 f03c fa08 853d
00000090: 9314 05be 8966 893d 8384 083c b71d f73d
000000a0: 4661 323e e5d1 7dbe 1dc6 f83c f20b a13d
000000b0: 11b9 773e daee de3e 50aa 183d 0536 1f3e
000000c0: db06 9e3e f1b8 14be bc6c 4abd 0d2f 8dbe
000000d0: 0531 0dbe e34c f5bd 7407 a7bd f81a 50be
000000e0: c75d af3e 048f bebc b578 99bc 3104 e2bc
000000f0: 5d4d 353d 49c5 21be b31e dabc ca62 1ebc
00000100: 0adf cf3e 8f46 c2bd b8ff f93c 8954 03be
00000110: 071c 8f3e 5dd8 96be 0a76 423c ac15 58be
00000120: b7e8 823e d2aa 053e 8a79 29bc e963 6abd
00000130: 30fc 673d 1e54 c5bd cdd9 68bd f9b7 8abd
00000140: a8ff ca3e 25c4 c93c c34f 7ebd dfe0 43be
00000150: fe9e d5bd a323 eebd e73c bbbc 8de2 6cbe
00000160: fb06 003f 8ab1 103e 177d c83c a805 07be
00000170: 00f6 8bbe d326 6dbe 62e8 753b 9a62 dcbd
00000180: eafd abbd f53e 293f 465a 0dbd 2938 a8bd
00000190: 6246 cbbe f37d 93be 1c1c 47bd ee59 4a3c
000001a0: 1c2d 513e 6e17 273f bfb4 c5bd 2470 ecbd
000001b0: 9ec7 25be d95d d6be 4e85 273b a013 0cbe
000001c0: bcda 523e e8d1 f93e 4204 f7bd e3f3 14be
000001d0: c665 c63d b89a 1bbf 165a f8bc 22ff 02bd
000001e0: cb51 cb3e 081e 073f 3c75 bebd 0ffc 9a3e
000001f0: 79d0 cd3e b42f 8cbe 9730 45bc 9983 663e
00000200: ed17 893e a2f6 213f df97 dabb 4292 7e3d
00000210: df4c 3f3e 3097 e0be d15b a8bc 0465 903d
00000220: abac 3d3e 1c30 083f fdca 72bd 56ab 74be
00000230: a84f 9cbd a82e 12bf 245b 1dbd 4d65 32be
00000240: 9c46 c33d 4205 91be d0db 19bd 7ee1 0c3e
00000250: 46ec a43d 051c c53d b4e9 98bd 5425 253e
00000260: 990a e33d 7e96 acbe 9e0c 1bbd c252 45be
00000270: 48bf 283e 8bf2 42be 23da ae3c 6190 9cbe
00000280: be74 0c3d 3775 85be 4772 133c 4a99 5c3e
00000290: c5b6 a13e 67eb f3be 5353 55bd 4c92 853e
000002a0: 5194 af3e ae0e 423e a1a5 2ebd 1c2b a4bd
000002b0: 2f06 e8bd b3a6 a93b d563 ecbb e852 febc
000002c0: 2af0 853e 29b2 163b dc92 383c ad22 4fbc
000002d0: 4c20 27be 0a95 1fbe a56d c3bd 4d8d 61bd
000002e0: 68ce d53e 6281 043e 65c2 a93d 9c0b 883e
000002f0: f9c4 92be f38d febe 4c76 8f3d a627 7e3e
00000300: 581a c43e 7b96 283e 3960 873d 2eff 3b3d
00000310: 044e a13d 785c 6ebe 76bd ebbb 94d8 ab3c
00000320: a660 193f 3a7e 7f3e 2efc 75bc f23d f2bc
00000330: 87ea 723d d56a 13be c893 10bb 711e 733d
00000340: 32d9 bd3e eb4b ea3e 4129 a2bd 977b c73e
00000350: 6d4f 6dbc 5742 24be 9871 0fbd 09e8 ca3e
00000360: f563 043f 1560 a43d cfa2 4d3c f18a 55bc
00000370: 38cd cbbd 604d 2cbe f2b5 863c 60ca bb3a
00000380: 51d2 cf3e 4313 403e 5a81 f4bd 75ad 8a3d
00000390: b580 d23c 1f73 6abe ca45 d9bc 1b04 2a3e
000003a0: ee81 b63e d7e5 9f3e cf2c f4bd e8e9 153e
000003b0: 83f0 153d 3465 68be e666 73bd 91c9 b43d
000003c0: 9460 fc3e 79b3 a5be e0ce 93bd 1b76 7cbe
000003d0: 1445 c9be dc58 42bd 8c23 73bd f2d1 48be
000003e0: c38c f73e 8af9 cabe 54c4 89bd 02bd 90bc
000003f0: 364b d3be d862 14be fa52 54bd 23f7 603c

fcs1.bias f4 [256]
-0.0052423473 -0.18272728 -0.08386716 -0.333721 -0.23029105 -0.27348843 -0.11099078 0.36896163
-0.26562363 -0.34665206 -0.4311107 -0.33074972 0.13154815 0.16248107 -0.4033345 -0.35545373
-0.37081495 -0.14559971 -0.35821313 -0.0026639851 -0.2392804 -0.5017691 -0.103067614 -0.19101745
0.00048108227 -0.27300274 -0.17228863 0.16102755 -0.061874323 -0.36096707 -0.37634164 0.06565338
0.4080605 -0.1598239 -0.14725725 0.104370184 -0.42516103 0.26128381 -0.44585577 -0.09619687
-0.26889458 -0.27931556 -0.45799634 -0.10941116 -0.13844408 -0.17459889 -0.119507335 -0.23033127
-0.060920227 -0.20805018 -0.43960413 -0.17240001 -0.09997636 -0.053660415 -0.35562253 0.23235579
-0.23706636 -0.31586486 -0.10313952 -0.17185557 0.24549846 -0.22915146 -0.26361364 -0.33955783
-0.03612816 -0.12928367 -0.085152246 -0.4757665 -0.16721743 -0.15974957 -0.05836772 -0.4925034
-0.23151249 0.026425365 0.15174875 0.27918553 -0.015959501 -0.4229029 -0.27741903 -0.1967816
-0.18922117 -0.1292033 -0.24270187 -0.14875335 -0.13837828 -0.49827832 -0.4399335 -0.27577898
-0.3282739 0.059861686 -0.3842137 -0.20035641 -0.22746788 0.0143823465 -0.03800006 -0.11591772
-0.17096397 0.41785944 -0.18691708 -0.1666914 -0.27077118 -0.43275073 -0.00069960335 -0.2267941
0.028362652 0.3313587 -0.32850927 -0.3941923 -0.20074251 -0.22179586 -0.1890621 -0.34883174
-0.30902213 -0.456392 -0.24286106 -0.29646984 -0.5324276 -0.0043682316 -0.4414504 -0.06101391
-0.23624879 -0.13495532 -0.12603673 -0.1678205 -0.1905027 -0.10825929 -0.44120342 0.00062463986
-0.033434905 -0.29304382 -0.18559283 -0.37801293 -0.46959275 -0.40236273 -0.48731533 -0.34271818
-0.44455194 -0.39727974 -0.16502382 -0.4708484 -0.075585455 -0.46035206 -0.46933725 -0.06140577
-0.24126285 -0.064747624 -0.35842368 0.07371092 -0.38677642 -0.104159325 -0.1653393 -0.20322888
-0.13931592 -0.17199616 0.08332607 -0.28135577 -0.31787404 -0.036694173 -0.22824912 -0.093098104
-0.25856835 -0.06120974 -0.36788076 -0.25262728 -0.51418424 -0.3529367 -0.3437486 0.012835316
0.24167734 -0.112351835 0.033927288 -0.2012438 -0.35153103 -0.32140696 -0.3129426 -0.15598743
-0.15644142 -0.22935073 -0.20116828 -0.115537696 -0.26019394 0.0522124 -0.17553236 -0.4242312
-0.40933537 -0.35333106 -0.21969864 -0.3434313 -0.20020589 -0.18872264 0.3997909 -0.07191692
0.3622934 0.06628432 0.26257607 -0.28113547 -0.20980732 -0.23080142 -0.35714668 0.27039418
-0.022038277 0.06419133 -0.14357264 -0.27485812 -0.30724743 -0.117217034 -0.076621935 -0.12154622
-0.04469774 0.082069546 -0.32921788 -0.37469485 -0.21223778 -0.08064396 -0.20897427 0.02159844
-0.3132134 -0.15078497 -0.4961591 -0.3267995 0.09987367 -0.26740903 -0.28493616 -0.12426177
-0.13654785 -0.45939684 -0.33091825 -0.09405295 0.06971878 -0.50613785 -0.16403328 -0.20607741
-0.21158595 -0.39927882 -0.19188969 -0.109397374 -0.18003717 -0.0816963 -0.08631297 -0.21422897
0.13097587 -0.13133076 -0.07332355 -0.18182012 -0.32869953 -0.2920279 0.041773934 -0.37475428
-0.30633014 0.046711195 -0.4346515 -0.32488555 -0.23744701 -0.23814577 0.007379481 -0.17993833
00000000: ffc7 abbb dc1c 3bbe 8cc2 abbd 7bdd aabe
00000010: 6bd1 6bbe ad06 8cbe 224f e3bd 8ae8 bc3e
00000020: d2ff 87be 617c b1be 8bba dcbe 0758 a9be
00000030: 8fb4 063e 7061 263e dc81 cebe 08fe b5be
00000040: 75db bdbe 1718 15be b667 b7be 4196 2ebb
00000050: ec05 75be f173 00bf 1d15 d3bd 149a 43be
00000060: c539 fc39 04c7 8bbe 6e6c 30be 68e4 243e
00000070: ee6f 7dbd add0 b8be daaf c0be 4775 863d
00000080: 4eed d03e e0a8 23be 9bca 16be 09c0 d53d
00000090: b5ae d9be fec6 853e 3547 e4be dd02 c5bd
000000a0: 8dac 89be 7302 8fbe 7f7e eabe f512 e0bd
000000b0: 49c4 0dbe 0dca 32be 43c0 f4bd f6db 6bbe
000000c0: 7d87 79bd 1b0b 55be cb13 e1be a189 30be
000000d0: 68c0 ccbd 06cb 5bbd 2814 b6be adee 6d3e
000000e0: 86c1 72be 0ab9 a1be d03a d3bd e8fa 2fbe
000000f0: f363 7b3e aea6 6abe 5ef8 86be 86da adbe
00000100: 1ffb 13bd f062 04be 4d64 aebd ab97 f3be
00000110: 0c3b 2bbe 6495 23be fe12 6fbd 6829 fcbe
00000120: 9c11 6dbe 027a d83c 0664 1b3e 68f1 8e3e
00000130: 80bd 82bc bb86 d8be de09 8ebe 1e81 49be
00000140: 32c3 41be df4d 04be d786 78be cc52 18be
00000150: 09b3 0dbe 561e ffbe f73e e1be e732 8dbe
00000160: 8413 a8be 8731 753d a8b7 c4be 3b2a 4dbe
00000170: 57ed 68be efa3 6b3c f3a5 1bbd 4566 edbd
00000180: 2e11 2fbe acf1 d53e 3167 3fbe 26b1 2abe
00000190: 85a2 8abe 8191 ddbe 9665 37ba b63c 68be
000001a0: cb58 e83c d9a7 a93e 5e32 a8be 93d3 c9be
000001b0: 728f 4dbe 741e 63be 7f99 41be 139a b2be
000001c0: 2638 9ebe 36ac e9be 92b0 78be e5ca 97be
000001d0: 2d4d 08bf 6223 8fbb c905 e2be b9e9 79bd
000001e0: 34eb 71be ba31 0abe c60f 01be 23d9 2bbe
000001f0: 2413 43be 0cb7 ddbd 6ae5 e1be dfbe 233a
00000200: 0af3 08bd d709 96be 0c0c 3ebe e98a c1be
00000210: 766e f0be 7d02 cebe 6581 f9be c278 afbe
00000220: 509c e3be 4068 cbbe 01fc 28be 0b13 f1be
00000230: 8ccc 9abd 44b3 ebbe f94c f0be 9e84 7bbd
00000240: 9c0d 77be 679a 84bd 4f83 b7be c0f5 963d
00000250: 8f07 c6be 7c51 d5bd b54e 29be 3b1b 50be
00000260: d5a8 0ebe c31f 30be dca6 aa3d dd0d 90be
00000270: 63c0 a2be a14c 16bd 23ba 69be 38aa bebd
00000280: 1263 84be 10b7 7abd de5a bcbe 5d58 81be
00000290: 94a1 03bf 1fb4 b4be d1ff afbe 384b 523c
000002a0: 447a 773e b818 e6bd 57f7 0a3d db12 4ebe
000002b0: e0fb b3be 748f a4be 033a a0be 2bbb 1fbe
000002c0: 2e32 20be ebda 6abe 0fff 4dbe 079f ecbd
000002d0: 2438 85be abdc 553d c1be 33be d534 d9be
000002e0: 6894 d1be cfe7 b4be aef8 60be 3ad6 afbe
000002f0: c602 4dbe 8240 41be 65b1 cc3e 2e49 93bd
00000300: 857e b93e 13c0 873d 5f70 863e fdf0 8fbe
00000310: bbd7 56be 3557 6cbe eedb b6be 1b71 8a3e
00000320: 9e89 b4bc be76 833d b504 13be 34ba 8cbe
00000330: 894f 9dbe 7c0f f0bd f6eb 9cbd 39ed f8bd
00000340: fa14 37bd 1414 a83d 3f8f a8be 01d8 bfbe
00000350: dc54 59be a928 a5bd 5afd 55be 36ef b03c
00000360: 825d a0be 6067 1abe 9108 febe 4452 a7be
00000370: 918a cc3d d6e9 88be 27e3 91be f47c febd
00000380: 33d3 0bbe 1036 ebbe 1e6e a9be d59e c0bd
00000390: b8c8 8e3d 4092 01bf 57f8 27be f505 53be
000003a0: fda9 58be 466e ccbe bb7e 44be bb0b e0bd
000003b0: aa5b 38be 6450 a7bd dbc4 b0bd d75e 5bbe
000003c0: 8a1e 063e 927b 06be a82a 96bd 0e2f 3abe
000003d0: 4e4b a8be ae84 95be 251b 2b3d cbdf bfbe
000003e0: 4ed7 9cbe 3d54 3f3d a48a debe 6657 a6be
000003f0: 4f25 73be 7cdc 73be 93cf f13b c141 38be

fc2.weight f4 [128, 260]
-0.07008441 -0.042952225 -0.083419345 -0.14559853 0.022977328 -0.013431184 0.1154198 -0.1539983
-0.1289192 -0.12059124 -0.017465157 0.017085541 0.08522415 0.06826588 0.067305036 -0.026676279
-0.045584224 0.012333421 0.029874884 0.016577749 -0.018229155 -0.25114906 0.013145717 -0.20928422
-0.040585678 -0.18580738 -0.053041648 0.09282274 -0.4472151 -0.09370113 0.029279217 -0.047497146
-0.26255283 0.11922157 0.05138366 0.04801393 -0.15844586 0.038020346 0.0827615 -0.014135133
-0.20216677 -0.06027413 -0.062555514 -0.026299924 -0.13330545 -0.034291074 0.09459197 -0.035230722
-0.14935268 -0.15609394 -0.034342866 0.097818464 0.25676104 -0.08909065 -0.032736067 -0.23328733
-0.031855904 -0.13930732 -0.15611158 -0.07093544 0.013376503 0.003908823 -0.008864816 -0.14180994
-0.09589216 -0.12002075 0.10314696 -0.048108403 -0.12187304 -0.04566538 -0.15942763 -0.16038555
-0.054423954 -0.16411795 0.010079449 -0.0012698583 -0.2563836 -0.024524836 0.053645033 0.080923446
0.0073248427 -0.07111434 0.08025827 -0.36493468 0.07948909 -0.04460058 -0.12470386 0.049204007
-0.02597053 -0.12238834 -0.022243783 0.0066797314 -0.08261165 -0.0071145874 -0.05990232 -0.0013886739
-0.03076595 -0.4041408 -0.041120272 0.011726093 -0.15363766 -0.025155094 -0.099182606 -0.07705149
-0.042709205 -0.24645591 -0.07550082 0.052544307 -0.016942006 -0.19782978 -0.003835303 0.051393244
-0.016388088 -0.0055789617 -0.052576404 -0.0030239006 -0.031266633 0.00023250518 -0.18923604 -0.14458285
-0.14827159 -0.044804513 -0.05110331 -0.0057958756 0.30722243 -0.0703368 0.15813543 -0.1955156
0.24220538 -0.05567776 -0.30757383 -0.14257199 -0.2570474 0.06995968 0.058142565 -0.1417101
-0.06940242 -0.059109967 -0.014298884 0.032120176 0.035079673 -0.25487116 -0.036002766 0.018659975
-0.040451795 0.032702103 -0.024516787 -0.066381596 0.12245843 0.009648807 0.043730948 -0.20098524
-0.13591498 -0.0609245 -0.03120587 -0.19197643 -0.049209945 -0.09755546 0.046677396 0.017387712
-0.018918289 -0.035319824 -0.0075846873 -0.10540066 -0.09163705 0.026684279 -0.3376996 0.08770203
-0.11927855 -0.06525386 -0.264257 0.06996629 -0.025979862 -0.026485637 0.08677018 -0.0005081582
-0.11413229 -0.4273553 -0.08770169 0.08869283 -0.00784183 -0.0022036338 0.14105771 -0.0786676
0.011258247 -0.15374509 -0.077392325 -0.08113237 -0.017189782 -0.041624136 -0.34326223 -0.0072416076
-0.66862494 0.07267912 -0.44791067 -0.059749465 -0.102935694 -0.03939216 -0.027086986 -0.20375891
-0.31679574 -0.26822245 -0.11443479 0.16675065 -0.10553618 -0.22015977 -0.052117728 0.019136602
-0.27252358 0.007645674 0.005330897 0.106276475 0.14405656 -0.0072991247 -0.13590705 -0.007241502
-0.06743563 -0.049587473 0.0053258548 -0.08709306 -0.12263743 0.025274664 -0.33906645 0.021313516
-0.043657593 0.06489136 -0.1708511 -0.26046836 -0.029747616 -0.20927027 0.034127273 -0.14395529
0.08354559 0.0011852934 0.049005084 0.05376369 -0.02747259 -0.0040957443 -0.1349561 0.041151926
0.07133151 -0.020595994 -0.053397622 -0.13086577 -0.05508899 -0.09017411 -0.09169007 -0.23414063
-0.16475606 -0.5224789 -0.0571388 -0.18004483 -0.05788235 -0.115664795 0.19495861 -0.087727346
00000000: 6a88 8fbd acee 2fbd c3d7 aabd c817 15be
00000010: f33a bc3c 780e 5cbc 3761 ec3d bbb1 1dbe
00000020: 6503 04be 8af8 f6bd 1713 8fbc faf6 8b3c
00000030: 008a ae3d fbce 8b3d 39d7 893d 3688 dabc
00000040: 86b6 3abd 1e12 4a3c 2cbc f43c 0fce 873c
00000050: 4f55 95bc 9c96 80be 2261 573c 9a4e 56be
00000060: 2b3d 26bd 4a44 3ebe 3342 59bd d919 be3d
00000070: 61f9 e4be 61e6 bfbd f8da ef3c 5e8c 42bd
00000080: 536d 86be 702a f43d ac77 523d 41aa 443d
00000090: a23f 22be 39bb 1b3d dc7e a93d 0b97 67bc
000000a0: ce04 4fbe 02e2 76bd 1b1d 80bd f072 d7bc
000000b0: 3981 08be cc74 0cbd 6fb9 c13d 174e 10bd
000000c0: e9ef 18be 17d7 1fbe 1bab 0cbd 0c55 c83d
000000d0: 2f76 833e 2975 b6bd 4116 06bd e0e2 6ebe
000000e0: 567b 02bd 94a6 0ebe b7db 1fbe 9a46 91bd
000000f0: 1f29 5b3c 9515 803b bc3d 11bc a036 11be
00000100: 1c63 c4bd 70cd f5bd b73e d33d 510d 45bd
00000110: 9398 f9bd 9f0b 3bbd ff40 23be 1c3c 24be
00000120: a7eb 5ebd 890e 28be 4624 253c 6071 a6ba
00000130: b644 83be 4fe8 c8bc e5ba 5b3d 31bb a53d
00000140: 3c05 f03b 65a4 91bd 735e a43d b8d8 babe
00000150: 2dcb a23d 19af 36bd bd64 ffbd 248a 493d
00000160: 26c0 d4bc bda6 fabd 9838 b6bc a6e1 da3b
00000170: 4c30 a9bd 7c21 e9bb 235c 75bd 2a04 b6ba
00000180: e008 fcbc 8beb cebe bb6d 28bd cc1e 403c
00000190: 3153 1dbe 0e12 cebc 4020 cbbd 2ccd 9dbd
000001a0: d9ef 2ebd f05e 7cbe 2da0 9abd b338 573d
000001b0: f6c9 8abc e493 4abe b559 7bbb b981 523d
000001c0: 5040 86bc b9cf b6bb 5b5a 57bd a22c 46bb
000001d0: 7111 00bd a2cc 7339 18c7 41be 870d 14be
000001e0: 82d4 17be f084 37bd b451 51bd 54eb bdbb
000001f0: 424c 9d3e bd0c 90bd 41ee 213e 3e35 48be
00000200: b004 783e 5d0e 64bd 517a 9dbe 64fe 11be
00000210: b89b 83be 0547 8f3d e626 6e3d 741c 11be
00000220: db22 8ebd 4b1d 72bd de45 6abc 7290 033d
00000230: b4af 0f3d 797e 82be a377 13bd cedc 983c
00000240: c8b0 25bd a4f2 053d 6ed7 c8bc 13f3 87bd
00000250: 7ccb fa3d 0816 1e3c 391f 333d 13cf 4dbe
00000260: 4c2d 0bbe f88b 79bd 74a3 ffbc 7895 44be
00000270: 5e90 49bd 28cb c7bd cc30 3f3d ad70 8e3c
00000280: 87fa 9abc 85ab 10bd f888 f8bb 4ddc d7bd
00000290: 35ac bbbd fd98 da3c f6e6 acbe 1f9d b33d
000002a0: 5048 f4bd d1a3 85bd b24c 87be 7c4a 8f3d
000002b0: b8d3 d4bc 68f8 d8bc 90b4 b13d eb35 05ba
000002c0: 31be e9bd 50ce dabe f29c b3bd 96a4 b53d
000002d0: 057b 00bc d76a 10bb 6f71 103e 7b1c a1bd
000002e0: 8374 383c 5a6f 1dbe de7f 9ebd ba28 a6bd
000002f0: 96d1 8cbc 127e 2abd 11c0 afbe 024b edbb
00000300: 012b 2bbf cad8 943d 8c54 e5be dbbb 74bd
00000310: f3cf d2bd ac59 21bd 87e5 ddbc 2da6 50be
00000320: 0d33 a2be 7454 89be ca5c eabd afc0 2a3e
00000330: 5a23 d8bd 9071 61be 6679 55bd 5dc4 9c3c
00000340: 3688 8bbe 9088 fa3b ceae ae3b 7ba7 d93d
00000350: 9083 133e 7f2d efbb 382b 0bbe 1f4a edbb
00000360: b11b 8abd 3c1c 4bbd 8284 ae3b d95d b2bd
00000370: 5529 fbbd d00c cf3c 1e9a adbe af99 ae3c
00000380: 4ed2 32bd c3e5 843d 97f3 2ebe 1c5c 85be
00000390: 46b1 f3bc f24a 56be 0ac9 0b3d 0469 13be
000003a0: f319 ab3d d95b 9b3a 8eb9 483d 5137 5c3d
000003b0: 320e e1bc 9835 86bb ef31 0abe ec8e 283d
000003c0: 4116 923d eeb8 a8bc 77b7 5abd ad01 06be
000003d0: fea4 61bd 34ad b8bd 01c8 bbbd 90c2 6fbe
000003e0: d0b5 28be 2dc1 05bf 600a 6abd ac5d 38be
000003f0: 0b16 6dbd aae1 ecbd 3ba3 473e 65aa b3bd

fc2.bias f4 [128]
-0.06171014 -0.23933479 -0.10720334 -0.20448083 -0.1704513 -0.038532723 -0.22205873 0.0013119205
0.043625787 -0.19229832 -0.28239024 0.1995102 0.4764806 -0.11758247 -0.09760658 -0.1464042
-0.049875528 -0.104667954 -0.17191844 -0.10159056 -0.15548839 -0.08364903 -0.110001735 0.031362902
-0.055225667 -0.19083722 0.09280758 -0.10985888 -0.06060079 -0.22213894 -0.23043531 0.031264182
0.11019036 -0.072292015 -0.16453198 -0.18017109 0.33163875 -0.10704898 0.124872945 -0.13600488
-0.121559076 0.2619331 -0.067119464 -0.09793098 -0.12610637 0.15903208 -0.18642044 0.15226665
-0.07361286 -0.12307504 -0.162718 -0.104572274 0.02758338 -0.10603974 0.6210521 -0.28613213
-0.055916615 -0.24485102 -0.04599568 -0.0016137123 -0.10784906 -0.22509629 -0.081252925 -0.010366084
-0.15180571 0.38878396 -0.13191521 -0.31882733 -0.14667739 0.033160303 -0.19099072 -0.17865406
0.42950213 -0.33113775 0.021078262 -0.12673357 -0.08649119 -0.076273896 -0.08922434 -0.19632211
0.26620242 0.050899383 -0.3738921 -0.010838821 -0.16398287 -0.0426505 -0.11967846 -0.08181162
-0.4719022 -0.22347935 0.008481543 -0.09316185 -0.17488806 -0.14646678 0.1610252 -0.3798529
-0.14112906 -0.06678754 -0.08743133 -0.2321414 -0.1279127 0.17103645 -0.12369751 0.055276882
-0.12769338 -0.1330682 -0.16618727 -0.10199674 0.49580827 -0.016040642 -0.07262637 -0.027914
-0.18099448 -0.102462314 -0.34094495 -0.20205073 -0.1136427 -0.18412602 -0.18934691 -0.12674795
-0.16455144 -0.35966557 -0.045511734 -0.14420883 -0.102659285 0.093918376 -0.049232822 -0.24410087
00000000: c6c3 7cbd 2e14 75be 6d8d dbbd 6c63 51be
00000010: c98a 2ebe 7dd4 1dbd 5d63 63be bff4 ab3a
00000020: f4b0 323d dae9 44be 7495 90be 674c 4c3e
00000030: 44f5 f33e 14cf f0bd f5e5 c7bd fcea 15be
00000040: 484a 4cbd 275c d6bd 630b 30be b60e d0bd
00000050: 5938 1fbe 2f50 abbd 9748 e1bd 6376 003d
00000060: 4f34 62bd d56a 43be e711 be3d b1fd e0bd
00000070: 8938 78bd 6478 63be 3cf7 6bbe df0e 003d
00000080: 7cab e13d d60d 94bd 127b 28be c57e 38be
00000090: 8ecc a93e 7f3c dbbd 63bd ff3d dd44 0bbe
000000a0: f7f3 f8bd 181c 863e ee75 89bd 0a90 c8bd
000000b0: 0722 01be 4ed9 223e 00e5 3ebe caeb 1b3e
000000c0: 57c2 96bd c40e fcbd 8c9f 26be fd29 d6bd
000000d0: 8af6 e13c 5d2b d9bd 45fd 1e3f e97f 92be
000000e0: d208 65bd 3aba 7abe f765 3cbd 3383 d3ba
000000f0: f8df dcbd a47f 66be ef67 a6bd 82d6 29bc
00000100: f572 1bbe b10e c73e c814 07be 563d a3be
00000110: 9932 16be 19d3 073d 1293 43be 17f1 36be
00000120: b4e7 db3e e38a a9be 52ac ac3c 72c6 01be
00000130: 4b22 b1bd 7d35 9cbd 40bb b6bd aa08 49be
00000140: af4b 883e df7b 503d c96e bfbe 4f95 31bc
00000150: 20eb 27be 4ab2 2ebd fb19 f5bd da8c a7bd
00000160: 2a9d f1be c5d7 64be 2bf6 0a3c a4cb bebd
00000170: db15 33be 63fb 15be cae3 243e 147c c2be
00000180: 2384 10be e8c7 88bd 320f b3bd 7ab6 6dbe
00000190: 8cfb 02be 2e24 2f3e 1f55 fdbd 036a 623d
000001a0: 0ec2 02be 0843 08be ff2c 2abe abe3 d0bd
000001b0: 95da fd3e aa67 83bc 22bd 94bd e7ab e4bc
000001c0: 9e56 39be c3d7 d1bd 5690 aebe 63e6 4ebe
000001d0: 81bd e8bd 888b 3cbe 28e4 41be 37ca 01be
000001e0: 2c80 28be 1626 b8be 836a 3abd 7bab 13be
000001f0: 083f d2bd 4758 c03d 5ba8 49bd 94f5 79be

fc3.weight f4 [1, 128]
-0.016191784 -0.010064594 0.01579896 0.0051423865 -0.015473639 -0.011196725 0.0030103798 -0.028889345
0.011520662 0.00051282765 -0.016550047 -0.005469318 0.005547848 0.007770624 -0.00013408842 0.0017943849
-0.007269046 -0.026213748 0.024371266 0.0070843725 0.031214345 -0.014512314 -0.026366321 0.0066703423
-0.012109652 -0.0027316697 -0.0044422233 0.016589196 -0.02564823 -0.014632127 -0.007133262 -0.0062861405
-0.0067254393 -0.0057273787 -0.022952704 -0.033858526 0.014232005 -0.007852187 -0.011929804 -0.0023413228
-0.011108662 0.017105294 0.002332405 -0.010123803 0.0065540345 0.0038652208 0.0018721396 -0.0023954313
0.011117834 -0.0037059837 -0.013608929 0.008935873 0.016330734 -0.017844468 0.010220038 -0.020636229
0.021300446 0.020220058 -0.008242203 -0.009059625 -0.011166129 -0.014920715 -0.019745901 0.019596439
-0.02446796 0.010296962 0.022737047 0.01398083 -0.0076284157 0.014285306 0.007854475 -0.014458682
0.012196172 0.0034732122 0.006102498 -0.006380688 -0.0043685357 -0.004228398 0.040845554 0.006159026
-0.0072414447 0.0018542949 0.00088471256 0.02822186 -0.0098938765 0.0054657394 -0.0075740474 -0.012785425
-0.0052606114 -0.014024047 0.008566686 -0.06340333 -0.007572526 -0.0037794192 -0.010158678 -0.014724951
-0.022282887 -0.022214018 0.02773738 -0.02159398 -0.005569375 0.0062287883 0.015625715 0.017492808
-0.020107908 0.008969317 0.0053638467 0.0130875185 0.011668351 -0.03032677 -0.009785054 -0.017880391
-0.008571545 -0.026320376 -0.0287488 -0.0055724313 -0.013051923 0.014230537 -0.028931268 -0.0078121633
-0.002255565 -0.02152906 -0.02575682 0.0009839889 -0.018752066 0.015362935 0.01879061 0.013715614
00000000: a2a4 84bc f8e5 24bc d26c 813c 7781 a83b
00000010: 2585 7dbc 7872 37bc cb49 453b 59a9 ecbc
00000020: 29c1 3c3c 486f 063a f793 87bc f737 b3bb
00000030: b9ca b53b b8a0 fe3b 169a 0cb9 9131 eb3a
00000040: 2d31 eebb 37be d6bc 40a6 c73c 0624 e83b
00000050: 3ab5 ff3c 0fc5 6dbc 2ffe d7bc e392 da3b
00000060: 9067 46bc d005 33bb 1290 91bb 11e6 873c
00000070: 3d1c d2bc 97bb 6fbc 24be e9bb f8fb cdbb
00000080: 1361 dcbb bcac bbbb 4f07 bcbc 3daf 0abd
00000090: 5b2d 693c 76a6 00bc 3a75 43bc e170 19bb
000000a0: 1b01 36bc 6720 8c3c 43db 183b 4fde 25bc
000000b0: 3ac3 d63b a54f 7d3b 9562 f53a abfc 1cbb
000000c0: 9327 363c 17e0 72bb fcf7 5ebc c567 123c
000000d0: 08c8 853c 902e 92bc f271 273c 4f0d a9bc
000000e0: 467e ae3c 89a4 a53c 4e0a 07bc d26e 14bc
000000f0: 24f2 36bc 0476 74bc 28c2 a1bc b688 a03c
00000100: 0871 c8bc 97b4 283c 0b43 ba3c da0f 653c
00000110: caf7 f9bb eb0c 6a3c 0eb0 003c 1ce4 6cbc
00000120: 74d2 473c d59e 633b 77f7 c73b 1715 d1bb
00000130: ef25 8fbb 608e 8abb ab4d 273d a8d1 c93b
00000140: a449 edbb d00b f33a 0eec 673a 8831 e73c
00000150: ed19 22bc f219 b33b b72f f8bb f679 51bc
00000160: 3561 acbb 1ec5 65bc 495b 0c3c 9bd9 81bd
00000170: f422 f8bb 22b0 77bb 9570 26bc ec40 71bc
00000180: 9a8a b6bc 2cfa b5bc 8039 e33c dce5 b0bc
00000190: 4e7f b6bb dd1a cc3b 8001 803c 144d 8f3c
000001a0: 57b9 a4bc 0bf4 123c 35c3 af3b 086d 563c
000001b0: 9c2c 3f3c d96f f8bc 7e51 20bc e679 92bc
000001c0: aa6f 0cbc d49d d7bc 9a82 ebbc f198 b6bb
000001d0: bcd7 55bc 3327 693c 4401 edbc 2dfd ffbb
000001e0: 1ad2 13bb b65d b0bc f7ff d2bc 30f9 803a
000001f0: ef9d 99bc d2b4 7b3c c4ee 993c 74b7 603c
