p3_collab-compet/checkpoint_actor.pth (torch_old, 580792 bytes, 10 tensors)

normalizer_states.weight f4 [24]
0	0x3efb0b14	0.4903189
1	0x3d821530	0.063516974
2	0x3e4e2470	0.20131087
3	0x3e9be80a	0.3045047
4	0x3e6acdd0	0.22930074
5	0x3db87340	0.09006357
6	0x3eb5d656	0.35515088
7	0x3f00c3e1	0.5029889
8	0x3f51f8d4	0.82020307
9	0x3edde10a	0.43335754
10	0x3dcc1c60	0.099663496
11	0x3e4f27bc	0.20230001
12	0x3ef06438	0.4695146
13	0x3f374bc6	0.71599996
14	0x3f1d2a52	0.613927
15	0x3e866a98	0.262532
16	0x3f70ae7c	0.9401624
17	0x3f07006b	0.5273501
18	0x3f7720a0	0.96534157
19	0x3f798fa7	0.9748482
20	0x3ee67a84	0.45015347
21	0x3f510876	0.81653535
22	0x3f1fa545	0.62361556
23	0x3f3098ee	0.6898335

normalizer_states.bias f4 [24]
0	0x3c6c10f0	0.014408335
1	0xbc8f4978	-0.017491087
2	0x3c86d709	0.016459959
3	0xbc6efbdb	-0.014586414
4	0xbc9ae523	-0.018908089
5	0x3c7d42c6	0.015457815
6	0xbc6540da	-0.013992513
7	0x3c90d3da	0.017679144
8	0xbc639d2b	-0.013892452
9	0xbc6b2cf4	-0.014353979
10	0xbcbedfbc	-0.023300044
11	0x3ca61ac7	0.02027644
12	0xbcb32222	-0.021866862
13	0xbc894423	-0.016756123
14	0x3c994abd	0.018712396
15	0xbc74a892	-0.014932768
16	0x3c8d2144	0.017227776
17	0x3cb3b78a	0.021938104
18	0x3c6f61ae	0.014610691
19	0xbc7b2238	-0.015327983
20	0xbcd2fe15	-0.025755921
21	0x3c690ee8	0.014224745
22	0xbc6a6287	-0.014305717
23	0xbc9f28ab	-0.019428572

normalizer_states.running_mean f4 [24]
0	0x00000000	0.0
1	0x00000000	0.0
2	0x00000000	0.0
3	0x00000000	0.0
4	0x00000000	0.0
5	0x00000000	0.0
6	0x00000000	0.0
7	0x00000000	0.0
8	0x00000000	0.0
9	0x00000000	0.0
10	0x00000000	0.0
11	0x00000000	0.0
12	0x00000000	0.0
13	0x00000000	0.0
14	0x00000000	0.0
15	0x00000000	0.0
16	0xc0d1effb	-6.5605445
17	0xbfbffff7	-1.4999989
18	0x00000000	0.0
19	0x00000000	0.0
20	0x3d3cfcd7	0.046139564
21	0x40bffff7	5.9999957
22	0x00000000	0.0
23	0x00000000	0.0

normalizer_states.running_var f4 [24]
0	0x00000004	6e-45
1	0x00000004	6e-45
2	0x00000004	6e-45
3	0x00000004	6e-45
4	0x00000004	6e-45
5	0x00000004	6e-45
6	0x00000004	6e-45
7	0x00000004	6e-45
8	0x00000004	6e-45
9	0x00000004	6e-45
10	0x00000004	6e-45
11	0x00000004	6e-45
12	0x00000004	6e-45
13	0x00000004	6e-45
14	0x00000004	6e-45
15	0x00000004	6e-45
16	0x3c0d2dbc	0.008616861
17	0x00000004	6e-45
18	0x00000004	6e-45
19	0x00000004	6e-45
20	0x423a6546	46.5989
21	0x00000004	6e-45
22	0x00000004	6e-45
23	0x00000004	6e-45

fc1.weight f4 [512, 24]
0	0x3d4189e5	0.047250647
1	0xbd50e948	-0.051003724
2	0x3d130209	0.035890613
3	0xbd5a4e73	-0.05329747
4	0xbd5231e5	-0.051317114
5	0xbc3b4d1a	-0.011431957
6	0x3c545b8d	0.0129612805
7	0xbc904426	-0.01761062
8	0xbbf44f6a	-0.007455756
9	0xbc8115a8	-0.015757397
10	0xbc8250a4	-0.015907593
11	0xbb2f3364	-0.0026733512
12	0xbcdd30ae	-0.027000751
13	0xbc9ed4ca	-0.019388575
14	0x3d1c03c3	0.038089525
15	0x3c4cd259	0.012501323
16	0x3b826037	0.003978755
17	0x3d3cb50d	0.0460711
18	0x3c7a713f	0.015285789
19	0xbd2ed7d8	-0.042686313
20	0xbcd73938	-0.026272401
21	0x3d4c7cef	0.049923833
22	0xbd3272e0	-0.043566585
23	0xbc398766	-0.011323785
24	0x3d0ed6ea	0.034872927
25	0xbd491e49	-0.049101148
26	0xbca776a9	-0.020442324
27	0x3c2c3524	0.010510717
28	0xbcb3ebed	-0.021963084
29	0x3d526bc7	0.051372316
30	0x3cdb96bf	0.02680528
31	0xbc3a996b	-0.011389117
32	0xbc0307ea	-0.007997492
33	0x3ccb3cb0	0.024809211
34	0xbc07d83f	-0.008291303
35	0x3cef291b	0.029194405
36	0xbd58a100	-0.052887917
37	0x3cc97bc4	0.024595149
38	0xbad79e58	-0.0016450388
39	0x3b0f0cd7	0.0021827722
40	0xbb0e3372	-0.0021698144
41	0x3c186719	0.009301924
42	0x3d4c26fb	0.049841862
43	0xbd208048	-0.03918484
44	0xbd1b40b8	-0.037903517
45	0xbbab489f	-0.005227163
46	0xbd1e6e5d	-0.03867947
47	0x3c987b31	0.01861343
48	0x3c20706f	0.009792431
49	0x3bdc30cf	0.0067196856
50	0x3a6f9790	0.0009139711
51	0xbccfea0e	-0.02538016
52	0x3cfc6552	0.030810032
53	0xbbb3aad5	-0.0054830112
54	0x3cafc445	0.021455893
55	0xbc940047	-0.018066538
56	0xbcf787f1	-0.03021619
57	0x3bc89ec2	0.006122441
58	0xbceaf4c6	-0.02868117
59	0x3c154731	0.009111212
60	0xbce8ec83	-0.02843309
61	0x3c07af21	0.0082815
62	0x3c84c686	0.016207945
63	0x3cdd0417	0.02697949
64	0x3cb12942	0.021626119
65	0x3d370446	0.04468181
66	0x3cb97ad0	0.02264157
67	0xbc820597	-0.015871806
68	0x3b8195d4	0.0039546285
69	0x3d3bce59	0.045851085
70	0xbcbfc9f5	-0.02341173
71	0xbd14829d	-0.036257375
72	0xbcdd177a	-0.026988734
73	0xbd766bee	-0.060161524
74	0xbc23404e	-0.009964062
75	0xbd525eb9	-0.051359866
76	0x3c118eb9	0.008884125
77	0x3c03d61e	0.008046655
78	0xbd0654c8	-0.032795697
79	0x3d30157a	0.04298923
80	0x3c1ccc86	0.009570247
81	0xbd5d95bc	-0.054097876
82	0xbd4126ae	-0.04715603
83	0x3d6d77d3	0.0579756
84	0x3cad3016	0.021141093
85	0x3c97ffac	0.018554531
86	0xbcd57c3d	-0.026060218
87	0x3ba80afc	0.0051282626
88	0xbd3aa3e5	-0.04556646
89	0xbc96f994	-0.018429555
90	0x3cff25e1	0.031145992
91	0xbd6c8338	-0.057742327
92	0xbafe651c	-0.0019408795
93	0x3cf14909	0.029453771
94	0x3c98c7de	0.018649992
95	0xbcb624da	-0.02223437
96	0xbb0657c0	-0.002049908
97	0xbcca76af	-0.024714796
98	0xbd085195	-0.033280928
99	0x3b3a0690	0.002838526
100	0xbc89a001	-0.016799929
101	0x3bd40468	0.006470252
102	0x3cebd5da	0.028788496
103	0xbb352600	-0.0027641058
104	0xbd21d957	-0.039513912
105	0x3c9b497e	0.018955942
106	0xbcc28711	-0.023746045
107	0xbb042180	-0.002016157
108	0x3cd4cd6a	0.025976855
109	0xbacd9d00	-0.0015687048
110	0xbc0af604	-0.008481506
111	0x3bd14190	0.0063859895
112	0x3d322361	0.04349077
113	0xbc2669b8	-0.010157041
114	0xbd316372	-0.04330773
115	0x3cb0f15e	0.021599468
116	0x3cafa7be	0.02144229
117	0xbc6a7318	-0.014309667
118	0x3d159235	0.036516387
119	0x3c9646c2	0.018344287
120	0x3bf675b8	0.0075213574
121	0xbadf9d20	-0.0017060377
122	0xbcf218c5	-0.029552827
123	0xba8ce740	-0.001075007
124	0x3c36661c	0.011132743
125	0xbc8fdd86	-0.017561685
126	0xbc82b37f	-0.015954731
127	0x3bdc36f8	0.00672042
128	0x3d0107df	0.031501647
129	0x3cbec2ba	0.023286212
130	0x3c8572c6	0.01629008
131	0x3c380228	0.011230983
132	0xba220580	-0.0006180629
133	0x3cb1bbbe	0.021695968
134	0x3ba600f8	0.0050660335
135	0xbc565218	-0.013081096
136	0xbaef6ba0	-0.0018266328
137	0x3cd10036	0.025512796
138	0xbcf8014b	-0.030274054
139	0x3bc7b0b0	0.006094061
140	0x3bd05810	0.006358154
141	0xbcb6cc21	-0.022314133
142	0x3bb41828	0.0054960437
143	0x3c8be09a	0.017074872
144	0x3d267ecf	0.040648278
145	0xbdb873ef	-0.090064876
146	0x3cea3569	0.028589921
147	0xbdadb39a	-0.08481522
148	0xbc0c6ed9	-0.00857135
149	0x3c2cfb5a	0.010557974
150	0xbca9e288	-0.020737901
151	0x3d7a646d	0.06113093
152	0xbcfff116	-0.031242888
153	0xbcd3142e	-0.025766458
154	0xbc09e9dd	-0.008417574
155	0x3d9b6638	0.07587856
156	0xbd5f6704	-0.054541603
157	0xbda5f5a6	-0.08103494
158	0x3d8c1276	0.06839459
159	0xbcf87b96	-0.030332368
160	0xbd98865d	-0.07447503
161	0x3bf494ce	0.007464028
162	0x3caced0d	0.021109128
163	0xbdb3096d	-0.08742032
164	0x3d76659d	0.0601555
165	0x3d66b566	0.05632534
166	0xbda1f911	-0.07908834
167	0xbd632f54	-0.055465057
168	0x3cf05f6e	0.02934238
169	0xbc1496d4	-0.009069163
170	0x3d34ba33	0.044122886
171	0x3d2a8af5	0.041636426
172	0xbcdb04a9	-0.02673562
173	0x3d07fc29	0.033199463
174	0x3cf6481e	0.030063685
175	0x3d04a289	0.032381568
176	0xbca67d12	-0.02032331
177	0x3ce5c22a	0.028046686
178	0xbd188585	-0.03723671
179	0xbd22a968	-0.03971234
180	0x3b731b20	0.0037095025
181	0x3d2a676d	0.04160254
182	0x3a5821c0	0.0008244775
183	0x3cee83ca	0.029115576
184	0x3d071309	0.032977138
185	0x3cbd1c66	0.02308483
186	0xbb248b10	-0.0025107302
187	0xbc278d6c	-0.010226589
188	0xbc7aa78e	-0.015298737
189	0xbcd87d4e	-0.026426937
190	0xbc91a3a7	-0.01777823
191	0xbc7d371c	-0.015455034
192	0x3d1a9329	0.037738
193	0xbd296c44	-0.041363016
194	0x3ce83468	0.028345302
195	0xbd07ff70	-0.03320259
196	0xbc8e4db9	-0.017371045
197	0x3c83e04f	0.01609817
198	0x3c8dccd0	0.017309576
199	0x3d2661f0	0.040620744
200	0x3ca9637d	0.020677323
201	0x3c82cb01	0.01596594
202	0xbc076949	-0.008264848
203	0x3d3693c4	0.044574514
204	0xbd573d8b	-0.052548926
205	0x3ca72d7c	0.02040743
206	0x3d14fed2	0.036375828
207	0x3cd2c4f2	0.025728676
208	0x3d77c485	0.06049015
209	0x3c94fbc4	0.018186457
210	0x3caef92e	0.021359053
211	0xbd4dc76e	-0.05023902
212	0xbd030dee	-0.031995706
213	0x3d339fcf	0.043853577
214	0xbc633cc6	-0.01386947
215	0xbc83d70f	-0.016093759
216	0x3d86acbc	0.06575915
217	0xbc0518a4	-0.008123551
218	0x3c0af180	0.00848043
219	0xbad7a13c	-0.001645125
220	0xbd8be9a9	-0.068316765
221	0x3a4251cd	0.0007412702
222	0xbc980ecd	-0.018561745
223	0x3d9689f0	0.07350528
224	0xbc927da1	-0.01788217
225	0xbd8fd038	-0.070221364
226	0xbda25cf6	-0.07927887
227	0x3d868acd	0.06569443
228	0xbdb08ef8	-0.08621019
229	0xbd000c00	-0.031261444
230	0x3d713068	0.058884054
231	0xbd8b6f88	-0.06808382
232	0xbd9a5f45	-0.075377025
233	0x3d2cdd10	0.04220301
234	0x3d37adb7	0.0448434
235	0xbd180a05	-0.03711893
236	0x3dab5053	0.0836493
237	0x3d9e548e	0.07730971
238	0xbcf84b20	-0.03030926
239	0xbd155e79	-0.03646705
240	0x3da0ba5e	0.07848047
241	0xbc9a7f1d	-0.01885944
242	0x3da00961	0.07814289
243	0xbcee4988	-0.029087797
244	0xbd677a15	-0.05651291
245	0x3dab6436	0.08368723
246	0xbd620d75	-0.055188615
247	0x3d83dd51	0.06438697
248	0xbdaef022	-0.085418954
249	0xbd681aec	-0.0566663
250	0xbd90f1a2	-0.07077338
251	0x3d75d576	0.060018025
252	0xbd8622ba	-0.06549592
253	0xbcbe2265	-0.02320976
254	0x3c617577	0.013760916
255	0xbd7a5080	-0.061111927

fc1.bias f4 [512]
0	0x3e3842c2	0.17994216
1	0x3e0a560a	0.13509384
2	0x3d98d638	0.07462734
3	0x3e278270	0.16358352
4	0xbe1a3d3f	-0.15062426
5	0xbce44e00	-0.027869225
6	0x3d78523d	0.060625304
7	0xbe0e85b3	-0.1391819
8	0x3ca94083	0.020660644
9	0x3d2f9170	0.04286331
10	0x3d9aeb49	0.07564408
11	0x3d09d6f3	0.033652257
12	0xbdf8442f	-0.1212238
13	0x3c806a61	0.015675725
14	0xbde467f7	-0.11152642
15	0x3d13b4da	0.036061145
16	0xbdd8e7b4	-0.10591069
17	0x3e08cea1	0.13360073
18	0x3d03c6e2	0.03217209
19	0x3e1d392e	0.15353844
20	0xbc83e508	-0.016100422
21	0x3c601d71	0.013678894
22	0x3e52e0d6	0.2059358
23	0x3dd8ec80	0.10591984
24	0x3e456cb9	0.19279756
25	0x3e0027b7	0.1251515
26	0x3d41310d	0.04716592
27	0x3e348092	0.1762717
28	0x3e4333a2	0.19062665
29	0xbcd62858	-0.026142284
30	0xbe4c7966	-0.19968185
31	0x3d1abf81	0.03778029
32	0x3da176f0	0.07884014
33	0x3d7efe6a	0.062254347
34	0x3cf55b5c	0.02995079
35	0x3e345b0d	0.17612858
36	0x3e042148	0.12903321
37	0x3d43a8e0	0.047768474
38	0x3d28e0e9	0.041230116
39	0x3ddc040d	0.1074296
40	0xbe4e3063	-0.20135646
41	0xbe16ab81	-0.14713861
42	0x3e2a649c	0.16639942
43	0x3dcab031	0.09896887
44	0x3daed227	0.08536177
45	0x3d6581f0	0.05603212
46	0xbc818093	-0.01580838
47	0x3d2c1bd4	0.042018726
48	0x3e25bcfb	0.16185372
49	0xbdb6037f	-0.088873856
50	0x3d054c2c	0.032543346
51	0xbe2e0594	-0.16994315
52	0xbde53d81	-0.111933716
53	0xbd3e9210	-0.046526015
54	0x3d4791a1	0.048722867
55	0xbdfcafd0	-0.12338221
56	0x3e178929	0.14798416
57	0x3e2917cf	0.16512989
58	0x3e0fb216	0.14032778
59	0x3d3cf34b	0.04613046
60	0xbd2f44e8	-0.042790323
61	0x3dc43615	0.09580628
62	0xbdc41f04	-0.09576228
63	0x3d57d8be	0.052696936
64	0xbe3db242	-0.18525031
65	0x3d16c893	0.036812376
66	0xbd0a9c00	-0.03384018
67	0xbe2f88a6	-0.17141971
68	0xbe00533a	-0.12531748
69	0x3e3baa9d	0.18326803
70	0x3d52156e	0.05128997
71	0x3e07e485	0.13270767
72	0xbde387d2	-0.1110989
73	0x3e307b88	0.17234623
74	0xbdee47f4	-0.11634818
75	0xbe4be3c2	-0.19911101
76	0xbddc8da9	-0.10769207
77	0x3daeb9d9	0.085315414
78	0x3de1978b	0.11015233
79	0x3e28666b	0.1644532
80	0x3d830e65	0.0639923
81	0xbdb0a2dc	-0.08624813
82	0x3d34fe35	0.044187743
83	0x3e0d9b3d	0.1382875
84	0x3dfa6503	0.12226298
85	0x3e54a9b9	0.20767869
86	0xbdcf58da	-0.10124369
87	0x3db90fe5	0.09036235
88	0x3dfe61dd	0.1242101
89	0x3ddce60e	0.10786067
90	0xbd9edb02	-0.07756616
91	0x3d08aa80	0.033365726
92	0x3d0ec93a	0.034859873
93	0x3e4a83ac	0.19776791
94	0xbd96c7fa	-0.07362361
95	0xbe3ef9c3	-0.18649964
96	0x3d1a88a5	0.03772797
97	0x3dde668c	0.10859403
98	0x3c526609	0.01284171
99	0x3e354e78	0.17705715
100	0x3d4bf748	0.049796373
101	0xbd0f0290	-0.034914553
102	0xbd84f748	-0.06492478
103	0x3d3947c7	0.045234468
104	0xbe3db4f7	-0.18526064
105	0x3d07286f	0.032997545
106	0xbe0856b0	-0.13314319
107	0x3d9b8c1f	0.07595085
108	0x3e01d13c	0.12677473
109	0x3e026e24	0.12737328
110	0xbdec416d	-0.115359165
111	0xbe1e8603	-0.15480809
112	0xbd9d18b8	-0.0767073
113	0x3e3cb4bd	0.18428321
114	0x3e38645c	0.18007034
115	0x3daca62b	0.084301315
116	0x3e399187	0.1812192
117	0x3db24cd5	0.08706061
118	0x3d34de29	0.04415718
119	0xbda67caa	-0.081292465
120	0x3d422d54	0.04740651
121	0xbb85582f	-0.00406935
122	0xbb22254b	-0.0024741467
123	0xbd384ae4	-0.044993296
124	0xbdbdb6d3	-0.092633866
125	0xbc154d11	-0.009112612
126	0xbe265bff	-0.16246031
127	0x3e19db15	0.1502498
128	0x3e3b9b67	0.18321
129	0xbdc2ed43	-0.0951791
130	0xbafc8da1	-0.0019268283
131	0x3e5b0796	0.21389613
132	0x3e4398c4	0.19101244
133	0x3e0734c2	0.1320372
134	0xbdf035ba	-0.117289975
135	0x3df16ea8	0.11788684
136	0x3e4661bb	0.19373219
137	0x3d512b89	0.05106691
138	0x3daa0483	0.08301642
139	0xbb6bace2	-0.00359612
140	0xbd0d7346	-0.03453376
141	0x3e1b4609	0.15163435
142	0x3d8251da	0.06363268
143	0xbe4bb060	-0.198915
144	0x3d1408b0	0.036141098
145	0x3e17cdd1	0.14824606
146	0xbcf1ae30	-0.029502004
147	0xbe3fd3c9	-0.18733133
148	0x3d6fa426	0.058506154
149	0xbe3d3250	-0.18476224
150	0xbe20433a	-0.15650645
151	0xbdaa5514	-0.083170086
152	0xbe3f1737	-0.186612
153	0x3dd2f91c	0.1030142
154	0x3e031141	0.1279955
155	0xbd455aec	-0.048182413
156	0x3e2beac3	0.16788773
157	0xbd97d35e	-0.07413362
158	0x3dd00ab6	0.10158293
159	0xbe3649aa	-0.17801538
160	0x3df804b3	0.12110271
161	0xbd95fec4	-0.07323983
162	0xbd922aa0	-0.07137036
163	0xbdec01b3	-0.115237616
164	0xbe129edf	-0.14318417
165	0x3deb5f06	0.11492734
166	0x3e29bd5a	0.16576138
167	0x3cd467c4	0.025928386
168	0xbd97d5b4	-0.074138075
169	0x3e0be13d	0.1366014
170	0x3d8eb639	0.0696835
171	0x3e184cd1	0.14873053
172	0x3d5c8ec9	0.053847108
173	0xbd4f3bec	-0.050594255
174	0xbe1aec82	-0.15129283
175	0xbe4f0eb1	-0.20220448
176	0x3d3848d5	0.044991333
177	0xbe36948e	-0.17830107
178	0x3d7f35b2	0.062307067
179	0x3e46129b	0.19343035
180	0xbcad438e	-0.021150377
181	0xbd881f7a	-0.06646629
182	0x3dddc8a4	0.10829285
183	0x3e3e0626	0.18557033
184	0x3e3092b0	0.17243457
185	0x3df95b4c	0.121756166
186	0xbe2efc82	-0.17088512
187	0xbda69d94	-0.081355244
188	0xbe4924ac	-0.19642895
189	0xbc91c680	-0.017794847
190	0xb96aad2d	-0.00022380492
191	0xbe0dc797	-0.13845669
192	0x3db2766d	0.08713994
193	0x3e1d1646	0.15340528
194	0x3e15a43f	0.14613436
195	0x3d8f821e	0.0700724
196	0x3d553508	0.052052528
197	0xbd20d30c	-0.03926377
198	0xbd8ec1ee	-0.06970583
199	0x3e31b101	0.17352678
200	0xbe0df098	-0.1386131
201	0x3c803629	0.015650826
202	0xbe4a60c5	-0.19763477
203	0xbe1c711f	-0.15277527
204	0xbd8bc1ac	-0.06824049
205	0x3e088c42	0.13334754
206	0x3e019e31	0.12658001
207	0xbddc1e04	-0.107479125
208	0x3d546b72	0.05186028
209	0x3cfe8e17	0.031073613
210	0x3dab13be	0.08353375
211	0x3e34245a	0.17591992
212	0x3e5a5a0e	0.21323416
213	0x3d1bee8e	0.0380693
214	0x3d4098f8	0.047020882
215	0xbccd9d99	-0.025099562
216	0xbe4fc586	-0.20290193
217	0x3d0525e7	0.03250685
218	0xbd6690e0	-0.056290507
219	0x3cd2bcf2	0.025724862
220	0x3e326860	0.17422628
221	0xbd913ed0	-0.07092059
222	0x3dde24a1	0.1084683
223	0xbe33785e	-0.17526385
224	0x3dd3be17	0.10338991
225	0xbc886480	-0.016649485
226	0xbce81e10	-0.028334647
227	0xbdab2774	-0.083571345
228	0xbd8d9c14	-0.06914535
229	0x3d7b0c41	0.061290983
230	0xbe034450	-0.12819028
231	0x3e154f0d	0.14580937
232	0x3e38e296	0.18055186
233	0x3e20964b	0.15682332
234	0xbd977928	-0.073961556
235	0x3e29db1f	0.16587494
236	0x3e4ef3c8	0.20210183
237	0x3e1e268e	0.15444395
238	0xbe298b64	-0.1655708
239	0xbe16dac6	-0.14731893
240	0x3cf33b19	0.029691266
241	0xbe287a7d	-0.16452976
242	0x3dc2dc87	0.095147185
243	0x3da7afe9	0.08187849
244	0x3c94bd51	0.01815668
245	0xbe21beab	-0.1579539
246	0x3de5b971	0.11217011
247	0x3cde003d	0.027099723
248	0x3e1d830c	0.15382022
249	0xbe29fb38	-0.16599739
250	0xbddf9adb	-0.10918208
251	0xbe41197e	-0.18857381
252	0x3e4558e0	0.19272184
253	0x3e08bcf4	0.1335333
254	0xbd7b7120	-0.06138718
255	0x3daf753b	0.08567282

fc2.weight f4 [256, 512]
0	0xbcfa4164	-0.030548759
1	0xbc834fa4	-0.016029187
2	0xbd799aa8	-0.060938507
3	0xbcab4b14	-0.020909823
4	0x3cd51cc8	0.0260147
5	0xbd690a8a	-0.056894816
6	0xbd1c7dda	-0.03820596
7	0x3bd37540	0.0064531863
8	0x3c866070	0.016403407
9	0x3c7fbbc0	0.015608728
10	0x39dd1a00	0.00042171776
11	0x3d2b4534	0.041814044
12	0x3c238b10	0.009981886
13	0x3c8d5838	0.01725398
14	0xbb162e20	-0.0022915676
15	0x3c149128	0.009067811
16	0x3c31a220	0.010841876
17	0xbd787d5c	-0.060666427
18	0xbd441f74	-0.04788156
19	0xbd75ce78	-0.060011357
20	0xbd0e30b0	-0.0347144
21	0x3d5b3f5a	0.053527214
22	0xbce0f4c8	-0.02746047
23	0x3c2d9648	0.010594912
24	0xbc1068f8	-0.008814089
25	0x3d0de7d6	0.034644924
26	0xbc209ed8	-0.009803496
27	0x3ca4c0dc	0.020111494
28	0x3c8b48ac	0.017002426
29	0x3d5d4668	0.054022223
30	0xbc756370	-0.014977321
31	0xbd5e18f0	-0.054223
32	0x3cbc4430	0.022981733
33	0xbc0b3d58	-0.008498512
34	0x3b31bd40	0.0027120858
35	0xbd1d9e62	-0.038481124
36	0x3d15869e	0.036505334
37	0xbcc24648	-0.023715153
38	0x3b965ef0	0.004588954
39	0xbb5d1840	-0.0033736378
40	0xbd3dfeb8	-0.046385497
41	0x3b36d9c0	0.0027900785
42	0x3c097a10	0.008390918
43	0xbc71bb78	-0.014754169
44	0xbcd9388c	-0.026516221
45	0xbcc30d88	-0.023810163
46	0xbd0c1c46	-0.03420665
47	0xbac3b380	-0.0014930815
48	0xbc5622f0	-0.013069853
49	0xbca4c70c	-0.020114444
50	0x3d659e18	0.056058973
51	0xbce6bacc	-0.028165244
52	0xbcd4a65c	-0.025958233
53	0xbd75279e	-0.059852235
54	0xbc2c9fb0	-0.010536119
55	0x3d724bf4	0.059154466
56	0xbc85c5b8	-0.016329631
57	0x3b870850	0.004120864
58	0xbd7c55e2	-0.06160534
59	0xbc715c38	-0.014731459
60	0xbc8977a0	-0.016780674
61	0xbb40e680	-0.0029434264
62	0x3d449c70	0.048000753
63	0xbcb02944	-0.021504052
64	0x3d54a5b6	0.051915847
65	0xbaa37dc0	-0.001247339
66	0xbd4ecd4c	-0.050488755
67	0xbd518df6	-0.051160775
68	0x3d74b1ce	0.05973988
69	0x3cf0c34c	0.02939
70	0xbc803290	-0.01564911
71	0xbd6d1416	-0.057880484
72	0x3d522aa0	0.05131018
73	0x3c6a5bd8	0.014304124
74	0x3d0ca59a	0.034337617
75	0xbbcfcff0	-0.0063419268
76	0x3d7a70e6	0.061142825
77	0xbc33cd90	-0.010974303
78	0xbd2a9f7e	-0.04165601
79	0x3ce2020c	0.027588867
80	0x3d4a822e	0.049440555
81	0x3c9c07a4	0.019046612
82	0xbb91ce30	-0.0044496283
83	0x3d296d02	0.041363724
84	0x3d27a09a	0.040924646
85	0x3c113750	0.008863285
86	0x3d6ae2a8	0.057345062
87	0x3d36dd4e	0.044644646
88	0x3d79a02e	0.060943775
89	0xbd0dfc7e	-0.034664623
90	0x3d5cca2c	0.053903744
91	0xbd43a216	-0.047762
92	0x3d2f544c	0.042805
93	0xbc90a270	-0.017655581
94	0x3c4e2db8	0.012584142
95	0xbb0a1220	-0.0021067932
96	0xbd5eff4a	-0.05444268
97	0x3d3a291c	0.04544936
98	0x3c8172f8	0.015801892
99	0xbc5f31b0	-0.013622686
100	0x3d792804	0.060829177
101	0xbd1d69c8	-0.03843096
102	0xbd714c36	-0.05891057
103	0xbd4f84f8	-0.05066392
104	0xbd299d9c	-0.041410074
105	0xbd126fc0	-0.035751104
106	0x3d413ace	0.04717522
107	0xbd3ec026	-0.046569966
108	0x3bc797c0	0.006091088
109	0x3ce9de34	0.028548338
110	0x3d118698	0.03552875
111	0x3d4996e8	0.04921618
112	0xbd65f4d8	-0.056141704
113	0x3d07b5ec	0.03313248
114	0xbcdaffc4	-0.026733287
115	0xbd1276be	-0.035757773
116	0xbcf33164	-0.029686637
117	0x3d2abef0	0.041686
118	0x3ca7ef84	0.020499952
119	0x3d763a4c	0.06011419
120	0xbd293f52	-0.041320153
121	0x3c22ffe0	0.009948701
122	0x3d7c42f6	0.061587296
123	0xbcc1b6d0	-0.023646742
124	0xbbdc1150	-0.006715931
125	0x3cf5efa0	0.030021489
126	0xbd39bcd6	-0.045346104
127	0xbcb81f0c	-0.022475742
128	0x3c68e280	0.014214158
129	0xbcf05b84	-0.029340513
130	0x3cb41a88	0.021985307
131	0xbc21a780	-0.009866595
132	0xbb88a630	-0.0041702017
133	0x3c7416c8	0.01489801
134	0x3d597a4e	0.053095154
135	0xbd3e5044	-0.046463266
136	0xbd4e0dba	-0.05030606
137	0x3b67cda0	0.0035370365
138	0xbd50058e	-0.050786547
139	0x3c5dd370	0.01353918
140	0xbd02778c	-0.03185229
141	0x3d2107a4	0.039313927
142	0xbd4214c4	-0.047383085
143	0x3d283f98	0.041076273
144	0x3ccba7c8	0.024860278
145	0xbcf2ad0c	-0.02962353
146	0x3ce52d5c	0.02797573
147	0x3d23fa00	0.04003334
148	0xbd7bb6ba	-0.06145356
149	0x3d1d48e8	0.038399607
150	0xbb6f3ae0	-0.0036503598
151	0xbd5f8ea2	-0.054579385
152	0x3d5a3220	0.05327046
153	0xbd241714	-0.04006107
154	0xbcbcbca8	-0.023039177
155	0xbca93200	-0.020653725
156	0x3cb95d38	0.022627458
157	0x3cbcebcc	0.023061655
158	0x3d7f9e66	0.06240692
159	0x3c3fb148	0.011699982
160	0xbd44e612	-0.048070975
161	0xbc277900	-0.01022172
162	0xbd592810	-0.053016722
163	0x3d262714	0.04056461
164	0x3cb18e2c	0.021674238
165	0x3d7dea30	0.061990917
166	0xbd32bbb6	-0.043636046
167	0x3d641db6	0.055692397
168	0x3ce89498	0.028391168
169	0xbc694b58	-0.014239155
170	0x3c89aa14	0.016804732
171	0xbcb7a854	-0.022419132
172	0xbcd801d0	-0.026368052
173	0x3d1fa0c0	0.038971663
174	0x3c406868	0.011743642
175	0x3d017578	0.031606168
176	0x3b1b7f80	0.002372712
177	0xbd493584	-0.049123302
178	0x3d45761e	0.04820835
179	0xbd46ea28	-0.048563153
180	0xbd39316e	-0.045213155
181	0xbd339216	-0.04384049
182	0x3d635372	0.0554995
183	0x3cdc4704	0.026889332
184	0x3c53b960	0.012922615
185	0x3c28bf00	0.010299444
186	0xbd6e65e2	-0.05820263
187	0x3d19f4f2	0.037587114
188	0x3ce78874	0.028263308
189	0xbbd9cd10	-0.00664676
190	0xbc97fec8	-0.018554106
191	0xbd142972	-0.036172338
192	0x3b2c1a80	0.0026260912
193	0xbd079548	-0.03310135
194	0xbce748ec	-0.028233014
195	0xbd7414e8	-0.05959025
196	0xbce20ce8	-0.027594045
197	0x3d7c49b4	0.061593726
198	0x3cc625c0	0.024187922
199	0xbd69642c	-0.056980297
200	0xbb2d7080	-0.002646476
201	0xbd63d558	-0.055623382
202	0x3d50a44a	0.05093793
203	0xbd67b06c	-0.056564733
204	0xbcf0fdcc	-0.029417895
205	0xbd1dce12	-0.038526602
206	0xbd6bd2c4	-0.05757405
207	0xbad49800	-0.0016219616
208	0x3c533b18	0.012892507
209	0xbd5ae194	-0.053437784
210	0xb9dcf800	-0.00042146444
211	0x3cc27a70	0.023740023
212	0xbd0bd7e2	-0.03414143
213	0x3d10d0be	0.035355322
214	0xbd43bf9a	-0.047790147
215	0x3d220356	0.039553963
216	0xbcfa6dcc	-0.030569933
217	0x3b939220	0.0045035034
218	0x3d66c172	0.056336828
219	0xbcb9db64	-0.022687621
220	0xbcc56bbc	-0.024099223
221	0x3c2b14f8	0.010442011
222	0xbc212758	-0.00983604
223	0xbc890684	-0.01672674
224	0x3cab41e8	0.02090545
225	0xbcd1dd34	-0.025618173
226	0xbc68bfe8	-0.01420591
227	0xbd364ca6	-0.04450669
228	0x3c905a78	0.017621264
229	0x3d071fa0	0.032989144
230	0xbd71d1ac	-0.05903785
231	0xbd313bd2	-0.04326994
232	0x3d53a10c	0.05166726
233	0xbc97a700	-0.018512249
234	0xbcbcab80	-0.023030996
235	0x3b9d0c80	0.00479275
236	0x3cdbba44	0.026822217
237	0x3d36fca4	0.04467453
238	0xbd435c40	-0.0476954
239	0xbd0bc530	-0.0341236
240	0xbb5b9f60	-0.0033511743
241	0x3b1ba2e0	0.0023748204
242	0xbb819a70	-0.003955178
243	0x3c523fe0	0.012832612
244	0xbc17b200	-0.009258747
245	0xbd49f84c	-0.04930906
246	0xbcf97a78	-0.030453905
247	0xbb8c0c70	-0.0042739436
248	0xbd7d9a1a	-0.06191454
249	0x3d31a622	0.043371327
250	0x3c9d37fc	0.019191734
251	0x3bca0240	0.006164819
252	0x3d28c076	0.04119917
253	0xbd04668e	-0.032324366
254	0x3d57b6de	0.05266463
255	0x3aa85680	0.0012843162

fc2.bias f4 [256]
0	0x3d1daacd	0.038492966
1	0xbc2c320a	-0.010509977
2	0x3c160253	0.009155828
3	0x3d0bbe24	0.03411688
4	0xbb892898	-0.0041857474
5	0xbbd537cc	-0.0065068956
6	0xbc308124	-0.010772977
7	0xbb2b8742	-0.002617315
8	0x3c908894	0.01764325
9	0xbc37f578	-0.011227958
10	0x3caafb43	0.020871764
11	0x3bd68fb0	0.0065478906
12	0x3acabcda	0.0015467659
13	0xbd33685a	-0.04380069
14	0x3c9dbc06	0.019254696
15	0xbc37f994	-0.011228938
16	0xbcf7114d	-0.030159617
17	0xbc54109d	-0.012943414
18	0x3d0ab58c	0.033864543
19	0xbc014c44	-0.007891718
20	0xbb8510ec	-0.004060855
21	0xbc9cd9fa	-0.019146908
22	0x3d190cba	0.037365653
23	0xbcded9f6	-0.027203541
24	0x3d12661b	0.035741907
25	0xbc229bf8	-0.009924881
26	0xbcb7a0fd	-0.022415632
27	0xbd2b7eec	-0.04186909
28	0x39b30200	0.0003414303
29	0xbbf6b960	-0.0075294226
30	0x3c7a2401	0.015267373
31	0xbce7dd1e	-0.02830368
32	0x3d27a8bf	0.040932413
33	0x3c3ff610	0.011716381
34	0xbb533283	-0.0032226152
35	0xbd1a6d5b	-0.037701946
36	0x3c91749a	0.017755795
37	0xbd1d05ab	-0.038335484
38	0xbd0b61a3	-0.03402866
39	0x3d06dde2	0.032926448
40	0xbcf9c4a0	-0.030489266
41	0x3d62de10	0.055387557
42	0x3d8b3482	0.067971244
43	0x3b88b583	0.0041720285
44	0xbd0be3a9	-0.03415266
45	0x3cee059c	0.02905541
46	0x3c289708	0.010289915
47	0xbcdd6dd2	-0.027029905
48	0xbd17fac2	-0.037104376
49	0xbd14eb62	-0.03635729
50	0xbce6b3a0	-0.028161824
51	0x3ce6d7af	0.028179018
52	0xbd287e7c	-0.04113625
53	0x3d0fc950	0.035104096
54	0xbd07587d	-0.033043373
55	0xbcc1107d	-0.023567433
56	0xbc9e146f	-0.019296853
57	0x3cc4927a	0.023995627
58	0xbce60a8a	-0.028081197
59	0x3c420240	0.011841357
60	0x3c94d556	0.018168133
61	0x3bbe4160	0.005806133
62	0x3d0388b3	0.03211279
63	0xbcea73ff	-0.028619764
64	0x3c4d38a0	0.0125257075
65	0xbcd6f30b	-0.026238939
66	0x3a88c616	0.0010435011
67	0xbd1b24bb	-0.037876826
68	0x3d145dc2	0.036222227
69	0xbcea8629	-0.028628426
70	0xbcf2e25a	-0.029648948
71	0x3c996286	0.018723737
72	0xbca519f0	-0.02015397
73	0x3d0f34c3	0.034962427
74	0xbc7342ed	-0.014847499
75	0x3c8c493a	0.01712476
76	0x3ce010a1	0.02735168
77	0xbb928a29	-0.0044720364
78	0x3cf1c2e8	0.029511884
79	0xbbf03229	-0.0073301983
80	0xbcff9627	-0.031199528
81	0x3d170ae5	0.036875624
82	0xbce053c7	-0.027383698
83	0xbd21938f	-0.039447363
84	0x3d887f33	0.06664886
85	0x3c6e3784	0.014539603
86	0xbd0211ef	-0.031755384
87	0xbcb95e46	-0.02262796
88	0xbcbff9e5	-0.023434589
89	0xbd189bc0	-0.03725791
90	0xbc8418eb	-0.016125163
91	0xbbca4cb8	-0.0061736964
92	0x3cb85e0e	0.022505786
93	0x3c92d05e	0.017921623
94	0xbc17f464	-0.009274576
95	0xbc02fb34	-0.007994462
96	0x3c30ede0	0.010798901
97	0xbd0a529c	-0.03377019
98	0x3c4433e1	0.0119752595
99	0xbce437bc	-0.027858607
100	0xbd0f202b	-0.034942787
101	0x3c109a2c	0.00882582
102	0xbd2ec994	-0.04267271
103	0x3cd668e6	0.026173066
104	0x3d0e5345	0.03474738
105	0x3d25e23e	0.040498964
106	0x3d259086	0.04042103
107	0x3b6f79a0	0.0036541
108	0xbc9704e9	-0.018434959
109	0xbcb41cd3	-0.0219864
110	0xbcc94141	-0.024567248
111	0x3bc7b500	0.006094575
112	0xbca10795	-0.019656936
113	0xbc9a5607	-0.01883985
114	0x3c9491fa	0.018136013
115	0xbd043e02	-0.032285698
116	0xbd00acde	-0.03141486
117	0xbc89f572	-0.01684067
118	0x3ca0a18e	0.019608285
119	0xbcfd5a5a	-0.030926872
120	0xbcc4de95	-0.024031917
121	0xbc9a6bc7	-0.01885022
122	0xbbf703a0	-0.007538274
123	0xbd4565b5	-0.0481927
124	0xba774f31	-0.00094341027
125	0xbd293b3d	-0.04131626
126	0x3d1aac9d	0.037762273
127	0xbd247278	-0.04014823
128	0x3d0856b0	0.033285797
129	0x3ce1e5e1	0.027575435
130	0xbd1ad6cc	-0.037802503
131	0x3cb6823a	0.022278894
132	0xbd0bdc16	-0.034145437
133	0x3c821968	0.015881255
134	0x3c8f46d7	0.017489834
135	0x3c5b87db	0.01339909
136	0x3c5ebd64	0.013594959
137	0xbbb84b99	-0.0056242463
138	0x3a8928f5	0.0010464477
139	0xbceb56b0	-0.02872786
140	0xbd05aa43	-0.032633077
141	0x3a9df4c0	0.0012051091
142	0x3a311540	0.00067551807
143	0xbd1c2636	-0.03812238
144	0x3c5557b8	0.013021402
145	0xbc51966b	-0.01279221
146	0x3cba7da2	0.022764985
147	0x3c9cbfba	0.019134391
148	0xbcfe4377	-0.03103803
149	0x3aedf041	0.0018153266
150	0x3d1513ba	0.036395766
151	0x3cbc6200	0.022995949
152	0xbc1ead3e	-0.009684859
153	0x3d04622b	0.032320183
154	0x3d33f519	0.043934915
155	0x3c84f39b	0.016229441
156	0xbcc6bf75	-0.024261216
157	0x3c6a37de	0.014295546
158	0x3cc3a23f	0.023881076
159	0xbcc99e73	-0.024611687
160	0x3d063b8f	0.032771643
161	0xbd1f355d	-0.03886925
162	0xbb9b131f	-0.004732504
163	0xbd36049b	-0.044437986
164	0x3aa6c1ce	0.0012722553
165	0x3cc8f93b	0.024532905
166	0xbc4f5aec	-0.012655955
167	0xbae8bc40	-0.0017756298
168	0x3c02e226	0.007988488
169	0x3cf73495	0.03017644
170	0x3d0e544a	0.034748353
171	0x3c2d1800	0.010564804
172	0xbd0c7ef1	-0.03430075
173	0x3cb700ed	0.022339309
174	0x3d0bffe3	0.03417958
175	0xbd30c46a	-0.043156065
176	0xbc25b1cf	-0.010113194
177	0xbd240efd	-0.040053356
178	0xbd0646a7	-0.032782223
179	0xb96aeaca	-0.00022403445
180	0x3d04c245	0.032411832
181	0xbd318e48	-0.04334858
182	0x3d350871	0.044197503
183	0xbc2a81a4	-0.010406885
184	0xbcb331b5	-0.021874288
185	0x3c9cd91b	0.019146493
186	0xbccac47a	-0.02475189
187	0xbcfe7727	-0.031062676
188	0x3d11b6b1	0.03557462
189	0xbcad5f7c	-0.021163695
190	0xbcc3343e	-0.023828622
191	0x3cf19934	0.029491998
192	0x3d0972d3	0.03355677
193	0x3acb63e2	0.0015517438
194	0xbcd34dc6	-0.025793921
195	0x3d27e461	0.040989283
196	0xbcd530b6	-0.026024204
197	0x3c1ec23b	0.009689863
198	0x3d05d467	0.032673266
199	0xbcdd343d	-0.027002448
200	0x3c5e8ab6	0.013582876
201	0xbce6a693	-0.0281556
202	0xbb92f020	-0.0044841915
203	0x3b6c2153	0.0036030605
204	0xbd04f62e	-0.032461338
205	0x3d037cf8	0.0321016
206	0x3c2359a1	0.0099701
207	0x3d0c8b09	0.03431228
208	0x3ccc60fe	0.024948593
209	0x3b10526b	0.0022021781
210	0x3d263271	0.04057545
211	0xbd04d4ea	-0.032429613
212	0xbd062afe	-0.032755844
213	0x3c152f35	0.009105493
214	0x3cfdd4f7	0.030985339
215	0xbd38f819	-0.04515848
216	0xbc657b00	-0.014006376
217	0xbcf44018	-0.029815719
218	0x3d1a2465	0.037632365
219	0xbd0c20d2	-0.034210987
220	0x3c6e0df2	0.014529692
221	0x3cb26722	0.021777693
222	0x3c769258	0.0150495395
223	0xbcec7d82	-0.02886844
224	0xbb51b5bb	-0.003199919
225	0x3c414a5c	0.011797514
226	0xbcf195d2	-0.029490385
227	0xbc8b4100	-0.016998768
228	0xbd2e0c72	-0.042492338
229	0x3c470f59	0.012149655
230	0xbd1e5fb2	-0.03866548
231	0xbb887bd9	-0.0041651544
232	0xbd16123d	-0.036638487
233	0xbc229970	-0.009924278
234	0xbd06f966	-0.03295269
235	0xbd1dcef4	-0.038527444
236	0xbca47600	-0.020075798
237	0xbcbbd047	-0.022926463
238	0x3d165178	0.03669879
239	0x3d2dbc22	0.042415746
240	0x3ba97d08	0.0051723756
241	0x3b11bf15	0.0022239138
242	0xbcf4ceda	-0.02988379
243	0x3d0484c9	0.032353196
244	0x3d16610a	0.036713637
245	0xbc50c9e0	-0.012743443
246	0x3cb9d7de	0.022685941
247	0xbc2bf2d0	-0.010494903
248	0xbca2bdcb	-0.019865891
249	0xbd11768a	-0.03551344
250	0xbd0a23ff	-0.033725735
251	0x3bbd042a	0.0057683187
252	0xbcb188d2	-0.021671686
253	0x3cd10953	0.025517141
254	0xbb42de8e	-0.0029734704
255	0x3bc68046	0.006057772

out.weight f4 [2, 256]
0	0xbb42043a	-0.002960457
1	0xba75b50e	-0.00093729876
2	0xba0287de	-0.0004979352
3	0x3b49069b	0.0030674103
4	0x3ab9d630	0.0014178213
5	0xbc502476	-0.012704005
6	0xbb773acf	-0.0037724262
7	0x3b09127f	0.0020915566
8	0xbc127ee9	-0.008941391
9	0xba7a392c	-0.00095452624
10	0xba82f466	-0.0009991049
11	0xbb2370d2	-0.0024939072
12	0x39de45dd	0.00042395192
13	0xbb3e5c9e	-0.0029046903
14	0x3af58553	0.001873175
15	0x394c2520	0.00019468786
16	0x396649e7	0.0002196204
17	0xb7910bbe	-1.7290815e-05
18	0x3a62e997	0.00086560234
19	0xba95bac3	-0.0011423457
20	0xbb1abb68	-0.0023610238
21	0xbb1b6b70	-0.002371516
22	0x3a845db3	0.0010098725
23	0x3a6ea9d8	0.0009104288
24	0xbb832780	-0.0040025115
25	0x388a75c0	6.6022854e-05
26	0x3b2058b6	0.0024466938
27	0xba2c2ffc	-0.00065684295
28	0xba4c5948	-0.00077952864
29	0x3aa90a3e	0.0012896729
30	0x390d6abd	0.00013486571
31	0x3b0bd526	0.0021336763
32	0xb892bd20	-6.99705e-05
33	0x3ae0d998	0.0017154692
34	0xbc28b5fa	-0.010297293
35	0xb99692c8	-0.0002871959
36	0xbc27badd	-0.010237423
37	0x3a1e8da4	0.0006048328
38	0xbad67999	-0.0016363143
39	0xba9859a6	-0.0011623397
40	0x37a2aed7	1.9393321e-05
41	0x3c749689	0.0149284685
42	0x3cb698cd	0.022289658
43	0x39d9a077	0.0004150902
44	0xba81208c	-0.0009851619
45	0xbb1ee544	-0.002424554
46	0x3ac73cd8	0.0015200628
47	0xba1fa520	-0.0006089974
48	0xba99c891	-0.0011732747
49	0x3b026533	0.0019896745
50	0xbbea434b	-0.007149135
51	0x3b3e6141	0.0029049667
52	0x3a988c85	0.0011638558
53	0xb9cca08d	-0.00039029532
54	0xbab42e7d	-0.0013746765
55	0x3a9647e0	0.0011465512
56	0xb9c95e34	-0.00038407894
57	0xb446e154	-1.8522161e-07
58	0xbca666e0	-0.020312726
59	0x3a63155c	0.00086625456
60	0xbb3d1e7d	-0.0028857284
61	0xbb2f41fa	-0.0026742206
62	0x3a682a40	0.00088563934
63	0xbb2688af	-0.002541106
64	0xbb8c5820	-0.0042829663
65	0x3b60becf	0.0034293418
66	0xbb764654	-0.003757854
67	0x3b1e5db2	0.0024164733
68	0xbb11f5ec	-0.0022271825
69	0x3ac60b84	0.0015109633
70	0xbacfcd08	-0.0015853951
71	0xbb294b07	-0.0025832073
72	0x3ae54848	0.0017492855
73	0x3ac67953	0.0015142359
74	0xb9c984b6	-0.00038436585
75	0xb7c84480	-2.3873756e-05
76	0x3a65da9e	0.0008768233
77	0x3abe469a	0.001451689
78	0xbb664bc7	-0.0035140382
79	0x3b31e9c9	0.0027147403
80	0xbcac9758	-0.02106826
81	0xbb1e742a	-0.0024178126
82	0x3a82f7c0	0.0009992048
83	0x3afad36c	0.0019136495
84	0x3c2cdc23	0.010550532
85	0xbab9a3c5	-0.0014163187
86	0xbaabd47a	-0.0013109588
87	0xba35598e	-0.0006917947
88	0xbc3dd848	-0.01158721
89	0xbb266bcd	-0.0025393844
90	0xbaefc4af	-0.0018292869
91	0xba402204	-0.00073292875
92	0x3b05587a	0.0020346926
93	0x3a7fef77	0.0009763161
94	0x393f2fc0	0.00018232968
95	0xb887a840	-6.468641e-05
96	0x3ad44830	0.001619583
97	0xbaca4c10	-0.0015434045
98	0xba2e16ee	-0.000664099
99	0x39e16940	0.00042993762
100	0x3b18641e	0.0023253034
101	0x3b089e96	0.0020846478
102	0xb8c94260	-9.59679e-05
103	0xb8ab332e	-8.1634484e-05
104	0x3ca971f6	0.020684224
105	0xbac4a40d	-0.0015002504
106	0x3b127b6e	0.0022351402
107	0x3b2dd8d5	0.0026526947
108	0xbaa3cb1a	-0.0012496442
109	0x3b208d12	0.0024498147
110	0x39fe592d	0.00048513096
111	0xbb1e9ffd	-0.0024204247
112	0xba606a90	-0.0008560801
113	0x3b822bb2	0.003972494
114	0x3a34a868	0.00068915496
115	0x3a5c90df	0.00084139215
116	0x3a781d98	0.0009464859
117	0xbb748ccd	-0.003731537
118	0xbc165cb9	-0.00917738
119	0x3a30fff4	0.0006752007
120	0xbb9010cd	-0.004396534
121	0x39a791ef	0.0003196145
122	0x39812318	0.00024630944
123	0xbc6d45a2	-0.014481934
124	0xb8fafff2	-0.000119686025
125	0xbb0f0ad9	-0.0021826534
126	0x38da1f60	0.00010400894
127	0x3ab30c44	0.0013660272
128	0xbaa5db65	-0.0012653886
129	0x3a58a038	0.00082636205
130	0x3a6ce94c	0.00090374495
131	0x3ace4c88	0.0015739361
132	0x3ad88347	0.0016518616
133	0xbb442bfa	-0.0029933439
134	0x3b4c66f3	0.0031189292
135	0x3b4120cf	0.0029469018
136	0xbb8e6748	-0.004345808
137	0xbc3a962e	-0.011388345
138	0x3aeda4ab	0.001813074
139	0x3b114cae	0.0022170949
140	0xbc86476d	-0.01639148
141	0xbab4e478	-0.0013800999
142	0x3af0bb24	0.0018366319
143	0x3acec184	0.0015774225
144	0x3ad30024	0.0016098064
145	0x3a89ef70	0.0010523628
146	0x39bd9689	0.00036161047
147	0x3b1c4032	0.0023841974
148	0xbb0002fa	-0.0019533024
149	0xb939e05c	-0.00017726555
150	0x3b1e4579	0.0024150296
151	0xba2f4f7e	-0.00066875655
152	0xbba4cf56	-0.005029599
153	0xbab1d664	-0.0013567922
154	0xbc266d90	-0.010157958
155	0x3aae34a5	0.0013290836
156	0xbaa367d2	-0.0012466854
157	0xbb40b256	-0.0029403172
158	0x39632fe4	0.00021666248
159	0xbb2cbb09	-0.0026356599
160	0x3add1e7c	0.0016870047
161	0xba8566b2	-0.00101777
162	0x3b2f6ea3	0.0026768825
163	0x3a57a5a4	0.00082262815
164	0xba87126a	-0.001030517
165	0x3cb37bfc	0.021909706
166	0x3afe57e4	0.0019404856
167	0x3a821bb8	0.0009926474
168	0x3a51cd75	0.0008003333
169	0xbb281a98	-0.0025650617
170	0x3c9166ab	0.017749151
171	0x3a2d73dc	0.00066166907
172	0xbc891029	-0.016731339
173	0xbbf731a1	-0.007543758
174	0x3b266be0	0.0025393888
175	0x3a9d8f22	0.0012020806
176	0x3ab6b1cd	0.0013938487
177	0xbb22bfbb	-0.0024833519
178	0xbac0c26a	-0.0014706377
179	0xb78239a0	-1.5524041e-05
180	0x3b3c22e4	0.002870732
181	0xba821f10	-0.000992747
182	0x3c9022cb	0.017594716
183	0x39f2b7a8	0.00046294671
184	0x3b20fdbe	0.0024565305
185	0x3bb737e3	0.005591379
186	0xbb1962b5	-0.0023404781
187	0x3b371074	0.002793339
188	0x39d8ae22	0.0004132847
189	0xbc792958	-0.015207611
190	0xb63c4558	-2.8054546e-06
191	0xba0af2a2	-0.00053004373
192	0xbb1d1b86	-0.0023972704
193	0xbb15993e	-0.0022826935
194	0x3a65e6fb	0.00087700755
195	0x3b7ed046	0.0038881465
196	0x375d0900	1.3174722e-05
197	0xb9a2d3d2	-0.00031056866
198	0x3a45f577	0.0007551531
199	0xba160df0	-0.0005724123
200	0xbc2002cb	-0.009766291
201	0xbb14d7d7	-0.0022711658
202	0xba06b6c8	-0.0005138931
203	0x3a84789c	0.0010106745
204	0x3b30f3f5	0.0027000878
205	0xbc30e24f	-0.010796144
206	0xb92d7fdd	-0.00016546198
207	0x3ad0324c	0.001588413
208	0x3ae2ecf9	0.0017313055
209	0xbaafbd38	-0.0013407832
210	0x3a80a290	0.0009814072
211	0x3b152f20	0.0022763684
212	0xbae068e2	-0.0017121101
213	0x3ae0cf00	0.0017151535
214	0xbc0d6404	-0.008629803
215	0x3ae1e5f5	0.001723467
216	0x38fd1047	0.00012067012
217	0x3a28cde0	0.0006439369
218	0x3afa8165	0.0019112049
219	0xb9e8d4a6	-0.00044408924
220	0x3c69a663	0.014260861
221	0xb993cf28	-0.00028192368
222	0xbb27ad9a	-0.0025585652
223	0x3a126f10	0.00055860076
224	0xbb6ea182	-0.0036412184
225	0x3af8531c	0.0018945667
226	0x3bb0aca6	0.005391675
227	0xbb4fd77a	-0.0031714127
228	0x3a9d0dcc	0.0011982261
229	0xbb35353f	-0.0027650145
230	0xbc2312da	-0.009953225
231	0x3cb80dd6	0.022467535
232	0xbb40e621	-0.0029434043
233	0xba4018b4	-0.00073279
234	0x3aa95c00	0.0012921095
235	0xbade061f	-0.001693908
236	0xba88449c	-0.0010396424
237	0x3b16509c	0.002293623
238	0xbbd60254	-0.0065310393
239	0x3ca277be	0.019832488
240	0xba6b3678	-0.0008972655
241	0x3c6e227d	0.01453459
242	0x3a8b6ec0	0.0010637864
243	0xbba1b28f	-0.004934616
244	0x3b3720de	0.0027943174
245	0x3b0abc50	0.0021169372
246	0xba0a496c	-0.0005275223
247	0x3b3118ec	0.0027022911
248	0x39c9b4ed	0.00038472508
249	0xba2ba2ca	-0.000654739
250	0x3c3f5d7d	0.011680004
251	0xbc5c7f6d	-0.013458115
252	0xba16bf53	-0.00057505554
253	0x3b2381e1	0.002494924
254	0xba4fb6d6	-0.0007923668
255	0x38581109	5.151428e-05

out.bias f4 [2]
0	0x3c33f42b	0.010983507
1	0xbc8b4197	-0.01699905
