p3_collab-compet/checkpoint_critic.pth (torch_old, 581815 bytes, 9 tensors)

normalizer_states.weight f4 [24]
0	0x3ed89654	0.4230219
1	0x3f5ac1d9	0.8545204
2	0x3f1b0075	0.6054757
3	0x3ebb796e	0.3661608
4	0x3f103860	0.5633602
5	0x3efa8ad0	0.4893403
6	0x3ea8e33e	0.32985872
7	0x3d159760	0.036521316
8	0x3f592780	0.848259
9	0x3f228bec	0.63494754
10	0x3f0e4149	0.5556837
11	0x3ec80bc0	0.39071465
12	0x3ed52c96	0.4163558
13	0x3f1f94c9	0.62336403
14	0x3f0eac5d	0.55731755
15	0x3f794161	0.97365385
16	0x3f3e52bf	0.7434501
17	0x3e4b8498	0.19874799
18	0x3ee12ed8	0.4398105
19	0x3ec1c18c	0.37842977
20	0x3f2790ba	0.6545521
21	0x3ebc7724	0.36809647
22	0x3f433335	0.7625001
23	0x3e8b839e	0.27248853

normalizer_states.bias f4 [24]
0	0xbb14c7b4	-0.002270204
1	0x3ba0a6fd	0.004902719
2	0xbc31c71a	-0.010850692
3	0x3a0c6c15	0.00053566816
4	0x3b526879	0.0032105728
5	0xbbdeabba	-0.0067953737
6	0xbc56fc23	-0.0131216375
7	0xbc77a060	-0.01511392
8	0x3b8fc0c9	0.0043869955
9	0xbb94c8fa	-0.00454056
10	0x3c4b103d	0.012394008
11	0x3c50cb46	0.012743777
12	0x3c274f30	0.010211751
13	0x3ad0f181	0.0015941114
14	0x3b2cf4c9	0.002639102
15	0xbc5843c1	-0.013199748
16	0xbc541e02	-0.012946608
17	0x3bc93b7c	0.0061411243
18	0x3c65d378	0.014027469
19	0xbc3132e0	-0.010815352
20	0xba5520e5	-0.0008130207
21	0xbb5040f1	-0.003177699
22	0xbb91160c	-0.004427677
23	0xbb94da16	-0.0045425994

normalizer_states.running_mean f4 [24]
0	0x00000000	0.0
1	0x00000000	0.0
2	0x00000000	0.0
3	0x00000000	0.0
4	0x00000000	0.0
5	0x00000000	0.0
6	0x00000000	0.0
7	0x00000000	0.0
8	0x00000000	0.0
9	0x00000000	0.0
10	0x00000000	0.0
11	0x00000000	0.0
12	0x00000000	0.0
13	0x00000000	0.0
14	0x00000000	0.0
15	0x00000000	0.0
16	0xc0d1f365	-6.5609612
17	0xbfbffff7	-1.4999989
18	0x00000000	0.0
19	0x00000000	0.0
20	0x3d9d4fa8	0.07681209
21	0x40bffff7	5.9999957
22	0x00000000	0.0
23	0x00000000	0.0

normalizer_states.running_var f4 [24]
0	0x00000004	6e-45
1	0x00000004	6e-45
2	0x00000004	6e-45
3	0x00000004	6e-45
4	0x00000004	6e-45
5	0x00000004	6e-45
6	0x00000004	6e-45
7	0x00000004	6e-45
8	0x00000004	6e-45
9	0x00000004	6e-45
10	0x00000004	6e-45
11	0x00000004	6e-45
12	0x00000004	6e-45
13	0x00000004	6e-45
14	0x00000004	6e-45
15	0x00000004	6e-45
16	0x3c0d2a70	0.008616075
17	0x00000004	6e-45
18	0x00000004	6e-45
19	0x00000004	6e-45
20	0x423a60f1	46.59467
21	0x00000004	6e-45
22	0x00000004	6e-45
23	0x00000004	6e-45

fcs1.weight f4 [512, 24]
0	0xbc8cf270	-0.017205447
1	0xbd2e633a	-0.0425751
2	0x3c0156c2	0.00789422
3	0x3c9fc9e9	0.019505458
4	0xbc220d38	-0.009890847
5	0x39c48f85	0.00037490964
6	0xbba75945	-0.0051070773
7	0x3bb2cbfe	0.0054564467
8	0x3bb089b4	0.0053875092
9	0xbd09d6af	-0.033652004
10	0xbca3cd4b	-0.019995352
11	0xbc0aadbf	-0.008464276
12	0xbcada064	-0.021194644
13	0x3a9a907d	0.0011792328
14	0x3cb4c2ba	0.02206551
15	0x3cdef3a6	0.02721579
16	0x3c9aaf73	0.018882489
17	0x3bd254bb	0.006418792
18	0x3d291cbe	0.041287176
19	0xbd034a8b	-0.03205351
20	0xbcb8b5b5	-0.022547582
21	0xbd1c0eec	-0.038100168
22	0xbba528b1	-0.005040251
23	0xbca18bc5	-0.019719968
24	0x3cb20dc3	0.021735078
25	0xbc77e12a	-0.015129367
26	0x3d23e2d0	0.040011227
27	0x3d269f46	0.04067924
28	0x3c8a2ebe	0.016867992
29	0x3cba4ca2	0.02274162
30	0x3c20d30c	0.0098159425
31	0x3bc0a7bc	0.0058793705
32	0x3d037cb2	0.03210134
33	0x3ccfc8af	0.025364248
34	0x3ca32a1d	0.019917542
35	0xbc998ed3	-0.018744862
36	0xbbd56c15	-0.0065131285
37	0x3cfbea9c	0.030751519
38	0x3c0efbbf	0.008727013
39	0xbd1a19d0	-0.037622273
40	0x3cbc1950	0.022961289
41	0x3cf580e5	0.029968688
42	0x3c00d95f	0.007864325
43	0x3d101fbc	0.035186514
44	0xbba18621	-0.0049293195
45	0xbc8ffe84	-0.017577417
46	0x3d2c6211	0.04208571
47	0xbbcfd446	-0.0063424436
48	0xbcbecc7f	-0.02329087
49	0xbd2af692	-0.041739054
50	0xbd14a41d	-0.036289323
51	0xbcc18701	-0.023623945
52	0x3c7aad3b	0.01530009
53	0x3b6f7ea7	0.0036543997
54	0xbc803e89	-0.01565482
55	0xbcdad021	-0.026710572
56	0x3d03c396	0.032168947
57	0xbb1dd030	-0.0024080388
58	0xbbbd9703	-0.0057858243
59	0x3ce8c23b	0.028412929
60	0xbc1397d4	-0.009008367
61	0x3ab80600	0.0014039874
62	0xbcd3e856	-0.025867622
63	0xbc08bcd1	-0.008345799
64	0x3ca43a35	0.020047287
65	0x3d18c89c	0.03730069
66	0x3cf1f390	0.029535085
67	0x3b908749	0.0044106585
68	0xbd0c22f2	-0.034213014
69	0x3caf71f9	0.021416651
70	0xbcbc0c96	-0.02295522
71	0x3ce89746	0.028392445
72	0xbcd35073	-0.025795197
73	0x3cd91dac	0.026503406
74	0x3d29c848	0.04145077
75	0x3c1b64e1	0.009484501
76	0xbc551a03	-0.01300669
77	0xbca4d558	-0.020121261
78	0x3d31dcee	0.043423586
79	0x3c8fc652	0.017550621
80	0x3d00768e	0.031363063
81	0x3c3a238c	0.011361014
82	0x3c344040	0.0110016465
83	0x3d119184	0.035539165
84	0xbd2454bd	-0.040119875
85	0xbc04d21a	-0.008106733
86	0xbc99377b	-0.018703213
87	0xbccc6e75	-0.024955014
88	0xbd3a0bfa	-0.045421578
89	0x3be6487b	0.0070276833
90	0xbc7ceb15	-0.015436907
91	0x3d068ec7	0.032851007
92	0x3bf08f78	0.0073413216
93	0xbd1a151c	-0.037617788
94	0x3ce9adbb	0.028525224
95	0xbc015f97	-0.007896326
96	0xbcac2767	-0.021014882
97	0x3d1615f5	0.036642034
98	0x3ca638de	0.020290788
99	0x3ccf88a6	0.025333714
100	0xbcc62e4b	-0.024191996
101	0x3d1dad63	0.038495433
102	0x3cead9c2	0.028668288
103	0xbd1a8acc	-0.037730023
104	0x3d2633f1	0.04057688
105	0x3c61ce1c	0.01378205
106	0x3c7ed260	0.015553087
107	0x3bc3a498	0.005970549
108	0x3d20a129	0.039216194
109	0xbcc5ee7a	-0.024161566
110	0x3d09b857	0.033623066
111	0xbcf84229	-0.030304985
112	0xbcc6c553	-0.024264013
113	0xbcad2d19	-0.021139668
114	0xbcdacda1	-0.02670938
115	0x3cb729c6	0.022358786
116	0x3d221493	0.039570402
117	0xbb9ddaa8	-0.0048173256
118	0x3ce10542	0.027468327
119	0xbcc6e42c	-0.024278723
120	0xbd02760a	-0.031850852
121	0xbcdace73	-0.02670977
122	0xbb83dad8	-0.004023891
123	0xbc5512ef	-0.013005002
124	0x3d2e2126	0.04251208
125	0xba990c61	-0.0011676663
126	0x3d171202	0.036882408
127	0xbcfb7513	-0.030695474
128	0x3c4d68da	0.012537206
129	0xbc1edb0f	-0.009695782
130	0x3bbf4cf3	0.0058380305
131	0x3d23431d	0.039858926
132	0xbc7b2302	-0.015328171
133	0xbd27410f	-0.04083353
134	0x3c03f45d	0.008053866
135	0x3cff4765	0.031161973
136	0xbcb054be	-0.021524783
137	0x3c819ad8	0.015820906
138	0xbc745299	-0.014912271
139	0x3bf80a1d	0.007569565
140	0x3cb90f9f	0.022590457
141	0xbc281f4f	-0.010261371
142	0xbd26250e	-0.04056268
143	0xbcc80a61	-0.024419012
144	0x3ab3f754	0.0013730326
145	0xbd328ced	-0.04359143
146	0xbd06ea36	-0.032938205
147	0x3bf9b083	0.007619919
148	0x3d28b58c	0.04118876
149	0x3cf5942d	0.029977882
150	0xbcd0bb7c	-0.025480025
151	0x3d295faf	0.041351017
152	0xbcb1a535	-0.021685222
153	0x3c1c7974	0.009550441
154	0x3c8104da	0.015749384
155	0x3c56dafc	0.013113733
156	0x3d1d8ce7	0.038464453
157	0x3cd0f0ea	0.025505502
158	0xbd196430	-0.037449062
159	0x3c3d83fd	0.011567113
160	0x3c8138f9	0.015774237
161	0xbcced069	-0.025245862
162	0xbba89136	-0.0051442636
163	0xbcd698d5	-0.026195923
164	0xbcd1c299	-0.025605487
165	0x3d24d8ce	0.040245824
166	0x3cedffc3	0.02905262
167	0x3b64fdd8	0.0034941342
168	0x3cae6dca	0.021292586
169	0xbd233544	-0.03984572
170	0xbce56581	-0.028002502
171	0xbcb8b326	-0.022546362
172	0x3bfaa188	0.0076486506
173	0x3cc95b92	0.024579797
174	0xbc1e96c0	-0.009679496
175	0xbcc086f7	-0.023501856
176	0x3a6c67c0	0.00090181455
177	0xbc5bfe7e	-0.013427375
178	0xbd1e1a3a	-0.03859923
179	0xbcf9de4e	-0.030501511
180	0x3cad25e6	0.021136235
181	0x3c158650	0.009126261
182	0xbc26b41c	-0.010174777
183	0x3d194c87	0.037426498
184	0x3ce73426	0.028223109
185	0x3cccef22	0.025016371
186	0x3cf09542	0.029368047
187	0xbb8fe2b0	-0.004391037
188	0x3cf44aca	0.029820818
189	0xbd26fb51	-0.040767018
190	0xbcb3ae9f	-0.021933852
191	0xbc5af964	-0.013365123
192	0xbc810362	-0.015748683
193	0x3caa5e0c	0.020796798
194	0xbc237188	-0.009975798
195	0xbcf09a89	-0.029370563
196	0x3c6d1255	0.014469703
197	0xbd2ddeb0	-0.0424487
198	0x3ba4f537	0.0050341147
199	0xbd01e822	-0.03171552
200	0x3c2224ea	0.009896496
201	0x3bbba04d	0.0057258965
202	0x3d1f0e89	0.03883222
203	0xbc0d759b	-0.008633996
204	0x3cbba203	0.022904402
205	0x3c16a905	0.009195571
206	0xbcf205f7	-0.02954386
207	0xbc92686a	-0.017872054
208	0x3b60a8a4	0.0034280205
209	0x3c11afb1	0.008891986
210	0x3ccdef49	0.025138514
211	0x3c979968	0.018505767
212	0x3c7bcc4b	0.015368531
213	0x3cb7d76d	0.02244159
214	0xbbe4b0d6	-0.0069790883
215	0x3c56cc53	0.013110238
216	0xbd0b93a2	-0.03407634
217	0x3d0054f0	0.031331003
218	0x3d140781	0.03613997
219	0x3ca32140	0.019913316
220	0xbcc2b4d9	-0.023767876
221	0x3d12d44d	0.035846997
222	0xbb75c100	-0.003749907
223	0xbcaf0554	-0.021364845
224	0xbd28ef78	-0.041244
225	0xbd304f65	-0.043044467
226	0x3ce37c2c	0.02776917
227	0x3d32956c	0.04359953
228	0xbcef0501	-0.02917719
229	0x3d127895	0.035759527
230	0xbd296a81	-0.041361336
231	0xbce0358f	-0.027369289
232	0xbcaf8262	-0.021424476
233	0x3cb4af41	0.022056224
234	0xbce753bd	-0.028238172
235	0xbd0af8de	-0.033928744
236	0xbc9561bf	-0.018235086
237	0x3d1a52fc	0.037676796
238	0x3c9b07a3	0.01892454
239	0xbc6703e5	-0.01410005
240	0xbca6d108	-0.020363346
241	0xbcbdb572	-0.023157809
242	0x3bc4f318	0.0060104243
243	0x3cd0317b	0.02541422
244	0x3d26b52c	0.040700123
245	0xbd0bcf54	-0.03413327
246	0x3d07828f	0.033083495
247	0x3cbf617f	0.02336192
248	0xbc86517d	-0.016396279
249	0x3d03eb12	0.032206602
250	0xbc26a0ed	-0.010170204
251	0x3bd1f8a5	0.0064078146
252	0xbc010952	-0.007875757
253	0xbc0c14f5	-0.008549918
254	0x3a0357cd	0.0005010337
255	0x3d21630a	0.03940109

fcs1.bias f4 [512]
0	0x3e398e31	0.18120648
1	0x3dd5db27	0.104421906
2	0x3d99cdb9	0.075099416
3	0x3e2df9ec	0.16989869
4	0xbe1a3d3f	-0.15062426
5	0xbd16230d	-0.03665452
6	0x3a492064	0.0007672368
7	0xbe0e85b3	-0.1391819
8	0xbc3021a9	-0.010750213
9	0xbbcbf39c	-0.006224109
10	0x3be8accc	0.007100677
11	0xbc88e363	-0.016709989
12	0xbdf8442f	-0.1212238
13	0xb9979818	-0.00028914283
14	0xbde467f7	-0.11152642
15	0xbbcda38f	-0.006275601
16	0xbdd8e7b4	-0.10591069
17	0x3df57d59	0.11986799
18	0xbd49def6	-0.049284898
19	0x3df2d17b	0.118563615
20	0xbce9da32	-0.028546426
21	0xbc3d65c4	-0.011559907
22	0x3e3767ca	0.17910686
23	0x3d829f6c	0.063780636
24	0x3e281af6	0.16416535
25	0x3dfea88f	0.12434494
26	0x3ca2c95a	0.019871403
27	0x3e1c6426	0.15272579
28	0x3e401044	0.18756205
29	0xbd193bc7	-0.037410524
30	0xbe4c7966	-0.19968185
31	0x3c81b202	0.015831951
32	0x3d8360c3	0.0641494
33	0x3d223215	0.039598543
34	0xba1b6f49	-0.00059293635
35	0x3e1757eb	0.14779632
36	0x3df2e89f	0.11860775
37	0x3d116696	0.035498224
38	0x3ac33519	0.0014893144
39	0x3daf21d4	0.08551374
40	0xbe4e3063	-0.20135646
41	0xbe16ab81	-0.14713861
42	0x3e3eddb8	0.18639266
43	0x3dd13457	0.10215061
44	0x3d8d9b5f	0.069144
45	0x3c3e34d0	0.011609271
46	0xbd1534e8	-0.03642741
47	0x3d51d2fc	0.0512266
48	0x3e19bf19	0.15014304
49	0xbdb6037f	-0.088873856
50	0x3d071cbc	0.032986388
51	0xbe2e0594	-0.16994315
52	0xbde53d81	-0.111933716
53	0xbd3e9210	-0.046526015
54	0x3ccc1660	0.024913013
55	0xbdfcafd0	-0.12338221
56	0x3e026623	0.12734275
57	0x3e06e847	0.13174544
58	0x3dff418c	0.12463674
59	0x3d483ff4	0.048889115
60	0xbd2f44e8	-0.042790323
61	0x3da5567b	0.080731355
62	0xbdc41f04	-0.09576228
63	0x3d373648	0.0447295
64	0xbe3db242	-0.18525031
65	0x3ba5c385	0.005058708
66	0xbd0a9c00	-0.03384018
67	0xbe2f88a6	-0.17141971
68	0xbe00533a	-0.12531748
69	0x3e369192	0.17828968
70	0x3d646be1	0.055766944
71	0x3ddf07ba	0.108901456
72	0xbde387d2	-0.1110989
73	0x3e192fe5	0.14959677
74	0xbdee47f4	-0.11634818
75	0xbe4be3c2	-0.19911101
76	0xbddc8da9	-0.10769207
77	0x3db7b7fb	0.08970638
78	0x3dd2e4bb	0.10297533
79	0x3e09dffd	0.13464351
80	0x3d77cbb6	0.06049701
81	0xbdb0a2dc	-0.08624813
82	0x3d220cd4	0.039563015
83	0x3dc5dce7	0.096612744
84	0x3e09b2ee	0.13447163
85	0x3e389f07	0.18029414
86	0xbdcf58da	-0.10124369
87	0x3d94993f	0.07255792
88	0x3da95d3d	0.08269737
89	0x3dce4fe5	0.100738324
90	0xbd9edb02	-0.07756616
91	0x3d338f67	0.04383793
92	0xb9d32662	-0.00040273654
93	0x3e37ef11	0.1796229
94	0xbd96c7fa	-0.07362361
95	0xbe3ef9c3	-0.18649964
96	0xba62e0eb	-0.0008654731
97	0x3d92d739	0.07169957
98	0xba9c5be8	-0.0011929246
99	0x3e18c055	0.14917119
100	0x3ce2cc30	0.027685255
101	0xbd1dd795	-0.038535673
102	0xbd84f748	-0.06492478
103	0x3d375d10	0.044766486
104	0xbe3db4f7	-0.18526064
105	0xbc01bdf0	-0.00791882
106	0xbe0856b0	-0.13314319
107	0x3d7ac620	0.061224103
108	0x3dda3776	0.106551096
109	0x3db62332	0.08893432
110	0xbdec416d	-0.115359165
111	0xbe1e8603	-0.15480809
112	0xbd9d18b8	-0.0767073
113	0x3e3984e1	0.18117096
114	0x3e20037d	0.1562633
115	0x3d3a891a	0.045540906
116	0x3e2c92b7	0.16852842
117	0x3d64e96c	0.05588667
118	0x3cc67f83	0.024230724
119	0xbda67caa	-0.081292465
120	0x3d28f523	0.041249406
121	0x3b7d0c12	0.003861193
122	0x3bda285d	0.0066576437
123	0xbd4ae357	-0.049533214
124	0xbdbdb6d3	-0.092633866
125	0xbc0f92b7	-0.008763007
126	0xbe265bff	-0.16246031
127	0x3dfcb271	0.123387225
128	0x3e1b7025	0.15179498
129	0xbdc2ed43	-0.0951791
130	0xbb33387a	-0.0027346895
131	0x3e3eea59	0.18644084
132	0x3e19fa26	0.1503683
133	0x3df61c87	0.1201716
134	0xbdf035ba	-0.117289975
135	0x3dcb7f09	0.099363394
136	0x3e3ea759	0.18618526
137	0x3d2c36ab	0.042044323
138	0x3daa267b	0.08308121
139	0x3b66807e	0.0035171802
140	0xbce572b3	-0.028008794
141	0x3e1c33e0	0.15254164
142	0x3d2433bb	0.040088397
143	0xbe4bb060	-0.198915
144	0x3b0f648d	0.0021880001
145	0x3e0ecff8	0.13946521
146	0xbcf1ae30	-0.029502004
147	0xbe3fd3c9	-0.18733133
148	0x3cf25cbf	0.02958524
149	0xbe3d3250	-0.18476224
150	0xbe20433a	-0.15650645
151	0xbdaa5514	-0.083170086
152	0xbe3f1737	-0.186612
153	0x3d86f8ce	0.065904245
154	0x3dec2f16	0.115324184
155	0xbd455aec	-0.048182413
156	0x3e2dc501	0.16969682
157	0xbd97d35e	-0.07413362
158	0x3db82723	0.0899184
159	0xbe3649aa	-0.17801538
160	0x3dd6133c	0.104528874
161	0xbd95fec4	-0.07323983
162	0xbd922aa0	-0.07137036
163	0xbdec01b3	-0.115237616
164	0xbe129edf	-0.14318417
165	0x3daa1524	0.083048135
166	0x3e105b29	0.14097275
167	0x3965a756	0.0002190148
168	0xbd97d5b4	-0.074138075
169	0x3dbfcf0a	0.093656614
170	0x3d533428	0.051563412
171	0x3e13606e	0.14392254
172	0x3cf337f3	0.029689765
173	0xbd4f3bec	-0.050594255
174	0xbe1aec82	-0.15129283
175	0xbe4f0eb1	-0.20220448
176	0xbac71716	-0.0015189375
177	0xbe36948e	-0.17830107
178	0x3d5d0156	0.053956352
179	0x3e2b77f4	0.16744977
180	0xbc3b0f7c	-0.011417266
181	0xbd881f7a	-0.06646629
182	0x3d9fdfc5	0.078063525
183	0x3e445305	0.19172294
184	0x3e261a7f	0.16221045
185	0x3dd3f55f	0.10349535
186	0xbe2efc82	-0.17088512
187	0xbda69d94	-0.081355244
188	0xbe4924ac	-0.19642895
189	0xbc91c680	-0.017794847
190	0xbcd0a038	-0.025467023
191	0xbe0dc797	-0.13845669
192	0x3d7d9674	0.06191106
193	0x3e0cebb7	0.13761793
194	0x3df068be	0.11738728
195	0x3d8f1132	0.069857016
196	0x3d32dd8f	0.043668326
197	0xbd20d30c	-0.03926377
198	0xbd8ec1ee	-0.06970583
199	0x3e361607	0.1778184
200	0xbe0df098	-0.1386131
201	0xbc61d475	-0.013783564
202	0xbe4a60c5	-0.19763477
203	0xbe1c711f	-0.15277527
204	0xbd8bc1ac	-0.06824049
205	0x3e023a41	0.12717535
206	0x3dd2e5a2	0.10297705
207	0xbddc1e04	-0.107479125
208	0x3d0135de	0.031545512
209	0x39f5d66e	0.00046889804
210	0x3d7ebe49	0.06219319
211	0x3e23c6ef	0.15993856
212	0x3e2e6260	0.17029715
213	0x3bc9afd7	0.006154995
214	0x3c84b4a1	0.016199412
215	0xbc69abd0	-0.014262155
216	0xbe4fc586	-0.20290193
217	0xba119035	-0.00055527996
218	0xbd6690e0	-0.056290507
219	0x3bbe4663	0.0058067306
220	0x3e2f4de3	0.17119555
221	0xbd913ed0	-0.07092059
222	0x3dfabc11	0.12242902
223	0xbe33785e	-0.17526385
224	0x3dd273d0	0.10275996
225	0xbc886480	-0.016649485
226	0xbcf4d6f5	-0.029887656
227	0xbdab2774	-0.083571345
228	0xbd8d9c14	-0.06914535
229	0x3d2876c4	0.04112889
230	0xbe034450	-0.12819028
231	0x3e0335fa	0.12813559
232	0x3e37e5fb	0.17958824
233	0x3e00d1ae	0.12579986
234	0xbd977928	-0.073961556
235	0x3e1d2e53	0.15349703
236	0x3e2cb406	0.16865548
237	0x3e180a49	0.14847673
238	0xbe298b64	-0.1655708
239	0xbe16dac6	-0.14731893
240	0xbad58f89	-0.0016293387
241	0xbe287a7d	-0.16452976
242	0x3da763d0	0.081733346
243	0x3d561658	0.052267402
244	0xbcbdfdda	-0.023192335
245	0xbe21beab	-0.1579539
246	0x3daf5272	0.08560647
247	0xbc42cb1c	-0.011889245
248	0x3dfd44ec	0.123666614
249	0xbe29fb38	-0.16599739
250	0xbddf9adb	-0.10918208
251	0xbe41197e	-0.18857381
252	0x3e30214c	0.17200202
253	0x3dfe6f3a	0.124235585
254	0xbd7b7120	-0.06138718
255	0x3d72a84b	0.059242528

fc2.weight f4 [256, 514]
0	0xbb6da4b7	-0.0036261508
1	0x3d00fcbd	0.03149103
2	0xb9bb6c65	-0.0003574818
3	0x3c55da73	0.013052571
4	0x3c828168	0.015930846
5	0x3d5cea35	0.053934295
6	0x3d37b0fb	0.044846516
7	0xbcd92ab4	-0.02650962
8	0x3b490eb3	0.0030678927
9	0x3cc5d931	0.024151416
10	0x3d0ad88a	0.033897914
11	0x3b926855	0.0044680038
12	0xbd0b0a1e	-0.033945195
13	0xbd5a9a70	-0.05336994
14	0xbb8f3f20	-0.0043715388
15	0x3d281610	0.041036665
16	0x3d7dbdfa	0.061948754
17	0x3ca5e0bc	0.020248763
18	0xbcaca288	-0.021073595
19	0xbd857a59	-0.065174766
20	0xbd10d9fa	-0.03536413
21	0xbc6ec363	-0.014572951
22	0x3c98dd57	0.01866023
23	0xbd4b3f87	-0.04962113
24	0xbd2ad93d	-0.04171108
25	0xbd819183	-0.06326582
26	0x3cdeddf4	0.027205445
27	0x3c8cbe45	0.017180571
28	0x3d10c97d	0.035348404
29	0xbd2e6aec	-0.042582437
30	0xbd10949a	-0.035297967
31	0xbd0b7710	-0.034049094
32	0x3c3d3c9a	0.011550093
33	0xbca2aed7	-0.01985876
34	0x3d535954	0.05159886
35	0x3d49b8bb	0.04924844
36	0xbd1967fe	-0.03745269
37	0xbcb45e5c	-0.02201765
38	0x3c8e98c2	0.017406825
39	0xbd5c4d34	-0.053784564
40	0x3c81f4bc	0.015863769
41	0xbd085956	-0.033288322
42	0xbb0c16ac	-0.0021375818
43	0xb9ebf4dd	-0.0004500513
44	0x3d129f93	0.035796713
45	0xbcce703e	-0.025200006
46	0xbd5171c4	-0.051133886
47	0x3c59b658	0.013288103
48	0xbd6d1a7a	-0.05788658
49	0xbc50c060	-0.012741178
50	0xbcce800f	-0.025207547
51	0x3c662ae8	0.014048316
52	0x3cd8294c	0.02638688
53	0xbbfd8820	-0.0077371746
54	0xbd0609b1	-0.032724086
55	0x3cd0b9a8	0.025479153
56	0xbcea49d7	-0.028599663
57	0x3c9e36ed	0.0193133
58	0xbcdd54fe	-0.027018066
59	0xbd3b7efa	-0.04577539
60	0x3d31584e	0.043297105
61	0x3c41bb9c	0.011824515
62	0x3d61f1d4	0.055162266
63	0xbd309a5c	-0.04311596
64	0xbd18e3f6	-0.037326775
65	0xbc2d0f53	-0.010562736
66	0xbd0d327c	-0.034471974
67	0x3d302dfe	0.04301261
68	0xbd7bc608	-0.061468154
69	0x3c74fcd5	0.014952858
70	0x3d491f96	0.04910239
71	0x3c20d0f7	0.009815446
72	0xbc1c5fe0	-0.009544343
73	0xbd36d8e8	-0.04464045
74	0xbd7ae17e	-0.061250202
75	0x3d40340a	0.04692463
76	0x3d7bffd0	0.06152326
77	0x3c256a45	0.010096137
78	0xbd49417e	-0.049134724
79	0xbd5dc623	-0.054144036
80	0xbd0dd52d	-0.03462713
81	0xbc881be0	-0.016614854
82	0x3d40a78d	0.04703479
83	0x3cad39f9	0.021145808
84	0xbc3e0057	-0.011596761
85	0x3d20805e	0.03918492
86	0x3d7b2b8a	0.06132082
87	0xbc9d5838	-0.019207105
88	0xbd0e6149	-0.034760747
89	0x3d2dbece	0.042418294
90	0x3d3749b0	0.04474801
91	0xbcecc451	-0.028902205
92	0xbd704000	-0.058654785
93	0x3d26d582	0.04073096
94	0x3c758468	0.014985181
95	0x3d7159d4	0.058923557
96	0xbd55a1e2	-0.052156337
97	0x3c275d5f	0.0102151325
98	0x3b996c15	0.004682074
99	0xbc859c1f	-0.016309796
100	0x3bc0c708	0.0058831014
101	0xbbf0a9b9	-0.0073444513
102	0xbd6f6622	-0.05844701
103	0xbd8318a4	-0.06401184
104	0xbd3629ea	-0.044473566
105	0xbd35bb4a	-0.044368066
106	0x3b9389c0	0.004502505
107	0xbcbd9dc5	-0.02314652
108	0x3d5c835e	0.05383622
109	0x3d6a489c	0.057198152
110	0x3d0bde64	0.034147635
111	0xbd1c8218	-0.038210005
112	0xba721500	-0.00092346966
113	0x3d2c149c	0.042011842
114	0x3ba3d5fb	0.0049998737
115	0xbd4f9754	-0.050681427
116	0x3d5b34cc	0.053517148
117	0xbd6ff127	-0.05857959
118	0x3d293cf8	0.04131791
119	0x3c4afd68	0.012389518
120	0x3d180127	0.037110474
121	0xbd10ae68	-0.035322577
122	0xbd71a0e3	-0.058991324
123	0xbc41dfed	-0.011833173
124	0x3c22af10	0.009929433
125	0x3b0e4032	0.0021705744
126	0xbd3471d0	-0.044053853
127	0x3d03cb0f	0.032176074
128	0x3a41e73b	0.0007396822
129	0xbb05e960	-0.0020433292
130	0xbca8b0a3	-0.02059204
131	0x3c28e3e1	0.010308237
132	0x3c1cf87a	0.009580726
133	0xbc782cb7	-0.01514738
134	0xbc8fce18	-0.017554328
135	0x3cd6d382	0.026223902
136	0xbd400904	-0.046883598
137	0xbd50fa5d	-0.051020015
138	0x3c13343d	0.008984623
139	0xbd6ffbff	-0.05858993
140	0x3d2b48b5	0.041817386
141	0xbd627702	-0.055289276
142	0xbd3797d4	-0.04482253
143	0xbd34749a	-0.044056512
144	0x3b84cab2	0.0040524835
145	0xbd1d02d3	-0.03833277
146	0x3d74fe74	0.059812978
147	0xbd4094b2	-0.047016807
148	0x38e13fd9	0.000107407286
149	0x3d5fba4a	0.05462102
150	0xbd4b3cb2	-0.04961843
151	0xbd588a32	-0.05286617
152	0xbd4136fe	-0.047171585
153	0x3ceec468	0.029146388
154	0xbc489bba	-0.012244159
155	0x3ca9cf1c	0.02072864
156	0x3d54b807	0.051933315
157	0xbd798d5c	-0.060925826
158	0xbc492b1d	-0.012278345
159	0xbb199ba0	-0.0023438707
160	0xbd0adc5d	-0.03390156
161	0x3d3cbafc	0.04607676
162	0xbd774706	-0.060370468
163	0xbd7cf534	-0.06175728
164	0x3d3b4262	0.045717604
165	0xbd1407ce	-0.036140256
166	0x3c32273d	0.010873613
167	0xbd0d9ee3	-0.034575354
168	0x3cad1184	0.021126516
169	0xbd029598	-0.031880945
170	0x3c49905a	0.0123024825
171	0xbc9e7aa0	-0.019345582
172	0xbcf9b033	-0.030479526
173	0x3d49bc60	0.049251914
174	0xba4a8f80	-0.00077270716
175	0x3c77c068	0.015121557
176	0xbcd51535	-0.026011089
177	0x3d55e558	0.052220672
178	0xbc131517	-0.008977196
179	0xbc842b52	-0.016133938
180	0x3d4d73e3	0.050159346
181	0xbc9a1680	-0.018809557
182	0x3d03ef2c	0.032210514
183	0x3d514c5f	0.051098224
184	0xbac6ebe0	-0.0015176497
185	0xbd239ae9	-0.039942656
186	0xbc9524e0	-0.01820606
187	0xbc46c4a0	-0.01213184
188	0x3d087f4c	0.033324525
189	0x3cc5f4b4	0.024164535
190	0xbcb4b608	-0.022059456
191	0xbccd8b84	-0.02509094
192	0xbd829672	-0.063763514
193	0x3c1af1d1	0.009457068
194	0xbbd19fdb	-0.00639723
195	0xbd63bd0d	-0.055600215
196	0xbd5d087d	-0.053963173
197	0x3d4a4916	0.049386106
198	0xbd6f2714	-0.058386877
199	0xbc84a2da	-0.016190935
200	0x3bf4cac0	0.0074704587
201	0x3a4efd90	0.000789606
202	0x3b24dac0	0.00251548
203	0x3d780a80	0.06055689
204	0xbd545290	-0.05183655
205	0x3c635be1	0.013876886
206	0x3c7ec114	0.015548963
207	0x3cd66764	0.026172347
208	0x3d0bb944	0.03411223
209	0x3bae7853	0.0053244024
210	0xbc519eb4	-0.012794185
211	0x3c3a0c5b	0.011355485
212	0x3cd50d54	0.026007332
213	0xbcd1b207	-0.025597585
214	0xbd2696da	-0.040671207
215	0x3d446586	0.047948383
216	0xbc088058	-0.008331381
217	0x3bba1222	0.005678431
218	0xbcd1176c	-0.025523864
219	0x3ccb9626	0.02485187
220	0xba97ac4a	-0.0011571732
221	0x3cc4c994	0.024021901
222	0xbc441193	-0.011967081
223	0xbd1a1788	-0.037620097
224	0x3d371b87	0.044703986
225	0x3d3b27ac	0.04569213
226	0xbd42588a	-0.04744772
227	0x3d1e4ac2	0.038645513
228	0xbd655d16	-0.055996977
229	0x3cf54dcf	0.029944329
230	0xbd4229e0	-0.047403216
231	0xbc5f0b37	-0.013613514
232	0xbd4f28ef	-0.050576147
233	0x3d6053f7	0.054767575
234	0x3d68769a	0.056753732
235	0x3d342c4f	0.04398757
236	0xbc229be0	-0.009924859
237	0xbcb4b2fa	-0.022057999
238	0x3d52a8de	0.051430576
239	0xbd4c84da	-0.049931385
240	0xbd37b8d7	-0.04485401
241	0xbc2ce770	-0.010553226
242	0xbd1b2dd1	-0.03788549
243	0xbd7d5fb4	-0.061858848
244	0x3c966d40	0.018362641
245	0xbd0db33a	-0.034594752
246	0x3892ca7c	6.999538e-05
247	0x3c3b2bb1	0.011423991
248	0xbcd60eb4	-0.026130058
249	0x3c095c48	0.008383818
250	0xbce65a30	-0.028119177
251	0x3c0cb548	0.008588143
252	0x3cc05c92	0.023481641
253	0xbc9cf820	-0.019161284
254	0x3c1747a8	0.009233393
255	0x3d470fb9	0.04859898

fc2.bias f4 [256]
0	0xbc3c5a9e	-0.011496214
1	0xbc4c4ba8	-0.01246921
2	0xbd3d4e3d	-0.046217192
3	0x3ca6911a	0.020332862
4	0xbb95a9ce	-0.0045673614
5	0xbce9e1a5	-0.028549979
6	0xba57de2f	-0.0008234707
7	0xbd3ecb66	-0.046580695
8	0xbd2e195d	-0.042504657
9	0xbd2a158c	-0.041524455
10	0xbd390cde	-0.045178287
11	0x3c80258a	0.0156429
12	0x3c1f4600	0.009721279
13	0x3c008d9e	0.007846264
14	0x3c23fe52	0.010009365
15	0x3ba1ceeb	0.0049379966
16	0xbca3ff88	-0.020019308
17	0x3b8aca38	0.004235532
18	0x3c2c561c	0.010518577
19	0xbb900388	-0.004394952
20	0x3cd2e1a2	0.025742356
21	0xbc1695ac	-0.009190958
22	0x3cbd5d6e	0.02311584
23	0x3cefc67f	0.029269455
24	0x3c60e655	0.01372679
25	0xbd3cea92	-0.04612214
26	0xbc4b4636	-0.012406876
27	0xbade7a29	-0.0016973662
28	0x3b77cb5a	0.0037810416
29	0xbcac5443	-0.021036273
30	0x3cee0f0a	0.029059906
31	0xbbf5ca89	-0.0075009507
32	0xbd361975	-0.04445787
33	0x3ab145fc	0.0013524885
34	0x3c07c91f	0.008287697
35	0xbbdd60db	-0.006755931
36	0xbbe29c9e	-0.006915643
37	0xbc3d326d	-0.011547667
38	0xbd2e11ef	-0.04249757
39	0x3adf8305	0.0017052597
40	0xbb4c728c	-0.0031196205
41	0xbb8ac40f	-0.004234798
42	0x3a9f84f0	0.0012170356
43	0xbcf32ee0	-0.029685438
44	0x3cc77ab7	0.024350507
45	0x3c1ae3c7	0.00945372
46	0xbc3f1ca5	-0.011664544
47	0xbb7eb786	-0.0038866713
48	0xbd2ef491	-0.042713705
49	0xbccdd0de	-0.02512401
50	0x3cb1d551	0.021708163
51	0x3d0fedda	0.035138942
52	0x3ce1b765	0.02755327
53	0xbd3365f8	-0.043798417
54	0xbd3c700d	-0.046005297
55	0x3be35a90	0.006938286
56	0x3cd28e38	0.02570258
57	0xbce35fea	-0.027755696
58	0xbc7a7043	-0.015285554
59	0x3c8c96dc	0.01716178
60	0xbc49118c	-0.01227225
61	0xbd12b8a8	-0.035820633
62	0x3d08ad06	0.033368133
63	0xbd3b31b7	-0.04570171
64	0x3c9dc5d4	0.01925937
65	0xbd345f62	-0.044036277
66	0xbd407518	-0.04698667
67	0x3d0ec71f	0.034857865
68	0x3b494222	0.0030709584
69	0xbcc2026d	-0.023682797
70	0x3c2f06fd	0.0106828185
71	0xbd1a5274	-0.03767629
72	0x3cc89f40	0.024489999
73	0x3afccd97	0.0019287345
74	0xbcf6dbfe	-0.030134197
75	0xbd2d505c	-0.042312965
76	0xbd029018	-0.0318757
77	0x3c2bc934	0.010484982
78	0x3c61dde3	0.013785812
79	0x3c7f8f16	0.015598079
80	0x3bcc73dc	0.0062393975
81	0x3b2795da	0.0025571496
82	0xbc8b5192	-0.01700667
83	0xbbf682ad	-0.007522902
84	0x3cdfabef	0.027303664
85	0xbd001eb3	-0.031279277
86	0x3c74bf38	0.014938168
87	0xbd0a34af	-0.03374165
88	0x3cb047c8	0.021518603
89	0xbc32163c	-0.010869559
90	0xbd26fb3b	-0.040766936
91	0x3c39b229	0.011333981
92	0xbcc287c2	-0.023746375
93	0xbc562459	-0.013070189
94	0xbd19f2e4	-0.037585154
95	0x3c8061e5	0.01567168
96	0x3c052e3f	0.008128702
97	0x3cba9bca	0.022779364
98	0xbb339d70	-0.0027407072
99	0x3c4e9280	0.0126081705
100	0xbd0a0e1b	-0.03370486
101	0xbcbeaad7	-0.023274822
102	0x3cf71a10	0.030163795
103	0xbd32616b	-0.043549936
104	0x3ce4d74f	0.027934698
105	0xbca03850	-0.019558102
106	0x3d162df3	0.036664914
107	0x39d13357	0.00039901838
108	0xbcf3a59e	-0.029742058
109	0x3d0c344f	0.034229573
110	0xbbd0cdd0	-0.006372191
111	0x3cefdbb6	0.029279571
112	0xbd2386c7	-0.039923456
113	0xbc0badee	-0.008525355
114	0x3cd2801a	0.02569585
115	0x3c9d0fa9	0.019172506
116	0xbbf9786a	-0.0076132314
117	0x3c201087	0.009769565
118	0x3c7ae636	0.015313676
119	0xbd3b5ade	-0.045740955
120	0xbc89bb68	-0.016812995
121	0x3c84a64f	0.016192583
122	0x3ce4e0b3	0.027939176
123	0x3d09ddd6	0.033658825
124	0xbc93af27	-0.018027855
125	0xbcacc8c0	-0.021091819
126	0x3d193c93	0.037411284
127	0xbc0070c4	-0.007839385
128	0xbcb466a2	-0.022021595
129	0xbce67ef5	-0.02813671
130	0x3cd1f22f	0.025628177
131	0x3ca70624	0.02038867
132	0x3d190cdf	0.03736579
133	0x3cb6f66e	0.022334304
134	0xbb0bcf10	-0.0021333136
135	0x3c659c42	0.014014306
136	0xbc3196c6	-0.01083917
137	0x3cfc4a89	0.03079726
138	0xbd1c38f7	-0.038140263
139	0xbd38fa89	-0.045160804
140	0x3bfa0cec	0.007630935
141	0xbd0a419d	-0.03375398
142	0x3cd704ce	0.026247408
143	0x3b56fbb1	0.0032803828
144	0xbd187a37	-0.03722593
145	0x3c505bb1	0.012717173
146	0xbd1926bf	-0.037390467
147	0x3bd733a4	0.0065674353
148	0x3c2185b1	0.009858535
149	0xbc955fb3	-0.01823411
150	0xbd2354a9	-0.03987566
151	0xbb635980	-0.0034690797
152	0x3913ecdc	0.0001410725
153	0x3c7cd34c	0.0154312365
154	0x3c966bb2	0.0183619
155	0xbcdfd142	-0.027321462
156	0x3c5b3ce8	0.01338122
157	0xbc922bc9	-0.017843144
158	0x3cebdd59	0.02879207
159	0x3bbf8e53	0.005845824
160	0x3cccf468	0.025018886
161	0xb91e0d00	-0.00015072897
162	0x3d0fb1c5	0.035081644
163	0x3cd995ad	0.026560629
164	0x3c6c252a	0.0144131575
165	0xbc29be44	-0.010360304
166	0x3c04fce4	0.008116934
167	0xbbf5faf9	-0.007506725
168	0x3c9411f9	0.018074976
169	0x3cd52121	0.026016774
170	0x3c81acda	0.015829492
171	0xbd36473b	-0.044501524
172	0xbd1e485b	-0.038643222
173	0xbb4031f4	-0.002932665
174	0xbcc5faea	-0.024167497
175	0x3cb18dc6	0.021674048
176	0x3cfd6683	0.03093267
177	0xbbeb3b38	-0.0071786903
178	0xbcafe646	-0.021472108
179	0x3cc5fbf2	0.024167988
180	0xbccef198	-0.025261685
181	0xbcc6f8e1	-0.024288597
182	0xbc8841b1	-0.016632887
183	0x3c1d6cdc	0.009608474
184	0x38efdd10	0.00011437584
185	0x3cda0af0	0.026616544
186	0xbca41d3f	-0.020033477
187	0xbcd8970b	-0.02643921
188	0xbcb04561	-0.021517457
189	0x3a964f55	0.0011467735
190	0x3b724af6	0.003697095
191	0x3b789846	0.003793256
192	0xbd2d18b9	-0.042259905
193	0xbba80818	-0.005127918
194	0x3cbcb341	0.023034694
195	0xba93f4ea	-0.00112882
196	0xbcba50c9	-0.0227436
197	0xbd20ed3c	-0.039288744
198	0xbcea4c09	-0.02860071
199	0x3c533146	0.012890166
200	0xbd08a378	-0.03335902
201	0xbccd10a8	-0.025032356
202	0xbd09a42c	-0.033603832
203	0x3d1a25c1	0.03763366
204	0xbc679e08	-0.014136799
205	0x3ca2db60	0.019879997
206	0xbc492b52	-0.012278395
207	0xbcfec142	-0.031098012
208	0xbd183f5a	-0.03716979
209	0x3c4b90a3	0.012424621
210	0xbcc9e4c2	-0.024645213
211	0xbc00f795	-0.007871528
212	0x3d015f91	0.03158528
213	0x3d1d849d	0.038456548
214	0x3cccafae	0.024986114
215	0x3d111c90	0.03542763
216	0x3cbc1bd4	0.022962488
217	0x3c88546b	0.016641816
218	0xbcf6e713	-0.030139482
219	0x3cd81a3b	0.026379695
220	0xbd09a562	-0.033604987
221	0x3d13219c	0.035920724
222	0x3c551220	0.01300481
223	0xbcd3e781	-0.025867226
224	0xbd34de7f	-0.0441575
225	0x3cbcec06	0.023061763
226	0xbbe88df8	-0.007097002
227	0x3d0b94cd	0.034077454
228	0x3c26c07e	0.01017773
229	0xbbbd1b7e	-0.0057710996
230	0xbc802cc0	-0.015646338
231	0xbd0ad52e	-0.03389471
232	0xbd36e792	-0.044654436
233	0x3cb68da4	0.022284336
234	0x3bd4a305	0.00648916
235	0xbaf38355	-0.0018578569
236	0xbba79c5e	-0.005115076
237	0xbcf1c100	-0.029510975
238	0xbc632951	-0.013864831
239	0xbbcccd87	-0.0062500867
240	0x3ca88f5a	0.020576168
241	0xbc654042	-0.013992371
242	0xbcb576ab	-0.022151312
243	0x3b291162	0.0025797714
244	0xbd294c18	-0.041332334
245	0xbcc5a231	-0.02412519
246	0x3c6b1c59	0.01435002
247	0x3cb3d014	0.021949805
248	0xbd2803f4	-0.041019395
249	0x3bb65a0a	0.0055649327
250	0xbd048d28	-0.03236118
251	0x3d0b56fd	0.034018505
252	0x3ce9759f	0.028498469
253	0xbcbc850b	-0.023012659
254	0xbc578e47	-0.01315648
255	0x3ca69d13	0.02033857

fc3.weight f4 [1, 256]
0	0xb9f6ca9c	-0.00047071732
1	0xbb4c00f7	-0.0031128505
2	0xb9d241a8	-0.0004010324
3	0x3b8dc684	0.0043266434
4	0x3a7bf27e	0.0009611024
5	0xbcae6acd	-0.021291161
6	0xbad48319	-0.0016213387
7	0xba459cef	-0.00075383385
8	0xbaf93538	-0.0019013053
9	0x39627a01	0.0002159849
10	0xbce2055c	-0.027590446
11	0x3a24f3e1	0.00062924443
12	0xbb661ef0	-0.0035113655
13	0xb7a3d1ac	-1.952875e-05
14	0x3bcad62d	0.0061900825
15	0x3ba04a85	0.004891696
16	0xb99c77b5	-0.00029843827
17	0xba730a90	-0.0009271288
18	0xbacac556	-0.0015470188
19	0xbcb8c876	-0.022556525
20	0x3940ddb6	0.0001839314
21	0x3c82ee13	0.015982663
22	0x3b2f676f	0.0026764532
23	0x3ae6d0d7	0.0017609847
24	0xbb98ae98	-0.004659485
25	0x3c85dab1	0.016339632
26	0x39a003ad	0.00030520317
27	0xba001ba2	-0.000488693
28	0x3a942125	0.0011301382
29	0xbc46869d	-0.012117055
30	0x3c5639cd	0.013075304
31	0xba4939a9	-0.00076761335
32	0x3ba38af8	0.0049909316
33	0x3c4c8d04	0.012484793
34	0xbc5e2019	-0.013557457
35	0x3892f2ab	7.007023e-05
36	0x3afc1755	0.0019233028
37	0xbb5bf734	-0.0033564093
38	0x3ac76007	0.0015211113
39	0xbbe5bb2e	-0.007010839
40	0xbc4fd1b8	-0.012684278
41	0xbb3b387a	-0.0028567598
42	0x3b717dd1	0.0036848674
43	0xbb117170	-0.0022192858
44	0x3aa5dd01	0.0012654365
45	0x3b96c242	0.004600794
46	0xbb867835	-0.0041036853
47	0x3a84472c	0.0010092012
48	0xbb859ed6	-0.0040777726
49	0xba24668c	-0.0006271384
50	0x380541f9	3.1771113e-05
51	0x39b6329a	0.00034751446
52	0xba12f33f	-0.00056057045
53	0xbc79307b	-0.015209313
54	0x3be18b13	0.006883034
55	0xbc16a4ac	-0.009194534
56	0xbb271535	-0.0025494818
57	0x3b4167f5	0.0029511426
58	0x3a61423c	0.00085929385
59	0x3aa97856	0.001292954
60	0xba896c42	-0.0010484534
61	0xb9bff95c	-0.00036616146
62	0x3a02b3f4	0.00049859216
63	0xba24e399	-0.0006290018
64	0xba8683f0	-0.0010262709
65	0xbc8bf1c4	-0.017083056
66	0xba5eefb8	-0.0008504349
67	0x3ad68aa9	0.0016368228
68	0x3bc6aa2d	0.006062767
69	0xbad68e95	-0.0016369397
70	0x3ace9100	0.0015759766
71	0xbadf7fbd	-0.0017051619
72	0xbb9dd708	-0.0048168935
73	0x3c5a97e1	0.013341875
74	0xbb187030	-0.0023260228
75	0xba71fa11	-0.0009230683
76	0x3b82362f	0.0039737443
77	0x3a233cc5	0.0006227012
78	0x3b1c6b95	0.0023867835
79	0xba03f588	-0.00050338404
80	0x3945077a	0.00018790169
81	0xbca47490	-0.020075113
82	0x3980280d	0.00024443903
83	0x3c3f5943	0.0116789965
84	0x3ac5b4ce	0.0015083791
85	0xbca15689	-0.019694583
86	0x3c0062cd	0.007836056
87	0xbc4d77c6	-0.012540763
88	0xbb3e7499	-0.0029061197
89	0x3b386492	0.0028136116
90	0x3addc874	0.0016920702
91	0xbb95c991	-0.0045711477
92	0x3a2d16a3	0.00066027994
93	0xbb8661f5	-0.004101033
94	0xb9397ac0	-0.00017688703
95	0xbb98a534	-0.0046583656
96	0xbb0b9910	-0.002130095
97	0xbb0c15f1	-0.0021375383
98	0xbc51a0f6	-0.012794724
99	0x39a25138	0.0003095956
100	0xbb7f99c6	-0.0039001568
101	0x3a8c080c	0.001068355
102	0xbbf250cc	-0.0073948856
103	0x3b2bbe1b	0.002620584
104	0xbc25162c	-0.010076087
105	0x3a08c892	0.00052178756
106	0x3babc69a	0.005242181
107	0x389bbd48	7.426232e-05
108	0x3ad98d40	0.0016597882
109	0x3a004d13	0.00048942975
110	0x3abae888	0.0014259974
111	0x3adf58e3	0.001704004
112	0x3b131521	0.0022443014
113	0x39b44376	0.00034382538
114	0x3b317833	0.00270797
115	0xbb596d25	-0.0033176627
116	0x3b0a8195	0.0021134366
117	0xba97ca05	-0.0011580592
118	0x3a87eae7	0.0010369689
119	0xbab02299	-0.0013438045
120	0x39c677e9	0.00037854843
121	0x3a8e725f	0.0010867825
122	0xbb70de79	-0.0036753698
123	0x3c1c3db9	0.0095362
124	0xb9c3dd18	-0.00037358026
125	0xbbcabb7f	-0.006186902
126	0x3b050c60	0.0020301566
127	0x38abd38a	8.1933176e-05
128	0xb96bd3d5	-0.0002249026
129	0x3a5fbac0	0.0008534603
130	0x3a395150	0.00070693064
131	0x39d79030	0.00041115424
132	0x3a42e028	0.00074339146
133	0x396f341c	0.00022812228
134	0xbb2b2d22	-0.002611943
135	0xbc351606	-0.011052614
136	0xbc04f381	-0.0081146965
137	0xb9d5ad9f	-0.00040755884
138	0x396a4e40	0.0002234513
139	0xbb05bd5c	-0.0020407056
140	0xbc2f3c77	-0.010695568
141	0x39df8844	0.000426354
142	0x3c4bf058	0.012447439
143	0x3b648c58	0.003487369
144	0xbb64d268	-0.003491545
145	0x3c0227e2	0.007944079
146	0xbcd43e1b	-0.02590852
147	0x3b0ab448	0.0021164585
148	0xbc0abefd	-0.008468387
149	0xbc039ec4	-0.008033458
150	0x3c16548a	0.009175429
151	0xbb35248e	-0.0027640196
152	0xbc525738	-0.012838177
153	0xba1d56b6	-0.00060019956
154	0x3b42e4d8	0.0029738452
155	0xba45e1d7	-0.00075486064
156	0x3b31400a	0.0027046227
157	0x3a180484	0.0005799013
158	0xb81af13c	-3.694113e-05
159	0xbae9f602	-0.0017849805
160	0x3a365b46	0.000695635
161	0xbb7ff53b	-0.003905608
162	0xb9532c59	-0.00020139049
163	0xbcafcb3c	-0.021459214
164	0xbb5f3a76	-0.0034061945
165	0x3b2e2640	0.0026573092
166	0xbb209d46	-0.0024507805
167	0xbb142792	-0.0022606594
168	0xbc025e9a	-0.007957125
169	0x39267a26	0.00015876497
170	0xbc65f7b8	-0.0140361115
171	0xb7653b45	-1.3663263e-05
172	0x3a86a934	0.0010273815
173	0xbc1321fd	-0.008980271
174	0xba612528	-0.00085886056
175	0xbb3268c4	-0.002722309
176	0x3a186c0a	0.0005814439
177	0x3abd660c	0.0014449968
178	0xb9bdc7d7	-0.0003619778
179	0x3bdd6a08	0.0067570247
180	0xbc5a213a	-0.013313586
181	0x3aa39247	0.0012479507
182	0x3ba3ee0a	0.0050027417
183	0x3b8c6c56	0.0042853756
184	0xbc14a25a	-0.009071911
185	0x3b99d9db	0.00469516
186	0xbb187b7d	-0.0023266964
187	0xba36c0b3	-0.00069714634
188	0xbcbeecaf	-0.023306219
189	0x3aad78f9	0.0013234905
190	0x3aa684b3	0.0012704342
191	0x3b8ac29a	0.004234624
192	0xbbda886e	-0.0066690957
193	0xbb17afb6	-0.0023145503
194	0x3b2ccdd2	0.0026367796
195	0xbccdbf1c	-0.025115542
196	0xbbaa620f	-0.005199678
197	0x3b506f54	0.0031804638
198	0x3a7cc0b0	0.000964175
199	0x39ef9264	0.00045694702
200	0x3b840c06	0.0040297536
201	0xbb6514de	-0.0034955065
202	0x3b0f7250	0.0021888204
203	0x3b90c941	0.0044185226
204	0x3b639e4a	0.0034731799
205	0xbb33320d	-0.0027343065
206	0x3b2f6e1b	0.0026768509
207	0xb76f2700	-1.42545905e-05
208	0x3a615f10	0.0008597234
209	0x39b927e1	0.00035315662
210	0xba8858e6	-0.001040247
211	0xb9a2b525	-0.0003103401
212	0x3bb1c3bb	0.005424944
213	0xba160202	-0.0005722345
214	0xbc07fe3e	-0.008300362
215	0xb9883df0	-0.00025986088
216	0xb9e7c6b2	-0.00044207793
217	0xbbdbd502	-0.006708742
218	0x38768095	5.877072e-05
219	0xbc03ecba	-0.0080520455
220	0x3a134480	0.0005617812
221	0x39a2f000	0.00031077862
222	0xbc169d66	-0.0091928
223	0x3a23b53e	0.0006244964
224	0xbb1589a2	-0.0022817631
225	0xbb439219	-0.002984172
226	0x3b19a934	0.00234468
227	0xbad17c4a	-0.0015982476
228	0x3b65de35	0.0035075073
229	0xbaa4e396	-0.0012580033
230	0x3aec7710	0.0018040854
231	0xba7d066c	-0.0009652141
232	0xbb6ce45b	-0.0036146853
233	0xbaa8684e	-0.0012848468
234	0x3a29c2b8	0.0006475854
235	0x38fd91de	0.0001209115
236	0x38c04895	9.168793e-05
237	0xb928a791	-0.00016084152
238	0x3bb5e297	0.0055506933
239	0xbc1fbb66	-0.009749269
240	0x3aade676	0.0013267535
241	0x3a8ebbec	0.0010889745
242	0x39af7d20	0.00033471826
243	0x395cd0c8	0.00021058612
244	0x3a61fc44	0.00086206594
245	0x3a8a4187	0.0010548093
246	0x3a4dce41	0.00078508636
247	0xbaf5a0f9	-0.001873999
248	0x39f3439f	0.00046398953
249	0xbb66b8ed	-0.003520544
250	0xb98458aa	-0.00025243062
251	0xb9184a16	-0.00014523449
252	0xbb698b88	-0.0035636146
253	0xbbf1d153	-0.0073796897
254	0x3b8f3c08	0.00437117
255	0x3962ff04	0.0002164804
