p2_continuous-control/checkpoint_actor.pth (torch_old, 541501 bytes, 6 tensors)

fc1.weight f4 [400, 33]
000000 fd a0 0a 3d db cb 36 3d a3 af 71 bd 25 4b 44 bd
       0.033844937 0.044628005 -0.05900539 -0.047923226
000010 48 e0 f9 3b 75 a6 06 3d 58 4a d0 bc c7 b5 03 3d
       0.0076256134 0.03287359 -0.025426075 0.03215578
000020 ff 85 5b bd ea 6c 5e 3b 0c 0d f1 3a 5a bf a7 3c
       -0.053594586 0.003393943 0.0018390729 0.020476986
000030 49 36 7e bd a8 f2 30 3d 98 79 0e 3c 61 3b ac 3b
       -0.06206349 0.043200165 0.008695982 0.005256102
000040 85 e1 62 bc 97 e0 ac 3c df f0 30 bd 7f f4 07 3d
       -0.013847713 0.021103187 -0.043198463 0.033192154
000050 5b 64 cd bd 28 91 5b 3d 49 57 8f 3d fe d6 3d 3c
       -0.10028907 0.05360523 0.0699907 0.011586903
000060 05 f6 22 bd fd 98 a5 3b 00 7d ee 3d ca 3d 8e bc
       -0.039785404 0.005053638 0.116449356 -0.017363448
000070 c4 60 08 be c3 d1 ab bc ac 8f 2c bd d7 89 f0 bc
       -0.13318163 -0.020974046 -0.042129204 -0.029362602
000080 7a e3 55 3d ad b4 2e bd 75 dc e2 bc 8a 71 cd bc
       0.05221889 -0.042652775 -0.027693013 -0.025078554
000090 4a bd 83 bc b9 3b 0d bc f1 ae 25 3c 97 8f 2b bd
       -0.016081471 -0.008620196 0.01011251 -0.041884985
0000a0 2b d1 81 3d b7 47 18 3d f3 ad 91 3d b3 3d 05 bd
       0.06338724 0.037177768 0.07113256 -0.032529544
0000b0 ad 28 72 39 dd 2d 82 bb 1f eb 3e 3d e9 31 98 bc
       0.00023094071 -0.0039727525 0.046610948 -0.018578487
0000c0 fd 02 4f bd ff 6a fd 3c 02 4e bc 3c 17 0b 13 3d
       -0.05053996 0.030934809 0.022986416 0.035899248
0000d0 f0 24 7b 3d 56 c3 c1 bc df 6a 80 bc d1 fd 0a bb
       0.061314523 -0.023652714 -0.01567596 -0.0021208415
0000e0 fb e2 a6 bb 9f eb 93 bd 80 61 7b 3c 38 ff 0d 3d
       -0.005092976 -0.072226755 0.01534307 0.034667224
0000f0 c7 2c 8a bc c9 1f 8a 3a 35 60 3b bd c9 84 17 3d
       -0.016867055 0.0010538037 -0.045746047 0.03699187
000100 4e 2a 10 bd 74 44 74 3e 01 41 16 3d 31 2b 8b 3b
       -0.035196595 0.23854238 0.036683086 0.004247092
000110 b9 fc 03 bd 5e 90 1e 3d 1c dc 1d bb b6 96 32 bd
       -0.032223437 0.038711898 -0.0024087494 -0.04360076
000120 d6 cf 3a bc 1a d1 94 3c d3 00 b3 bd 41 42 cc bc
       -0.011402091 0.018166114 -0.087403916 -0.024933936
000130 b8 21 72 bd c9 ca 8c bc 39 e5 54 bd 40 52 9e bc
       -0.059114188 -0.01718654 -0.051976416 -0.01932633
000140 f9 fa 2f 3d 0b dc c8 bb 60 7a 56 3c 18 54 71 3b
       0.042963956 -0.006129747 0.0130907 0.0036823805
000150 7c b3 c9 3c 41 a1 d8 bc 66 85 d3 3d e5 4d c9 3c
       0.024621718 -0.02644408 0.10328178 0.024573276
000160 1f 8e 3b bd 50 04 35 bd 33 ca f4 3c 96 e3 60 3c
       -0.045789834 -0.044193566 0.029881572 0.013726136
000170 a8 17 72 bd 25 91 38 bb 3c 5e b0 bd c3 f1 c9 bc
       -0.05910459 -0.0028162685 -0.08611724 -0.024651414
000180 7c a0 49 3d 49 b0 05 3d 1b 7e a0 bd a3 7b 39 3d
       0.049225315 0.03263882 -0.07836553 0.045283925
000190 5f 5e 27 bc 90 75 15 3c d8 c6 65 3d e6 bd cb 3b
       -0.010215371 0.009122267 0.056097835 0.006217706
0001a0 6c 22 13 bc da c3 cc bd 69 dd 5f 3b d1 b4 38 bb
       -0.008980375 -0.09998293 0.003415907 -0.0028183947
0001b0 06 7b f7 3c 79 d9 9e bc 1a 3a 00 bd 78 61 01 bc
       0.03021003 -0.019390808 -0.03130541 -0.0078967735
0001c0 d9 9f fb 3c 3f 81 77 bd 04 98 05 3d 3c 69 0d 3c
       0.03071587 -0.060425993 0.032615677 0.008631047
0001d0 59 89 4d bd 0d 78 1d 3c 9a 3b e6 3b 88 31 99 3b
       -0.050179813 0.009611142 0.007026148 0.004675094
0001e0 ed 3e d9 3c af 99 a9 3b 81 99 a6 bc da fe 99 bd
       0.026519263 0.005175791 -0.020336868 -0.07519312
0001f0 3b 47 fc bb 9b e7 f0 bd e9 fd 63 bd cc 9d d8 bc
       -0.007698921 -0.11762925 -0.05566207 -0.02644243
000200 d4 10 14 3c f3 34 c9 3c a7 57 29 3d 40 6e 08 3e
       0.009037215 0.024561381 0.041343357 0.13323307
000210 b7 8d bf bc b2 1d 99 3b 0b 2c ac 3d 52 e2 13 3c
       -0.023383005 0.0046727294 0.08406838 0.009026127
000220 bd 2f 7d 3d 1c ae 21 3c 14 14 b2 bc 51 b8 8c bb
       0.061813105 0.009868171 -0.02173809 -0.004294433
000230 e0 9a 16 bd a8 1e ea 3c 85 89 7b 3b 0f 60 5b 3d
       -0.036768794 0.028579071 0.0038381529 0.053558405
000240 50 47 01 3d 7e 07 5c 3c ed 17 87 3c 70 12 9c 3d
       0.03156215 0.013429521 0.0164909 0.07620704
000250 31 51 0f bd 5e 7c 07 3c 8c 4a 24 3d 21 15 37 bd
       -0.03498954 0.008269398 0.040110156 -0.044697884
000260 1d 99 91 bd de 4b d8 3c 21 3a dc bc 2b 31 56 3d
       -0.07109282 0.026403364 -0.026883187 0.052292984
000270 f6 05 86 3d c6 e2 a9 3b 42 2c 63 bc d4 93 d8 3d
       0.06544106 0.005184504 -0.013865532 0.10575071
000280 f4 2c 6a bd c3 71 a0 bc 99 ad c9 bc b2 76 c8 3c
       -0.057171777 -0.019585496 -0.02461891 0.02447066
000290 7e d7 98 bd cb d1 c9 3c b8 19 29 bc 8b 22 dd bc
       -0.07462977 0.02463617 -0.010321073 -0.02699401
0002a0 33 b7 96 bb f9 cb 2c bd 88 18 68 bb 21 42 53 3d
       -0.004599476 -0.04218671 -0.0035415012 0.051576737
0002b0 cd 6c 8c 3c d8 60 12 3d ff cd 09 bc 90 2f 51 bd
       0.017141724 0.03573689 -0.00841093 -0.05107075
0002c0 42 41 0f 3d c8 f7 3b bd 60 d6 1d 3d 07 06 ba 3c
       0.034974344 -0.0458906 0.038534522 0.022707952
0002d0 d1 19 7b bc f3 43 19 3d cb 03 2d bc 8c dc 0a bd
       -0.015325979 0.037418317 -0.010559986 -0.033901736
0002e0 2f 66 ec 3b 1d 67 d7 3d 0e 9f 82 3c 82 3e 85 3d
       0.0072143297 0.10517714 0.015944984 0.06506063
0002f0 68 8a f8 bc 82 ae 84 3d ee c3 12 bd 9f 6d 4f bd
       -0.030339435 0.06478597 -0.035831384 -0.050641652
000300 9b c5 a6 3d 63 e4 4f 3e 23 ca 24 3d 26 c6 2b ba
       0.08143159 0.20301966 0.040231835 -0.0006552659
000310 fd 16 f9 bc 91 46 9c bd a7 c1 5d bc 29 a8 68 3b
       -0.03040647 -0.07630647 -0.01353494 0.0035500622
000320 57 14 39 3d 02 2a 25 3d 76 f8 a0 bd 5c be c9 3c
       0.045185413 0.040323265 -0.0785989 0.024626903
000330 04 b3 d0 3c 91 4d 54 3d d9 2b 97 bd be 21 cb 3b
       0.025475986 0.051831786 -0.0738141 0.0061990907
000340 49 af 5d bc 01 ef 82 bd 35 cc 26 bc dd 26 9e bd
       -0.013530561 -0.063932426 -0.010180523 -0.07722256
000350 c3 2f 84 bd aa b9 c6 bc 02 e7 36 bd bd fa 9b bc
       -0.06454422 -0.024258453 -0.0446539 -0.01904046
000360 b8 11 2e bb 68 f4 d3 bc c0 c0 db ba 66 c4 37 3d
       -0.0026560854 -0.025873378 -0.0016765818 0.044865035
000370 18 a5 d8 bc b8 2f 6b 3c d4 29 d8 bc 6f 22 cd 3c
       -0.02644591 0.014354639 -0.026387133 0.025040833
000380 a4 e2 f5 bd 5d 05 16 3d 27 9e 13 be f3 e5 1d 3d
       -0.12006119 0.03662621 -0.14415799 0.038549375
000390 04 63 e8 3c 74 a5 74 3c 3f 49 83 be 61 0f 48 be
       0.028367527 0.014932025 -0.2564182 -0.19537117
0003a0 22 a7 8b 3d 3d ed a5 3c 6f f8 1e 3c f6 fb 21 3d
       0.068189874 0.020254726 0.009702786 0.03954693
0003b0 c2 4f 7b 3a 21 17 10 bd d9 3d 36 3d 71 24 65 bd
       0.0009586775 -0.035178307 0.044492576 -0.055942956
0003c0 1c 47 94 3d 1f c0 0b 3d d9 40 d3 3c 17 9b 00 3d
       0.072401255 0.034118768 0.025787758 0.031397905
0003d0 de d8 35 be 86 6c 70 3b 79 2e 64 3d 1a 07 38 bc
       -0.1775851 0.0036685779 0.055708382 -0.011232162
0003e0 e4 15 d7 3c 3f 77 06 3d d9 4e d1 39 27 0d c3 bc
       0.026255555 0.032828566 0.00039922333 -0.023809982
0003f0 cc 90 3b bd ec df b1 3b 1b ca 6d bc 1b e1 e9 bc
       -0.045792386 0.005428305 -0.014513518 -0.028549721

fc1.bias f4 [400]
000000 71 28 21 3e 8f d2 2c 3e 1c 16 05 3e a3 89 10 3e
       0.15738083 0.16877197 0.12996715 0.14115004
000010 b4 2b 08 3d e8 c3 00 3e 3d 48 06 3e e9 28 24 3c
       0.033244804 0.12574732 0.13113494 0.010019519
000020 59 95 05 3e 82 5b 43 bd ae f3 7f 3d d4 c8 f5 3d
       0.13045253 -0.04769469 0.06248825 0.120011955
000030 0d ca 56 bc 49 0a 0b be a9 6f 35 3e 77 c0 77 3d
       -0.013109696 -0.13578142 0.17718376 0.060486283
000040 a1 8f 59 bb 42 b8 cd bd 05 a1 ce 3c 65 13 3a 3e
       -0.0033197182 -0.1004491 0.025223264 0.18171461
000050 e0 82 0c be d2 e6 e0 3d e6 f1 53 3e 49 4a 3d bd
       -0.137218 0.109815255 0.20697746 -0.046213422
000060 cf 98 06 be 4f a9 0a bd 81 59 0f 3b b0 4e ed bb
       -0.1314423 -0.03385287 0.0021873417 -0.0072420463
000070 e2 90 2e 3d b5 b1 37 be cf d1 30 bb 3e bb a0 3d
       0.04261864 -0.17938884 -0.0026980524 0.078482136
000080 64 6d 22 3e 28 93 43 3c 5f 36 1c 3e a1 10 f5 3c
       0.15862042 0.01193694 0.15255116 0.029915156
000090 84 6a a3 bc f8 ed 1a be 8d e9 2a 3e 77 04 a1 bd
       -0.019948252 -0.1512984 0.16690655 -0.0786218
0000a0 b3 dd 07 bd cc d7 09 be b1 34 2f 3e df 98 df bd
       -0.033170413 -0.13461226 0.17109944 -0.1091783
0000b0 1e 2b 14 bd c9 9b d0 bd d5 b8 9d 3c d0 b4 f9 3d
       -0.036173932 -0.10185964 0.019253174 0.1219269
0000c0 d2 8d 0d 3e 15 37 02 be 69 76 c8 bd 93 cc 14 3e
       0.13823631 -0.12716325 -0.0978821 0.14531164
0000d0 e7 6d 59 3b a2 3c 79 bd 64 e3 19 be 83 e6 26 3e
       0.003317708 -0.06084884 -0.15028149 0.1629887
0000e0 71 c0 99 3d a1 59 78 3d ac 45 20 3d ce fa 12 3e
       0.075074084 0.06063235 0.039128944 0.14353487
0000f0 ff aa cf 3d ec d4 ef bc f1 77 6d 3d 2f 9c 18 3d
       0.10140037 -0.029276334 0.057975713 0.037258323
000100 8b 3f 1b be 2d 60 26 3e f1 bb 08 be 4d df 0d be
       -0.15160958 0.16247626 -0.13352944 -0.13854714
000110 15 a5 5f bd 79 4c 2c 3e 96 44 0a be bd be a5 3c
       -0.054600794 0.16826047 -0.13502726 0.020232553
000120 27 a9 96 3c aa f2 33 bd 4e 41 d5 3d f4 49 ea bd
       0.018391205 -0.043932594 0.104128465 -0.11439887
000130 d0 62 81 3d 43 4b 14 be 59 0e a6 bd ee 7f e7 bd
       0.06317675 -0.14481835 -0.08108205 -0.113036975
000140 99 b2 21 be 7c 46 ca 3d 8c e3 ee bd 4b da 3b 3d
       -0.15790786 0.09876725 -0.11664495 0.045862477
000150 7f 9c 6d bd af 4f 30 be 57 dc 38 3e 30 e5 3b 3e
       -0.058010574 -0.17217897 0.18052803 0.18349147
000160 3b be 24 be 53 19 a3 bd 7c c2 64 3e 34 d7 f9 3d
       -0.16088192 -0.079638146 0.22339815 0.1219925
000170 26 f1 be 3d 0e ed 98 bd 24 8d e3 bd 09 72 1a 3d
       0.09323339 -0.074670896 -0.11110905 0.03770641
000180 e4 7d 2d 3e b3 a1 0f be f8 4e 8b 3d da 86 32 be
       0.16942555 -0.14026527 0.068021715 -0.17434254
000190 d4 1f ce bd 83 eb bd 3d 64 b8 ac 3d 6b d7 1b 3e
       -0.100646645 0.09273436 0.08433607 0.15218894
0001a0 1f 6d ea 3d 34 57 47 3c 94 1b 28 3e 60 c0 5a 3e
       0.114465944 0.012166787 0.1641677 0.21362448
0001b0 77 9a 17 be 70 96 d0 bd f4 7d 29 3e a6 00 17 3d
       -0.14805017 -0.10184944 0.16551954 0.036865853
0001c0 6f cd 2c 3e 02 1e 86 bd b8 d8 05 3e 5d 59 8e bd
       0.16875242 -0.06548692 0.13070953 -0.069506384
0001d0 b9 47 ae bd c3 00 d8 3d 33 b6 b3 3d c1 c9 3a 3e
       -0.08509774 0.1054702 0.08774986 0.18241026
0001e0 94 41 74 3e d8 34 06 be 90 3c 4c 3e bd 09 1f 3e
       0.23853141 -0.13106096 0.19944978 0.15531059
0001f0 5c 98 0b be 99 05 39 3e 50 7e 3a 3e 96 9a 54 3e
       -0.13632339 0.18068542 0.18212247 0.20762095
000200 9c 28 d3 bd 5f 85 c1 3d fb 79 6c 3d 5a f5 97 3d
       -0.1031048 0.09449267 0.057733517 0.07419844
000210 58 44 0a 3e d9 37 e2 bd 97 c0 00 bd 47 90 8a bc
       0.13502634 -0.11045808 -0.031433668 -0.0169145
000220 9f c7 35 be d2 8e 12 be 5e e7 12 be d9 df 18 be
       -0.1775193 -0.14312294 -0.14346072 -0.14929141
000230 c6 e8 f4 bd 77 c9 d6 3d 14 b6 4d be 02 43 48 3e
       -0.119584605 0.10487645 -0.20088989 0.19556811
000240 58 92 22 3c d2 51 37 be 49 22 7e 3d f3 11 25 3e
       0.009922586 -0.17902306 0.062044416 0.16120128
000250 d1 d1 4e be cb 1b 37 3e ea 18 31 be 02 b9 30 3e
       -0.20197226 0.17881696 -0.1729466 0.17258075
000260 61 d4 e4 3d 52 ee 3f 3c f1 9b 0f be 2c 9a f4 3d
       0.111733206 0.011714535 -0.1402433 0.119434685
000270 41 9b ed bd f8 43 b1 bd f7 c4 18 bd 2c 34 59 3d
       -0.11601878 -0.08655542 -0.037297215 0.05302827
000280 61 f7 53 3e b3 f1 dc bc b7 e8 20 bc 5a 1a c0 bd
       0.20699836 -0.02697072 -0.009821109 -0.09380026
000290 a2 aa 2b 3e 85 84 57 bd d0 d7 74 bd b3 eb 2e be
       0.1676431 -0.052616615 -0.059776127 -0.170821
0002a0 cc 01 2a be 33 5d a5 3d a5 c3 bb 3d 4a 15 3d 3e
       -0.16602248 0.08074417 0.091681756 0.18465152
0002b0 fc 35 38 3c 22 a9 26 be 18 8b 36 3e 8b f6 43 be
       0.01124334 -0.16275457 0.17826498 -0.19137017
0002c0 75 95 8a bd ad 70 df 3d 3c c2 ee 3d 95 a4 dc 3c
       -0.06766788 0.10910163 0.11658141 0.026933948
0002d0 b5 dd c2 bd 94 f9 07 be 67 a0 ec bc 37 dc d2 3d
       -0.095149435 -0.132788 -0.02888508 0.10295909
0002e0 45 51 a1 3c 54 ba d6 bd a3 03 e9 3d ae 63 97 3d
       0.019692073 -0.10484758 0.11377647 0.07392059
0002f0 61 c5 85 bc f5 2d 0f 3d 0f 04 12 3e c4 f8 33 bc
       -0.01632947 0.034955937 0.1425936 -0.010984603
000300 9a a6 53 bc 8f c6 1f bd 1e 82 40 bc 3a c2 58 bd
       -0.012918139 -0.03900772 -0.011749772 -0.052919604
000310 1f a5 98 bd 82 81 ca bd f1 15 94 3d db c4 8d 3d
       -0.07453369 -0.09887983 0.072307475 0.06922313
000320 ae 9a e9 bc 44 96 2f 3c 5e a2 6d 3d a6 d2 18 3e
       -0.02851614 0.010716978 0.058016174 0.14924106
000330 4a f6 22 bb f4 19 90 bc 04 5c 4f be 0e d4 8c bd
       -0.0024866038 -0.0175905 -0.20249945 -0.06876384
000340 b2 b8 59 3b f8 81 c4 bd 3c 8b 2b bd b7 58 2d be
       0.003322166 -0.09595102 -0.04188083 -0.16928373
000350 39 26 08 be 6b 51 c9 3d de 41 08 3c e6 77 c9 bc
       -0.13295831 0.09829982 0.008316485 -0.024593305
000360 c3 93 f2 3d 3c 09 30 bc 70 7c 4e 3b af 1b 2d 3e
       0.118445896 -0.010744389 0.0031507276 0.16905092
000370 6f 24 aa 3d 0e 0b 2f be 73 64 04 3e 74 65 b1 bd
       0.083077304 -0.17094061 0.12928943 -0.08661929
000380 4c bf 46 3d fc e1 c0 3d ab 37 66 3e 2d 12 b1 bd
       0.04852228 0.09418103 0.22482173 -0.08646045
000390 3a f3 65 bd b4 b6 3f be 4d 12 c6 bd 16 51 1b be
       -0.056140162 -0.1872204 -0.09671459 -0.1516765
0003a0 70 01 f4 bd 28 28 1b 3e 81 40 80 3d 95 8b 11 3e
       -0.11914337 0.15152037 0.06262303 0.14213403
0003b0 78 3d 23 3e 47 15 67 bd 11 2b 16 3d af 94 15 be
       0.15941417 -0.056416776 0.036662165 -0.146075
0003c0 55 32 4b 3e 75 13 3a bd b8 15 a1 3d 66 7a 00 be
       0.19843419 -0.045428712 0.07865471 -0.12546691
0003d0 c0 a2 1d 3e 67 94 34 bd 99 e2 b6 3d 26 ee 39 3d
       0.15394115 -0.04408684 0.08929939 0.04539313
0003e0 78 91 48 bd 8a 97 c4 3c 65 78 c6 3d ec 92 11 3e
       -0.048966855 0.02399804 0.09690932 0.14216202
0003f0 db 63 0b 3e 69 1a 48 bd d5 40 ee bd aa e4 cc 3d
       0.1361231 -0.04885331 -0.116334595 0.10004552

fc2.weight f4 [300, 400]
000000 3e 76 7c bc ff c8 7a 3c 11 b2 b7 3c e4 93 0c 3d
       -0.0154090505 0.01530671 0.022423776 0.034320727
000010 6d b4 0b 3c e9 20 b3 3c ea d4 af 3d d1 91 c5 bc
       0.008526904 0.021866279 0.08585532 -0.024117382
000020 68 d7 db 3b c2 d9 0a bd 9d cf 3c bd af 82 29 3d
       0.006709028 -0.033899076 -0.046096433 0.041384395
000030 8d 0b cd 3c 1c 94 91 3d f2 ac 42 bc 06 89 59 3c
       0.025029922 0.07108328 -0.011882054 0.013277298
000040 60 d5 fc bc 38 91 be 3b d5 07 63 bc d0 8f 68 bd
       -0.030863464 0.0058156513 -0.013856848 -0.056777775
000050 a4 61 85 3d 35 05 31 bd a1 62 82 3d d9 70 38 bd
       0.06512764 -0.043217856 0.06366468 -0.045029495
000060 d4 d8 25 3d 62 dd 31 3c f4 07 ad 3d e8 84 b6 3d
       0.040489987 0.010856004 0.084487826 0.089120686
000070 27 30 47 bd 9a 8b 7c bc b9 9c 8e 3d 9c 83 ef bb
       -0.048629906 -0.015414143 0.06963486 -0.00730939
000080 46 2f 32 3c 15 26 ce bc 99 db 17 bc c1 47 25 bd
       0.010875529 -0.025164643 -0.009268665 -0.040351633
000090 91 20 70 3d d8 8f 3c bd 85 b6 24 bc 18 80 12 bd
       0.058624808 -0.046035618 -0.010053282 -0.03576669
0000a0 39 1b 99 3d 23 15 8e bc bd 13 29 3d 32 60 85 3d
       0.074758954 -0.017344063 0.04127859 0.065124884
0000b0 96 89 f6 bb a3 85 a9 bc a6 7b 94 3d e8 5d 8a 3c
       -0.0075237257 -0.020693606 0.072501466 0.016890481
0000c0 38 9b 45 3d 7c b4 84 bc d6 5f 6a bd 29 42 4e bd
       0.04824373 -0.016199343 -0.057220303 -0.050356064
0000d0 27 06 89 3d 45 d5 5a bd e2 24 d0 3c 79 b1 d7 3b
       0.066906266 -0.053426046 0.025408212 0.0065824357
0000e0 bf bf 01 be e1 78 e3 3c f6 de 35 bd 8d 78 42 bd
       -0.12670802 0.0277676 -0.044402085 -0.047478247
0000f0 3f 12 f3 3b 3a 71 0b 3d e3 48 cb 3c 59 70 46 3a
       0.0074179466 0.03404353 0.024815029 0.00075698417
000100 90 8e 42 bd a4 70 5a 3d de e5 2e 3d d0 5a 24 3d
       -0.04749924 0.05333008 0.042699687 0.040125668
000110 e8 9b 64 3c 54 e0 10 3c ac c7 c5 3d 17 cb 94 3c
       0.013953187 0.0088425465 0.09657225 0.018163247
000120 4c e7 4d 3d 78 a1 47 bd fc dd 83 3c 60 4c 54 3d
       0.05026941 -0.048737973 0.016097061 0.05183065
000130 49 44 60 3c d0 b8 fd bc 92 1d 0f 3d b7 9f 48 bc
       0.013688155 -0.030971915 0.03494031 -0.01224511
000140 f3 ad 4e 3b dd d8 c3 3d 4a 27 a4 3c 01 1a 67 bd
       0.0031536787 0.09562848 0.020038266 -0.056421284
000150 a5 e6 b1 3d 55 86 1d bd 4f 86 0e bd 70 b1 87 bd
       0.0868657 -0.038458187 -0.034796055 -0.066256404
000160 3b 5e db bd 5b a9 88 bd 70 bb d4 bb 29 92 94 3c
       -0.107113324 -0.06672927 -0.006492071 0.0181361
000170 64 42 4e 3d 68 eb c0 3b 2d ff 08 bd ce ce cb 3b
       0.050356284 0.0058874376 -0.03344648 0.0062197214
000180 fb fd e5 bc 70 1c 2f 3d ad d7 2f 3c 0d f4 1b bd
       -0.028075209 0.04275173 0.010732573 -0.03807454
000190 6e 6f c2 ba d3 c3 40 3d 37 19 eb bd 7f 6c fc bc
       -0.0014834234 0.047061753 -0.11479419 -0.030813454
0001a0 a5 f2 a7 bb 91 8c b4 3c e9 90 1a bd 2a 44 96 bd
       -0.005125361 0.022039684 -0.037735853 -0.0733722
0001b0 c9 02 06 3d ff d9 2d bd 9b 24 a9 bd 24 42 11 bc
       0.0327175 -0.042444225 -0.08258935 -0.008865867
0001c0 a5 16 c3 bc 13 3f 28 bd b2 92 3e bd 50 cf ee 3c
       -0.023814509 -0.041075777 -0.04652662 0.029151589
0001d0 05 70 39 bd 8a 5b db 3b cc 30 10 3d d2 00 fb bc
       -0.045272846 0.006694262 0.035202786 -0.03064004
0001e0 34 81 e1 3c 62 7c 35 3d 31 19 05 3d 8f 5c 6a bb
       0.02752743 0.044308074 0.032494728 -0.0035760736
0001f0 61 68 3d 3c b8 ff 69 3d ce c1 e2 3c 47 6e dd bc
       0.01156053 0.057128638 0.027680304 -0.027030123
000200 6d e6 2d 3d 5d bb 30 3d 32 95 14 3c c5 98 88 3d
       0.04245608 0.043147434 0.009068774 0.066697635
000210 f3 ea 9d 3b 05 c2 86 bd a9 96 fb 3c a1 05 96 bd
       0.004819268 -0.06579975 0.030711489 -0.073252924
000220 9d 60 b7 bd 28 8b 1b bd 7a 89 7e bc d3 a6 d8 3c
       -0.089539744 -0.037974507 -0.015535707 0.026446735
000230 91 cd 59 3d 6f 5f 29 3d 1e f8 06 bd 7d 28 c7 bd
       0.05317456 0.04135078 -0.032951467 -0.097245194
000240 ec c1 69 3d f3 af 56 bd 16 27 df bc 66 85 55 bd
       0.057069704 -0.052413892 -0.027240317 -0.05212917
000250 d3 96 ed bc 55 b0 52 3d 8b 8d 8b bd 77 7e f8 bc
       -0.029002583 0.051437695 -0.068141066 -0.03033374
000260 14 14 53 bd 42 bf a8 3c da 77 d1 3b 09 c4 ec ba
       -0.05153282 0.020599011 0.0063924612 -0.0018063794
000270 e3 bd d1 bc 7f 66 f4 3c 16 22 67 bd 3a 40 c9 3c
       -0.02560324 0.02983403 -0.05642899 0.024566758
000280 21 e1 3b bd da 93 77 bc 2c 48 83 3d b6 b3 d3 bc
       -0.045868997 -0.015110934 0.0641025 -0.025842529
000290 8e cb fb 39 8d a8 07 3d ab 0b ab bb ab 6b df 3c
       0.0004802611 0.033119727 -0.005219897 0.02727302
0002a0 ea 60 94 3d cc 15 17 3d 0a 6e 48 bc 83 4e fa bd
       0.072450474 0.03688602 -0.012233267 -0.12222006
0002b0 35 f0 87 bd 28 30 c3 bc 3e ae 8a 3d 4e db bb bc
       -0.06637613 -0.023826674 0.06771515 -0.022931721
0002c0 0e 3f df 3c 28 74 84 bc 7f 32 d0 39 a2 39 12 3c
       0.027251747 -0.016168669 0.00039710474 0.008924874
0002d0 54 4b a6 3c e3 8a 08 bb 71 9a 3c bd 32 c7 d6 bc
       0.020299591 -0.0020834736 -0.046045724 -0.02621803
0002e0 64 7f d9 bc f2 6e fe bc be 7b 8b bd d2 37 35 3d
       -0.026550002 -0.031058762 -0.06810711 0.044242688
0002f0 a9 9f 78 3d 29 08 ce 3b 0b 95 f0 3c 37 31 80 bd
       0.06069914 0.006287594 0.029367944 -0.06259387
000300 5b 72 80 3d 42 94 75 bc fd 94 74 bd 84 f4 dc 3c
       0.062718116 -0.014988961 -0.0597124 0.026972063
000310 5c bf 6c 3c cf 6a 99 ba 68 40 db bc 19 4b 57 bd
       0.0144499205 -0.0011704805 -0.02676411 -0.052561853
000320 3f 72 3c bc 8e 3c 1b bd 1d 4f 54 3c 00 a7 d9 3b
       -0.011501848 -0.037899546 0.012958315 0.0066422224
000330 e8 4a ae 3d 3f c2 33 bd 34 f5 95 bd ed 96 e0 bc
       0.08510381 -0.04388642 -0.073221594 -0.027415717
000340 37 26 2d 3d 61 f6 a9 bc 25 2a 82 bd b9 08 b8 bc
       0.042272773 -0.020747365 -0.06355695 -0.022465097
000350 22 6e 0f 3d 4b 8d 6a bd 55 b2 7a bc 16 e7 04 bd
       0.03501714 -0.057263654 -0.015301307 -0.032446943
000360 95 3a 56 bd a6 5c 30 bd 8d 40 1c 3c 72 33 86 3c
       -0.052301962 -0.043057106 0.0095368745 0.016381953
000370 ba 13 52 bd a9 cf 0e bc 2a fb 38 bc a1 3a b6 3c
       -0.051288344 -0.008716502 -0.011290351 0.022244753
000380 a3 63 48 bd fa 1b 04 be 27 2c 3b bd eb b4 82 3c
       -0.048923146 -0.12901297 -0.045696404 0.015955409
000390 6a 55 02 3d 61 a7 9d bc f1 41 67 3c ff e4 d8 bd
       0.03181974 -0.019244852 0.014114843 -0.105905525
0003a0 88 28 15 3d f1 e6 3e bd 94 ab 62 bd 5a 18 0b 3c
       0.036415607 -0.04660696 -0.05533941 0.008489693
0003b0 ca 21 25 3d 8a dc f0 3c 4a 1f b1 3c eb 33 ed 3c
       0.040315427 0.029402036 0.021621365 0.02895542
0003c0 8a a2 60 bd c7 85 b6 3c bb 91 1f 3c 32 f9 aa 3c
       -0.05484251 0.022280587 0.009739335 0.020870779
0003d0 1d 5e 0e bd 95 b3 4d bd 75 de e7 3c 12 9a f4 3c
       -0.034757722 -0.05022009 0.028304318 0.029858623
0003e0 73 3d fc bc cd 67 fb 3b 5a e0 86 3d a3 44 0a bc
       -0.03079102 0.007672286 0.065857604 -0.008439216
0003f0 05 8a c6 bd c1 f0 ba bd d9 12 bf bd ab 32 1f 3d
       -0.09694294 -0.091279514 -0.09329767 0.03886668

fc2.bias f4 [300]
000000 1e b0 11 bd f8 66 31 3d b1 38 75 3d e6 db e1 3c
       -0.03556835 0.04331109 0.05986852 0.027570676
000010 78 51 6e 3d 17 d2 a1 3b 6a e4 f3 3c 31 7f 1f bd
       0.058183163 0.0049383747 0.029772002 -0.03893966
000020 af f2 de 3c 1f 83 83 3b 4b c9 ab bc ac dd 96 bc
       0.02721533 0.0040134336 -0.020970007 -0.018416248
000030 b2 96 9d bc b9 6f 42 3d 66 74 70 3b 79 b3 9e 3c
       -0.019236896 0.04746983 0.0036690473 0.019372689
000040 e2 65 c4 3c 20 dc c1 bc cd c9 48 3d 9f 2b e0 3c
       0.023974363 -0.023664534 0.049020577 0.02736455
000050 7c a1 dc 3c 04 72 6a bc 55 c6 6a 39 59 fb 43 3d
       0.02693247 -0.01430941 0.00022389863 0.047847126
000060 7d 37 9c 3c 15 d5 82 3d 38 0b eb 3c d8 3b d4 3c
       0.019069428 0.063882984 0.028691873 0.025907442
000070 69 28 97 3d e9 d3 ac 3a 13 b2 de 3c 3c 03 57 3d
       0.073807545 0.0013185713 0.027184522 0.05249332
000080 8f 2e 2d 3d b0 9c b0 3d 18 c1 73 3c 41 40 21 3b
       0.04228073 0.08623636 0.01487758 0.0024604949
000090 27 97 5b 3d 21 d3 69 3c 50 e1 79 3b dd c3 fb 3b
       0.053610947 0.014271528 0.0038128681 0.007683261
0000a0 36 c2 ec bc 2c 82 5a 3d 95 97 9a 3c 64 fa 04 3d
       -0.0289012 0.053346798 0.018871108 0.032465354
0000b0 9a d1 5f 3d 39 f9 39 3d 80 e5 ce 3c e0 b3 c1 ba
       0.05464325 0.045403693 0.025255919 -0.0014778338
0000c0 4d 3d 05 bc 3d 32 35 bc 9e aa 9b bc a0 5b 0d bb
       -0.008132291 -0.011059341 -0.019002255 -0.0021569505
0000d0 1f cd 0c 3c e7 4f 06 3d 64 35 84 3d 07 bd c4 3c
       0.008593827 0.032791045 0.06455496 0.024015917
0000e0 a2 a1 c9 3c 11 6b ea bc b2 70 71 3c 1d c1 99 bc
       0.024613205 -0.028615506 0.014736341 -0.018768841
0000f0 d4 24 85 3c 66 23 21 3d bc 73 27 3d 28 23 82 3d
       0.016252913 0.0393404 0.040881857 0.06354362
000100 93 40 95 3d e0 7a 7e 3d eb 80 40 3d 4b 83 1c 3c
       0.07287707 0.0621289 0.046997946 0.009552787
000110 5d 8a 0a bc 38 4a 64 3c 12 69 d4 3c 37 ae b9 bc
       -0.00845584 0.013933711 0.025929008 -0.02266608
000120 b7 a7 eb 3b f5 44 a8 3d b5 fb 49 3b 2b 02 43 bc
       0.007191624 0.082162775 0.0030820195 -0.011902372
000130 0b 8c 3a 3d 64 7f 2c 3d de 01 f7 3c 8a 85 4d bc
       0.04554371 0.042113677 0.030152258 -0.012544045
000140 c4 95 80 3d 13 34 bf 3c 31 5f 2e 3d a9 5e d9 3c
       0.062785655 0.02334026 0.04257125 0.026534395
000150 8d 34 80 3d 24 a1 9b 3b 67 59 2e 3d 54 2d 50 bb
       0.06260023 0.004749434 0.04256573 -0.00317653
000160 9f ea 1b bd 39 37 8d bc 65 20 1a 3c a7 42 48 3d
       -0.03806555 -0.017238246 0.0094071375 0.04889169
000170 5d cd ce 3c 91 9c 5f 3c 96 fa 7e 3d 1f 1f 13 bd
       0.02524441 0.013648168 0.062250696 -0.03591835
000180 32 d7 b5 bc 7a d5 d8 bc e4 18 44 3d e2 18 c7 3d
       -0.02219734 -0.026468981 0.0478753 0.09721543
000190 c7 76 f8 bc 29 a7 a3 3d 43 5f d1 3d aa 2b 1f 3d
       -0.030330075 0.07990868 0.10223248 0.03886
0001a0 e6 0c 04 3c 69 68 92 3d 6e be e2 bc 86 61 ac 3d
       0.008059716 0.07148821 -0.027678695 0.084170386
0001b0 e4 90 5d bc cc 8f 94 3d bc 0d ee 3c 63 11 01 3d
       -0.013523314 0.072539896 0.029059283 0.031510722
0001c0 7e d2 68 3d c1 a2 5d 3d 95 cf fd bc 25 3e f9 3c
       0.056841366 0.054110292 -0.030982772 0.03042514
0001d0 63 b2 01 3c fa 6e 56 bc 50 ac 20 bd e2 10 0f 3c
       0.007916066 -0.013087982 -0.03922683 0.0087320525
0001e0 a9 c4 2a 3d 6c 10 80 3d 33 d0 05 bb 0f a7 8f 3d
       0.041691456 0.06253132 -0.0020418286 0.07014286
0001f0 c1 68 cd 3c 31 f6 92 3d fb 15 b4 3b 40 86 ad bc
       0.025074365 0.071758635 0.0054957843 -0.02118218
000200 cd d3 0b bc 18 fa 51 bc 8a ea 10 3c cc 51 6d 3d
       -0.008534384 -0.012815975 0.008844981 0.057939336
000210 f8 6d 1a 3c 69 e2 4b 3d c1 cc 86 bb 16 c9 e1 ba
       0.009425633 0.04977647 -0.004113764 -0.0017226066
000220 2e cf 66 3d b7 c7 9b bc ab 09 66 3d d8 c0 ce 3c
       0.056349926 -0.01901613 0.056161564 0.02523844
000230 46 dd 99 3d cd 6b 6a 3d 2f c1 59 3c 2d 64 8a 3c
       0.07512908 0.057231713 0.013290687 0.01689347
000240 63 b5 cf 3d 2a 05 5d 3b ae 1b de bb 90 d8 85 3c
       0.10142019 0.0033725002 -0.006778202 0.016338617
000250 ab 78 80 3d a5 dc c5 3c a3 93 0a bd 7f fa 46 3c
       0.062730156 0.024153063 -0.033832204 0.012144684
000260 94 13 9e 3d 05 01 b8 3d 88 bc 04 bc 26 af 82 3b
       0.07718578 0.089845695 -0.00810159 0.0039881645
000270 ec 50 8d 3d c9 02 05 3c 86 7c 64 3d 96 c1 51 3d
       0.069002 0.00811834 0.055782817 0.05121001
000280 c0 23 b6 bc ad 9d 9d 3a 88 dc e1 3c 80 66 61 3d
       -0.022233844 0.001202514 0.027570978 0.055029392
000290 14 68 14 bd 06 6f a3 bc e5 d5 57 3c 28 eb ac 3c
       -0.03623207 -0.019950401 0.013173555 0.021108225
0002a0 e7 dc 9e bc c4 da 8d bc e7 c7 38 bd d2 64 bf bc
       -0.019392444 -0.01731623 -0.045112517 -0.023363505
0002b0 53 78 1e 3d aa ca 2b bd d3 4c 94 3b 36 e0 90 bc
       0.03868897 -0.041941322 0.0045257597 -0.017685037
0002c0 c7 26 88 3c 0f f1 3c 3d 22 7d ea bc 8e a2 c1 3c
       0.016620053 0.04612833 -0.028624121 0.023637082
0002d0 58 76 82 3d 9e ae 3e 3d c7 e1 11 bd 84 7e 9c 3c
       0.063702285 0.046553247 -0.03561571 0.019103296
0002e0 e1 0c b2 3d 87 dd 90 bc b4 4f 73 bc ad 53 1a 3c
       0.08693863 -0.017683757 -0.014850546 0.009419364
0002f0 0e 51 96 3d 4a 05 80 bb 84 36 40 3c 1b 89 7a 3d
       0.07339679 -0.0039068805 0.011731748 0.06116591
000300 2c a9 b7 bb ba f8 b8 3c 92 2c ec bc 2e 7e 0b 3d
       -0.0056048837 0.02257954 -0.028829847 0.03405588
000310 2e 8a 09 3d 4a 73 94 3c 08 50 22 3d 74 2b 06 3d
       0.033579044 0.01812138 0.039627105 0.032756284
000320 8f ea 9f bc 83 2d b1 bc 96 73 0d bb b8 86 2d 3d
       -0.019521026 -0.021628147 -0.0021583787 0.042364806
000330 4d 92 a1 bc bd f9 a6 3d 8b fb a1 3d c4 22 3b bc
       -0.019723082 0.081531025 0.07909306 -0.011421863
000340 f0 02 2c 3d a0 a8 75 3c 59 3a ab 3c 9d 5b 8f bc
       0.04199499 0.014993817 0.020901846 -0.01749974
000350 cc 9c 84 bc 23 60 cc 3c 24 30 20 bd 28 fa 64 3c
       -0.016188048 0.024948185 -0.03910841 0.0139756575
000360 b7 6d 94 3d 69 cb df 3c 36 6a 9b 3d 0e 41 de 3c
       0.07247489 0.027318673 0.075886175 0.02713063
000370 5d dd 4a bc b4 c3 3a bb 97 5b 29 3d 5e 8a 55 bc
       -0.012381879 -0.0028497996 0.041347113 -0.013033478
000380 ee 60 be 3a 79 67 11 3d 31 08 72 3d 61 c4 25 bb
       0.0014524737 0.03549907 0.059089843 -0.0025294053
000390 d7 0d a4 3d af a0 68 3d e6 0b 20 3c 50 a2 f5 3c
       0.08010452 0.056793865 0.009768462 0.029984623
0003a0 ea e7 65 3d 0c 5e a6 bc 9c bc 84 3d 39 03 b6 bc
       0.056129374 -0.020308517 0.06481287 -0.022218334
0003b0 b0 94 a4 3b f8 58 84 3d c7 8b 5f bc 45 df 00 3d
       0.0050226077 0.06462282 -0.013644165 0.031462926
0003c0 b1 8c 9c 3c d4 3f 30 3c 8e 89 c5 3c 58 7a 2e 3c
       0.019110056 0.010757405 0.024113443 0.010649286
0003d0 fb 7d 47 3d 7e 02 a7 bc b5 53 d2 3c c2 9a b7 bc
       0.04870413 -0.02038693 0.02567468 -0.022412661
0003e0 c8 22 34 3c 24 27 5f 3d 91 41 28 bc ab cf 55 3d
       0.010994621 0.054480687 -0.0102695385 0.0522
0003f0 76 e2 0c bd e3 6c e5 3b f6 08 a0 3d be c6 66 3d
       -0.034395657 0.0070015057 0.07814209 0.05634188

out.weight f4 [4, 300]
000000 8b 7c 04 3c 5c 69 0f 3c 89 f8 9b 3b 84 3c 48 3c
       0.008086334 0.008753147 0.0047598523 0.012221459
000010 16 af 02 3c 61 1b 29 3c 9e ea e3 3b ce b1 07 3c
       0.007976314 0.010321469 0.006955459 0.008282138
000020 32 22 15 3c 3e 71 02 3c d7 3d 8c 3b fb 06 bd 3b
       0.009102391 0.007961569 0.004279833 0.0057686544
000030 d9 ed 10 3c 35 25 31 3c e3 71 31 3c 00 73 1e 3c
       0.00884577 0.0108120935 0.010830375 0.009670973
000040 b4 cd 1a 3c 80 b7 d7 3b 6c 38 37 3c d7 9b 28 3c
       0.0094484575 0.006583154 0.011182886 0.010291061
000050 0c c3 96 3c 4f ce 36 3c b7 75 b4 3c 67 b5 e0 3b
       0.018403552 0.011157586 0.022028787 0.0068575623
000060 e3 3b e5 3b 27 e8 50 3c a1 3a e8 3b 6a dc ab 3c
       0.0069956644 0.012750662 0.0070870672 0.020979125
000070 ab 54 e7 3b 95 bf 4a 3c 62 10 31 3c 12 37 01 3c
       0.0070596538 0.012374778 0.010807129 0.007886665
000080 bf 16 f2 3b 05 b4 3d 3d 65 7f 00 3c 54 3c 0e 3c
       0.0073879655 0.046314258 0.007842873 0.0086813755
000090 4b bc 31 3c 5a 09 8d 3b ef f3 04 3c 23 f2 01 3c
       0.010848115 0.0043040933 0.008114799 0.007931265
0000a0 22 e8 6e 3c 39 a7 22 3c b7 d4 3e 3c ff af 10 3c
       0.014581712 0.009927564 0.011647395 0.008831023
0000b0 f0 d7 22 3c 3b 11 68 3c 52 fe 2b 3d f6 80 37 3c
       0.009939179 0.014164264 0.041990586 0.01120018
0000c0 2f b9 7f 3c 15 ff 2c 3c 6c a3 01 3c 7d 5b 50 3c
       0.015608116 0.010558863 0.007912498 0.012717125
0000d0 04 d8 57 3c 26 16 fb 3b 45 80 02 3c b7 0a 3d 3c
       0.013174061 0.0076625524 0.007965152 0.011538199
0000e0 aa d6 45 3c 17 c7 e2 3b 89 18 40 3c 4e 19 1b 3c
       0.012075106 0.006920706 0.0117246 0.009466482
0000f0 8f 1e ea 3b 98 c7 5d 3c 8f 97 08 3d 51 bb 5e 3c
       0.007144756 0.013536356 0.033347663 0.013594464
000100 75 b4 34 3c 9a 88 1c 3c b8 7c f2 3b fd 20 eb 3b
       0.011029352 0.009554053 0.0074001215 0.0071755634
000110 07 6c 4a 3c ef 78 4d 3c 27 52 04 3c 1f c7 e5 3b
       0.012354857 0.01254104 0.008076227 0.0070122625
000120 5e 6d db 3b d1 fc fe 3b b1 06 46 3c 47 6a 52 3c
       0.006696387 0.007781603 0.012086556 0.012842721
000130 05 ab 18 3c 30 ca 24 3c cc 15 27 3c ca 04 3e 3c
       0.009318118 0.010057971 0.010198068 0.0115978215
000140 47 a5 bf 3b 6f 25 44 3c 0f ce 37 3d 47 b1 05 3c
       0.00584856 0.0119718155 0.044874247 0.008159942
000150 83 53 79 3c 9b 3e 6b 3c 48 10 d1 3b 42 46 06 3c
       0.015217665 0.014358188 0.0063801147 0.008195462
000160 cc f0 4d 3c 44 0a 12 3c 9a 3c 08 3c 12 8d 33 3c
       0.0125696175 0.00891358 0.00831523 0.010958927
000170 37 e5 b7 3c 18 42 27 3b b4 1d 38 3c 34 8d 0d 3c
       0.022448165 0.0025521573 0.0112375505 0.0086396225
000180 b4 fe 28 3c 7d 42 1e 3c 73 50 e7 3c 4f e3 33 3d
       0.010314632 0.009659407 0.028236603 0.04391795
000190 8e d4 b1 3b e1 c6 b0 3d a7 14 b6 3d f2 a3 d5 3d
       0.00542695 0.08631683 0.08890658 0.10431661
0001a0 0d 89 0e 3c 7f 84 82 3c ac b1 1e 3c 60 43 16 3c
       0.008699668 0.01593232 0.009685915 0.009171337
0001b0 8f 50 a0 3b 81 de 2e 3c 0a 59 95 3d 2b 7d 6c 3c
       0.004892416 0.010673166 0.072923735 0.014434139
0001c0 97 81 bb 3b 77 2b 89 3d 8b a4 33 3c 65 58 35 3c
       0.0057222354 0.066977434 0.010964523 0.011068438
0001d0 91 07 11 3c 41 34 0e 3d 9c bf 8c 3c 69 83 16 3c
       0.008851902 0.034717802 0.01718121 0.009186604
0001e0 48 ab 28 3c 01 7c 01 3c 0b c7 ab 3b c1 02 1d 3c
       0.010294743 0.0079031 0.0052422336 0.009583176
0001f0 4f 7f d9 3b 49 b1 5a 3c f3 86 db 3b ec f0 40 3c
       0.006637491 0.013347932 0.006699437 0.01177619
000200 8e 44 17 3d 34 b5 d6 3b a1 b5 1a 3c aa 92 f6 3b
       0.036930613 0.006552363 0.009442718 0.007524808
000210 71 69 d6 3b e8 0d 00 3c 71 9a 15 3c 38 2b 52 3c
       0.0065433313 0.0078158155 0.00913106 0.012827687
000220 4b 07 51 3c 46 f9 39 3c a0 27 ff 3d 66 db 30 3c
       0.012758086 0.011350935 0.1245873 0.010794496
000230 8d 0a 8b 3c 8e 25 49 3c 5d 8a 3b 3c e2 eb 43 3c
       0.016972804 0.01227702 0.011446563 0.011958094
000240 b8 b4 9d 3c e9 10 93 3c f9 1c 04 3c 8f 0f 10 3c
       0.019251212 0.0179524 0.008063548 0.008792772
000250 a8 67 3b 3c 31 00 5d 3c 99 f5 b7 3b bb 1f 59 3c
       0.011438288 0.013488815 0.0056139943 0.013252194
000260 7e 1b 09 3c f3 fc ce 3d ba 87 09 3c 43 ac 2b 3c
       0.008368371 0.1010684 0.008394176 0.010478082
000270 6d f9 49 3c f2 38 c6 3b ab 68 ad 3b 0e db 00 3c
       0.012327534 0.006049269 0.0052920184 0.007864727
000280 36 77 eb 3b 7d cf c9 3b 4e 08 9a 3b 5e 92 58 3c
       0.007185842 0.0061587677 0.004700697 0.01321849
000290 d6 e3 07 3c 5b 92 cc 3b d9 df 11 3c 87 cf 01 3c
       0.008294066 0.006243033 0.008903467 0.0079230135
0002a0 6d 6b 9c 3b ea 0c 0c 3c 77 5a a6 3b 3a 77 f7 3b
       0.0047735483 0.008548001 0.005076702 0.0075520547
0002b0 f2 dd 58 3c e0 84 e0 3b 30 f3 eb 3c 81 d7 4b 3c
       0.01323651 0.0068517774 0.028802484 0.012441517
0002c0 91 c3 e3 3b 30 d2 39 3c fb 57 54 3c 93 75 e9 3b
       0.0069508036 0.0113416165 0.012960429 0.0071246116
0002d0 0d fe 24 3c c0 18 b5 3b 88 a7 44 3c 7f 26 10 3c
       0.010070336 0.005526632 0.012002833 0.008798241
0002e0 b1 51 0c 3e 86 99 20 3c 72 df e7 3b 91 c3 fc 3b
       0.13703038 0.009802228 0.0070761973 0.007713743
0002f0 79 4c 1b 3d ab d2 9f 3c 95 0f 64 3c ad 68 a6 3c
       0.037914727 0.019509634 0.013919731 0.020313585
000300 31 77 45 3c 99 d4 d2 3b 20 da d3 3b 8b 7a 32 3c
       0.012052343 0.006434035 0.0064652115 0.010893474
000310 77 74 0f 3c cc d5 3d 3c f3 9d 34 3c d4 d8 38 3c
       0.008755795 0.011586618 0.011023986 0.011282165
000320 f4 57 a0 3c 1c 98 06 3c d7 e4 4b 3c 8c 6b 48 3c
       0.01957319 0.008214977 0.012444696 0.012232672
000330 15 c8 82 3b 86 d7 f6 3d 10 3c 80 3c 30 e2 77 3d
       0.003991137 0.120528266 0.01565364 0.060518444
000340 e7 6c f3 3b d5 19 2c 3c 25 47 81 3c 4b 6e 35 3c
       0.0074287537 0.010504206 0.015780995 0.011073659
000350 a2 cc 0c 3c 98 a7 bd 3b 66 25 ec 3b aa 4c 28 3c
       0.00859371 0.005787801 0.0072066067 0.010272184
000360 ff 8f 3f 3c 75 80 86 3c d5 62 05 3c 08 9d a6 3b
       0.011692046 0.016418675 0.008141239 0.0050846376
000370 f0 5b 1d 3c 60 ed 4d 3c 83 6f 17 3c cf 82 30 3c
       0.009604439 0.012568802 0.009242895 0.010773375
000380 f1 d2 f2 3b 38 8c 13 3c 7e 46 04 3b cb 52 5f 3c
       0.0074104 0.009005599 0.0020183618 0.013630579
000390 bf 12 01 3c 08 54 68 3c b0 ef 09 3c 01 41 94 3c
       0.007878005 0.014180191 0.008418962 0.018097403
0003a0 c6 0f 71 3c 3d 33 2e 3c 4f ea 1f 3c 22 88 2d 3c
       0.014713233 0.010632333 0.009760453 0.010591539
0003b0 4e 4b 88 3d 3e 39 59 3c 72 77 25 3c 9f d6 f1 3b
       0.06654988 0.0132582765 0.010099279 0.007380321
0003c0 7c ab a7 3d b0 4d 14 3d 39 b4 3b 3c 92 74 04 3c
       0.08187005 0.0362069 0.011456543 0.008084433
0003d0 b8 83 1e 3c 48 ed 46 3c 6f c7 bf 3b 10 16 8d 3d
       0.009674959 0.012141533 0.0058526318 0.06888974
0003e0 88 e7 2a 3c 00 a2 3e 3c 02 13 3f 3c 75 52 38 3c
       0.010431178 0.0116353035 0.011662247 0.011250128
0003f0 83 b3 22 3c 6f 2c 44 3c b6 d3 35 3c 56 60 f5 3b
       0.009930494 0.011973484 0.011097839 0.007488291

out.bias f4 [4]
000000 06 08 d1 bc db e2 2a 3c 72 66 a3 3c 3d 4d 20 3d
       -0.025516521 0.010430063 0.01994631 0.03913616
