p2_continuous-control/checkpoint_critic.pth (torch_old, 542692 bytes, 5 tensors)

fcs1.weight f4 [400, 33]
0	0x3d2d0c25	0.04224791
1	0xbcc57e3f	-0.02410805
2	0x3d43acb7	0.047772136
3	0x3c9abc88	0.018888727
4	0xbd0abbb0	-0.0338704
5	0xbc853a20	-0.016263068
6	0xbca632c8	-0.020287886
7	0xbc123408	-0.008923538
8	0xbd0085c1	-0.031377558
9	0xbd0586f1	-0.032599393
10	0x3d2079e9	0.039178763
11	0xbc880bad	-0.01660713
12	0x3d28e1d7	0.041231003
13	0xbd12922c	-0.03578393
14	0x3d8958dd	0.067064025
15	0xbced7308	-0.028985515
16	0xbbcc5e92	-0.0062368596
17	0x3b9b45d9	0.004738551
18	0xbc2ec177	-0.010666243
19	0x3cfa2de9	0.03053947
20	0x3bafa598	0.0053603165
21	0x38dbfd58	0.00010489923
22	0xbcf48d28	-0.029852465
23	0xbd3b3360	-0.045703292
24	0x39db8187	0.0004186744
25	0xbc67d31c	-0.0141494535
26	0x3c4d62a2	0.012535723
27	0xbc81b098	-0.015831277
28	0xbca388fb	-0.019962778
29	0xbd035e58	-0.032072395
30	0xbc67f9e0	-0.014158696
31	0x3ca3e0c2	0.020004634
32	0xbcd03c70	-0.025419444
33	0x3c89aa72	0.016804907
34	0xbcc373b1	-0.023858877
35	0xbcb4f919	-0.022091435
36	0xbccdd524	-0.025126047
37	0xbcf0b7d0	-0.029384524
38	0xbd8a4e55	-0.06753222
39	0xbcd5a445	-0.026079306
40	0xbc21c6c8	-0.009874053
41	0xbc994f99	-0.018714713
42	0xbd0481fe	-0.032350533
43	0x3c258557	0.0101025915
44	0xbcb5e5b7	-0.022204263
45	0xbd1b442c	-0.03790681
46	0x3c868c23	0.016424244
47	0x3d015ef0	0.03158468
48	0x3cc85a66	0.024457168
49	0x3d6460ba	0.05575631
50	0xbcd8cd26	-0.02646501
51	0x3d37c9ec	0.044870302
52	0x3ccc9d3a	0.024977315
53	0xbd766bc4	-0.060161367
54	0xbb12fb15	-0.0022427489
55	0xbcfec5a5	-0.031100104
56	0xbd1d3293	-0.03837831
57	0xba0791bd	-0.0005171558
58	0x3cd556e4	0.02604241
59	0xbc88256c	-0.016619407
60	0x3d440a0b	0.04786114
61	0xbbfebf9e	-0.0077743074
62	0x3d010431	0.031498138
63	0x3d20ed5f	0.039288875
64	0xbd114382	-0.03546477
65	0x3d0c2cd1	0.034222428
66	0xbc8163b4	-0.015794612
67	0x3aac5528	0.0013147937
68	0xbd279497	-0.04091319
69	0x3c812603	0.015765196
70	0xbd06f062	-0.03294409
71	0xbd8fa124	-0.07013157
72	0xbc914f72	-0.017738078
73	0x3c28478f	0.010270967
74	0xbcbafcb7	-0.022825582
75	0x3c3f18b3	0.011663604
76	0xbcbe6199	-0.023239898
77	0xbcf07171	-0.029350968
78	0xbc699402	-0.014256479
79	0xbd3d1b34	-0.04616852
80	0x3cb04e35	0.021521667
81	0xbd679fe6	-0.056548975
82	0xbc9cef04	-0.01915694
83	0x3cf053b4	0.029336788
84	0xbc51bbcd	-0.012801123
85	0xbd5b2971	-0.05350632
86	0x3b2255d1	0.002477039
87	0xbca839db	-0.0205354
88	0x3c198644	0.00937039
89	0x3d28a86c	0.041176245
90	0xbcb39343	-0.021920806
91	0x3cfd92ff	0.030953882
92	0xbbe0201c	-0.0068397652
93	0x3ba16727	0.004925627
94	0xbc9f36d2	-0.01943532
95	0xbc420b14	-0.011843462
96	0xbcf80de9	-0.03028007
97	0xbcb454ba	-0.022013057
98	0xbcf1755d	-0.029474908
99	0x3d454bce	0.048167996
100	0xbcc1c03c	-0.023651235
101	0xbc17359f	-0.009229093
102	0xbc35863c	-0.011079367
103	0x3cfcb5aa	0.030848343
104	0x3b8c8b66	0.0042890785
105	0xbcd7209f	-0.026260672
106	0x3ce807d5	0.028324047
107	0xbd49f383	-0.049304496
108	0x3ce43243	0.027855998
109	0x3ca4dc2a	0.020124514
110	0xbccfdab4	-0.02537284
111	0xbca22c5e	-0.019796547
112	0x3d40a76a	0.04703466
113	0xbbbe9fc1	-0.005817384
114	0xbd2623ee	-0.04056161
115	0xbd7cd955	-0.0617307
116	0xbd128a8f	-0.03577667
117	0x3cbc0b51	0.022954615
118	0x3b5724c7	0.0032828317
119	0xbc9e0e20	-0.019293845
120	0x3c20f933	0.009825039
121	0x3b96b172	0.00459879
122	0x3bff8fee	0.00779914
123	0xbb96758a	-0.0045916485
124	0x3c0465e1	0.00808093
125	0x3daa28a2	0.08308531
126	0xbd5249da	-0.05133996
127	0xbd62f66f	-0.0554108
128	0xbd0024fa	-0.031285264
129	0x3a251ccb	0.0006298541
130	0x3a884ba0	0.0010398515
131	0xbd3a8854	-0.04554017
132	0xbc258934	-0.010103513
133	0x3bbbe580	0.0057341456
134	0xbd3b6ba4	-0.04575695
135	0xbccc20ad	-0.024917925
136	0x3c700476	0.014649501
137	0x3d1b8e12	0.037977286
138	0xbccade4b	-0.0247642
139	0x3ad19744	0.0015990515
140	0xbc685682	-0.014180781
141	0xbbb41d7f	-0.0054966803
142	0x3d1f8b68	0.038951308
143	0xba9e5185	-0.0012078738
144	0x3d1d8fe8	0.038467318
145	0x3c7b275d	0.015329209
146	0x3cbc996e	0.02302238
147	0x3c8c871d	0.01715427
148	0x3cc06de2	0.023489896
149	0x3d4cdd29	0.050015602
150	0x3bcb40ee	0.0062028086
151	0xbaefaf65	-0.0018286525
152	0x3cc2030b	0.023683092
153	0xbc293e7a	-0.010329837
154	0xbb86731c	-0.0041030776
155	0xbbe337d5	-0.006934146
156	0xbc070aa1	-0.00824228
157	0x3d37dd3e	0.044888727
158	0x3c8cfe68	0.017211154
159	0x3be041f0	0.006843798
160	0xbd34d7ae	-0.044151
161	0xbc8924f4	-0.016741253
162	0xbbabad8d	-0.0052391947
163	0x3d2a2b9f	0.041545507
164	0x3ca6802c	0.020324789
165	0x3b4d2a80	0.003130585
166	0xbc73f27d	-0.014889357
167	0x3d057115	0.032578547
168	0x3cac976c	0.021068297
169	0x3d35c682	0.044378765
170	0x3d3ac377	0.045596566
171	0x3d1a70ae	0.037705116
172	0x3ce6b4bc	0.028162353
173	0x3d5ad750	0.053427994
174	0xbca16da5	-0.019705603
175	0x3cdedafa	0.027204026
176	0xbc4c5453	-0.012471276
177	0xbca38195	-0.01995925
178	0x3cd45cb7	0.025923116
179	0xbd93b3cb	-0.07212027
180	0x3cfd9112	0.030952964
181	0xbd2e4eb6	-0.042555533
182	0xbc7804be	-0.015137849
183	0xbc7d00b8	-0.015442066
184	0xbd8bee0f	-0.068325154
185	0xbb61eea6	-0.003447452
186	0x3c063ccd	0.008193207
187	0x3c4448bc	0.011980232
188	0x3a398b5c	0.0007077956
189	0xbd121630	-0.03566569
190	0x3cdc571d	0.026897008
191	0xbd26e2df	-0.040743705
192	0x3ced96ef	0.029002635
193	0x3bd41737	0.006472494
194	0xbd0a7a9d	-0.03380834
195	0x3b1b01e7	0.0023652257
196	0x3ce4affa	0.027915943
197	0x3b93ffe4	0.0045165885
198	0x3d2c94e8	0.042134196
199	0x3daedd14	0.08538261
200	0xbc562291	-0.013069765
201	0x3d88b583	0.066752456
202	0xbcc992d5	-0.024606148
203	0x3d52b8ef	0.051445898
204	0xbd4d43bd	-0.05011343
205	0xbcca97d0	-0.024730593
206	0x3c91ea34	0.017811872
207	0x3d855c51	0.065117486
208	0xbcdcb21a	-0.026940394
209	0xbcea88c7	-0.028629674
210	0x3d016cd2	0.03159792
211	0xbc4ec565	-0.012620305
212	0x3cedee0f	0.02904418
213	0xbbb97142	-0.0056592533
214	0x3d8bf3d7	0.06833618
215	0x3d6ba4f6	0.057530366
216	0xbca7ec7e	-0.02049851
217	0xbc35c5a0	-0.011094481
218	0x3ca37929	0.019955235
219	0x3d579d95	0.052640516
220	0x3c526a72	0.012842761
221	0xbd40a544	-0.04703261
222	0xbcb1943b	-0.021677127
223	0x3caa5c72	0.020796034
224	0x3cdbbb4f	0.026822714
225	0x3ba84982	0.005135716
226	0x3d190146	0.03735473
227	0xbcb65c9a	-0.022260953
228	0xbcc33c27	-0.023832394
229	0xbc8b7394	-0.017022885
230	0x3e06609d	0.13122793
231	0x3d0b80b0	0.034058273
232	0x3d2bc28d	0.041933585
233	0xbcf6a3dd	-0.030107433
234	0xbd1fbb3b	-0.038996916
235	0x3cad5b6b	0.021161756
236	0x3d3678f1	0.044548932
237	0x3cbbd2be	0.022927638
238	0xbc831a1f	-0.016003666
239	0xbd08f959	-0.03344092
240	0x3cfdf4e7	0.031000568
241	0xbd14a705	-0.036292095
242	0xbc9e29cd	-0.019307042
243	0xbcd8d503	-0.02646876
244	0xba095930	-0.0005239425
245	0x3cf257a1	0.0295828
246	0xbc2f65a0	-0.010705382
247	0xbd82c179	-0.06384558
248	0x3c86667c	0.01640629
249	0xbd84cb82	-0.064841285
250	0xbc8f739a	-0.017511178
251	0x3cb7816f	0.022400586
252	0xbd0fb3bf	-0.03508353
253	0xbc8a9cf2	-0.01692054
254	0xbd4dcdaf	-0.050244983
255	0xbcec73cc	-0.02886381

fcs1.bias f4 [400]
0	0x3e1a7027	0.15081845
1	0x3dfd6c79	0.12374205
2	0x3ddc670b	0.107618414
3	0x3ded5a97	0.11589544
4	0x3d9b0755	0.07569758
5	0x3e1f4e3a	0.15557185
6	0x3dec1676	0.115277216
7	0xbcc025ff	-0.023455618
8	0x3e28531e	0.16437957
9	0xbd8ca80a	-0.068679884
10	0x3e115394	0.14192039
11	0x3dd1088d	0.10206709
12	0xbd3ee79e	-0.046607606
13	0xbe2c2db7	-0.16814314
14	0x3e149fdc	0.14514107
15	0x3ce50669	0.027957158
16	0x3ce91b25	0.028455326
17	0xbe0db20b	-0.13837449
18	0xbd6c9c99	-0.05776653
19	0x3e25230a	0.16126648
20	0xbe02b7db	-0.12765448
21	0x3e310aad	0.17289229
22	0x3e0ed69f	0.13949059
23	0xbd99b60d	-0.075054266
24	0xbdcd40f2	-0.10022153
25	0xbd11c8a2	-0.03559173
26	0xbc4c4eae	-0.012469931
27	0xbd4e8c9a	-0.050427057
28	0xbd84606f	-0.06463706
29	0xbdf267d2	-0.118362084
30	0xbd17c445	-0.03705241
31	0x3dc7c275	0.097538866
32	0x3dfefb0c	0.12450227
33	0xbc17d554	-0.00926717
34	0x3e120e3f	0.14263247
35	0xbd5b9d4d	-0.05361681
36	0xbd0289a2	-0.031869538
37	0xbe06b6b1	-0.13155629
38	0x3e0ce1bd	0.13757987
39	0xbd63830f	-0.05554491
40	0xbd533f5c	-0.051574096
41	0xbe2728f0	-0.1632421
42	0x3e12493f	0.14285754
43	0xbe1c04b1	-0.15236165
44	0xbc0f68e4	-0.008753035
45	0xbe022914	-0.12710983
46	0xbd02e0a2	-0.031952508
47	0x3d49c66f	0.049261507
48	0x3e00ca69	0.12577213
49	0xbe20c32a	-0.15699449
50	0xbe1d3ada	-0.15354481
51	0x3d2209c7	0.039560106
52	0x3a3f6a6b	0.0007301929
53	0xbdd4a5a9	-0.1038316
54	0xbe0a0536	-0.1347855
55	0x3de8ca09	0.1136666
56	0x3ccee746	0.025256764
57	0x3df6df37	0.120542936
58	0x3b90c07b	0.0044174767
59	0x3d55d82f	0.052208122
60	0x3c7a2687	0.015267975
61	0xbd8d087c	-0.06886384
62	0xbc373189	-0.011181244
63	0xbb1e0146	-0.0024109646
64	0xbe214cfe	-0.15752026
65	0x3dfc3e13	0.12316527
66	0xbe0efa2e	-0.13962623
67	0xbdddf4ed	-0.108377315
68	0xbcad2252	-0.02113453
69	0x3e159b0c	0.14609927
70	0xbe11f05a	-0.14251843
71	0x3cf6ca2f	0.030125706
72	0xbc60f0d8	-0.013729297
73	0xbd826924	-0.0636771
74	0x3d8bf646	0.06834082
75	0xbe15c1dc	-0.14624733
76	0x3ad209a3	0.00160246
77	0xbe10b7eb	-0.14132659
78	0xbe02a933	-0.12759857
79	0xbded2d82	-0.115809456
80	0xbe23dea6	-0.16002902
81	0x3da142b2	0.07874049
82	0xbe051d4d	-0.12999459
83	0x3ca4f8d9	0.020138191
84	0xbdbf86e6	-0.09351902
85	0xbe28a71e	-0.1647
86	0x3e0a213f	0.13489245
87	0x3e2efe6c	0.17089242
88	0xbdcc58d8	-0.09977883
89	0xbe120895	-0.14261086
90	0x3de86d44	0.11348966
91	0x3e360142	0.17773917
92	0x3e01a803	0.12661748
93	0xbd91e968	-0.07124597
94	0xbde76951	-0.112993844
95	0x3ca62fa4	0.020286389
96	0x3e076f2d	0.13226004
97	0xbe41e8a5	-0.18936403
98	0x3d054857	0.03253969
99	0xbe22ca59	-0.15897502
100	0xbdbe5b20	-0.092947245
101	0x3db983fb	0.090583764
102	0x3d074a8e	0.033030085
103	0x3e340a1a	0.17581978
104	0x3d254293	0.040346693
105	0xbca0f9be	-0.019650336
106	0x3de97d01	0.11400796
107	0x3dd489d2	0.1037785
108	0xbdf5bb49	-0.119986124
109	0xbe0017c3	-0.12509064
110	0x3e171dfe	0.14757535
111	0x3d55d187	0.052201774
112	0x3debcfc7	0.1151424
113	0xbdf95948	-0.12175232
114	0x3d459476	0.048237287
115	0xbda72758	-0.08161801
116	0xbe15ba26	-0.14621791
117	0x3d9bbf14	0.07604805
118	0x3dcf8938	0.10133594
119	0x3e365e2b	0.1780936
120	0x3e336944	0.17520624
121	0xbe1db626	-0.15401515
122	0x3dd5ca8c	0.104390234
123	0x3e1a2a01	0.15055086
124	0xbe1e6a14	-0.15470153
125	0x3e1eb9e1	0.15500595
126	0x3e21be15	0.15795167
127	0x3e134ac4	0.1438399
128	0xbe366d0b	-0.17815034
129	0x3de829f6	0.113361284
130	0x3cc3d3bf	0.02390468
131	0x3c99706e	0.018730368
132	0x3dab89c9	0.0837589
133	0xbdb7d37c	-0.08975884
134	0xbd5c2534	-0.053746417
135	0xbc3e47aa	-0.011613766
136	0xbe28f7e5	-0.16500814
137	0xbe10e593	-0.14150076
138	0xbe2be310	-0.16785836
139	0xbe141914	-0.14462692
140	0xbd993ef7	-0.07482713
141	0x3e03c276	0.1286715
142	0xbe36ffc3	-0.17871003
143	0x3e13307c	0.14373964
144	0x3a85f31e	0.0010219549
145	0xbe0b9f97	-0.13635097
146	0x3deedb4b	0.116629206
147	0x3e050ea1	0.12993862
148	0xbe23f1c0	-0.16010189
149	0x3e2c6098	0.16833723
150	0xbdc4154f	-0.09574377
151	0x3d3f219c	0.04666291
152	0x3cf437cb	0.02981176
153	0xbcaa66e8	-0.020801023
154	0xbe1cd1b2	-0.15314367
155	0x3dff726a	0.124729946
156	0xbe13f207	-0.14447795
157	0xbdc2601d	-0.094909884
158	0xbc5df134	-0.013546277
159	0x3d514150	0.051087677
160	0x3e21564a	0.15755573
161	0x3aeed49c	0.0018221322
162	0xbd227ebd	-0.03967165
163	0xbdff8be3	-0.12477853
164	0x3e342219	0.17591132
165	0xbe0e44ad	-0.13893385
166	0xbd86b17c	-0.06576821
167	0xbda7ce39	-0.08193631
168	0xbe2af271	-0.16694047
169	0x3d8573ab	0.065162025
170	0x3dc08694	0.09400669
171	0x3e03a9f4	0.128578
172	0xbb459ffb	-0.003015517
173	0xbe3449b5	-0.17606242
174	0x3dc1ef3a	0.09469457
175	0xbe227e4c	-0.15868491
176	0xbdc1d05e	-0.09463571
177	0x3c8ee99b	0.017445376
178	0x3d760dd5	0.060071785
179	0x3d550699	0.052008245
180	0xbdc1acd8	-0.094567955
181	0xbdadf839	-0.0849461
182	0x3c1fec95	0.009760995
183	0x3db5f003	0.08883669
184	0xbb519b80	-0.0031983554
185	0xbdd99a42	-0.106251255
186	0x3d85b14e	0.06527959
187	0x3d8501ec	0.06494507
188	0xbd835c21	-0.064140566
189	0xbad232d5	-0.0016036878
190	0x3d3127ed	0.043250967
191	0xbda92e19	-0.082607456
192	0xbd2808cf	-0.041024026
193	0xbd64be3a	-0.055845477
194	0xbc75bf64	-0.014999244
195	0xbdced569	-0.100992985
196	0xbe01f9ef	-0.12692998
197	0xbde5a564	-0.112131864
198	0x3d147dae	0.03625267
199	0x3c75c313	0.015000123
200	0xbd951555	-0.072794594
201	0xba5620ed	-0.00081683585
202	0x3d56639e	0.052341096
203	0x3d6e425c	0.058168754
204	0xbc30bc12	-0.010787027
205	0xbd386a22	-0.04502309
206	0xbda59b2b	-0.080862366
207	0xbda9c0f6	-0.082887575
208	0xbcc5bab5	-0.02413688
209	0xbdf4e9fb	-0.11958691
210	0xbbd74b6e	-0.006570271
211	0xbdca82fa	-0.09888263
212	0xbe1e50f3	-0.15460567
213	0x3d98d754	0.074629456
214	0xbcf76757	-0.030200643
215	0xbd600ac3	-0.054697763
216	0x3d9ce648	0.0766111
217	0xbd06c23f	-0.03290009
218	0xbd1240e4	-0.035706416
219	0x3e39515c	0.18097442
220	0x3d8a37e4	0.067489415
221	0xbe162080	-0.14660835
222	0x3e0f138e	0.13972303
223	0xbda7728c	-0.08176145
224	0xbc8c0684	-0.01709295
225	0x3dad10ce	0.08450471
226	0x3e362634	0.17788011
227	0xbe0f1453	-0.13972597
228	0xbdbf1aa9	-0.09331257
229	0xbe0df14b	-0.13861577
230	0xbe202e83	-0.15642743
231	0xbe206fea	-0.15667692
232	0xbe14b491	-0.14522006
233	0x3d1f3f25	0.03887858
234	0x3d385e7c	0.045011982
235	0x3e068eef	0.13140462
236	0x3e04e264	0.12976986
237	0xbe034514	-0.1281932
238	0x3c213785	0.009839897
239	0xbe122657	-0.14272438
240	0x3e18dd2b	0.14928119
241	0xbc3b97cb	-0.0114497645
242	0x3d73363f	0.059377905
243	0xbdf29491	-0.11844743
244	0x3e08a433	0.13343887
245	0xbe024d4d	-0.127248
246	0x3d858a0d	0.06520472
247	0xbbb0e2a6	-0.0053981123
248	0xbc874c5d	-0.016515905
249	0xbd47e05b	-0.048797946
250	0x3dc539a7	0.09630137
251	0x3cf28a36	0.02960692
252	0x3dcfb5ec	0.10142121
253	0xbd30c01e	-0.043151967
254	0xbdea608f	-0.11444198
255	0x3de8f2df	0.11374449

fc2.weight f4 [300, 404]
0	0xba9efa7e	-0.0012129096
1	0xbd8551aa	-0.06509717
2	0xbc430064	-0.011901949
3	0x3d5ad6fe	0.05342769
4	0x3d1b4eca	0.037916936
5	0xbd4c5a8a	-0.049891032
6	0xbd5a77af	-0.053336795
7	0xbcad489f	-0.021152792
8	0xbb8adc9c	-0.0042377245
9	0x3a571b7b	0.0008205694
10	0xbd68c79d	-0.05683099
11	0xbc3f5588	-0.011678107
12	0xbd86d933	-0.06584396
13	0x3cb816b7	0.022471769
14	0xbceb87a1	-0.028751196
15	0xbd445213	-0.047929835
16	0xbb1973d3	-0.0023414984
17	0x3c898324	0.016786166
18	0x3d39322f	0.045213874
19	0x3d4670cf	0.048447426
20	0xbc4543c1	-0.01204008
21	0x3cc626d2	0.024188433
22	0x3d451e81	0.048124794
23	0x3cc970e4	0.024589963
24	0xbd5a6edf	-0.05332839
25	0xbd614a6d	-0.05500262
26	0x3cc988b8	0.024601325
27	0xbc0db830	-0.008649871
28	0xbd1b6075	-0.037933785
29	0xbd0b7092	-0.034042902
30	0xbd7550c4	-0.059891477
31	0xbd0cc389	-0.034366164
32	0xbd4850f8	-0.048905343
33	0xbc887e74	-0.01666186
34	0xbcaffa2f	-0.021481602
35	0xbcd5dfe8	-0.026107743
36	0x3c8577f9	0.016292559
37	0xbd0d254e	-0.034459405
38	0xbd59e655	-0.053198177
39	0xbceafe00	-0.02868557
40	0x3d940b9b	0.07228776
41	0x3cb504a5	0.022096941
42	0xbd74ff4f	-0.059813794
43	0x3ca3c1b8	0.019989833
44	0x3cfebce1	0.031095924
45	0xbbbfb24f	-0.0058501135
46	0x3d260ef1	0.040541593
47	0x3ca74c00	0.020421982
48	0x3cfb42de	0.030671533
49	0x3874dab2	5.837781e-05
50	0x3bc7c44c	0.0060963985
51	0xbd49415c	-0.049134597
52	0xbd62b2aa	-0.05534617
53	0xbcdd04f8	-0.026979908
54	0x3c4a94dc	0.012364592
55	0xbd4b5915	-0.049645502
56	0x3cf57823	0.029964512
57	0xbd1311d1	-0.035905663
58	0x3ba5d775	0.005061085
59	0xbc06524f	-0.008198335
60	0xbd42957c	-0.04750584
61	0x3d5a7ba6	0.053340577
62	0xbcce8bab	-0.025213083
63	0xbd327088	-0.04356435
64	0xbbf60ff3	-0.0075092255
65	0xbb099d95	-0.0020998467
66	0x3c7d18be	0.0154477935
67	0xbd5af527	-0.05345645
68	0xbc3a1838	-0.011358313
69	0x3c51cc99	0.012805128
70	0x3beffbda	0.007323724
71	0x3ccba735	0.024860004
72	0xbc001762	-0.007818075
73	0x3d3027cf	0.043006714
74	0x3d25fd4d	0.04052477
75	0xbcafdb06	-0.021466743
76	0x3bc182b6	0.0059054745
77	0xbd364b00	-0.04450512
78	0xbd31efb2	-0.043441482
79	0xbd3c9eb5	-0.046049792
80	0xbd489d0b	-0.048977893
81	0x3d0282ed	0.03186314
82	0x3c38a135	0.0112689035
83	0x3d3160d1	0.043305222
84	0xbd34e077	-0.04415938
85	0x3c792d43	0.015208545
86	0x3bd28f9c	0.006425811
87	0xbcc05c66	-0.023481559
88	0x3d1cfd10	0.038327277
89	0x3c4eec3e	0.012629567
90	0x3d646e87	0.05576947
91	0xbc6baacc	-0.014383983
92	0xbd8b1e18	-0.06792849
93	0x3cb4d9fd	0.022076601
94	0x3d2184f8	0.03943345
95	0xbad51163	-0.0016255792
96	0x3d419a6c	0.04726641
97	0x3d1e50a8	0.03865114
98	0x3d1fdd43	0.03902937
99	0xbc966d29	-0.018362598
100	0x3d5ae1fa	0.053438164
101	0x3cb43439	0.021997558
102	0x3d4464d3	0.047947716
103	0xbd7dd208	-0.06196788
104	0xbd1775bf	-0.036977526
105	0xbc9721f0	-0.0184488
106	0xbd5ec1ee	-0.054384165
107	0x3c257751	0.010099248
108	0x3d0690aa	0.032852806
109	0x3cc45cfe	0.023970123
110	0xbc76541e	-0.015034704
111	0xbc5b1602	-0.013371946
112	0xbc8a5441	-0.016885879
113	0xbca439ff	-0.020047186
114	0xbd9442fa	-0.07239337
115	0xbb4f2615	-0.0031608392
116	0xbd1ee258	-0.038790077
117	0xbc22c066	-0.009933567
118	0xbd422273	-0.047396135
119	0xbd05579d	-0.032554258
120	0x3c391c9b	0.011298324
121	0x3d48e5db	0.049047332
122	0x3d047b2b	0.032344025
123	0xbcde3dd8	-0.027129099
124	0xbb0a95e5	-0.0021146473
125	0xbb90f14c	-0.004423296
126	0x3d1963ae	0.037448578
127	0xbd723fab	-0.05914275
128	0xbcb46919	-0.02202277
129	0xbbdef5ae	-0.0068041896
130	0x3c7cce71	0.015430079
131	0x3c07011f	0.008240013
132	0x3cd11381	0.025521995
133	0x3d0929ad	0.03348701
134	0xbd5baacd	-0.053629685
135	0xbc0bb2ae	-0.008526487
136	0xbc22907a	-0.009922141
137	0xbcb4233d	-0.02198946
138	0xbd138cb7	-0.036022868
139	0x3cdaa626	0.026690554
140	0x3cc2fa09	0.023800867
141	0xbd74c1f3	-0.059755277
142	0x3d5b64f0	0.05356306
143	0xbd3807f6	-0.044929467
144	0x3d6bcb2b	0.057566803
145	0x3cc22fe6	0.02370448
146	0x3d5646d7	0.052313652
147	0xbd4dd9c3	-0.050256502
148	0xbd45d215	-0.048296053
149	0x3b386ef9	0.0028142317
150	0x3cec9e63	0.028884118
151	0xbc9746d0	-0.018466383
152	0x3cbb54a1	0.022867503
153	0xbb0a3f54	-0.0021094875
154	0xbd005a93	-0.03133638
155	0x3ce7402e	0.028228845
156	0xbce9cdc3	-0.028540498
157	0x3c2997fa	0.010351175
158	0xbcb601e2	-0.022217695
159	0xbd7e5e95	-0.06210192
160	0xbc489ef9	-0.012244933
161	0xbc1569a4	-0.009119425
162	0x3c8e85ac	0.017397724
163	0x3c66b836	0.014082005
164	0xbd581ff4	-0.052764848
165	0xbc2cac09	-0.010539063
166	0x3d0762b5	0.03305312
167	0x3bd13ef2	0.0063856775
168	0x3c9c4ec4	0.019080527
169	0xbd4c1965	-0.049828906
170	0xbd6cbcac	-0.05779712
171	0xbc1e546a	-0.009663681
172	0xbd992c5a	-0.074791625
173	0xbd6a7576	-0.057240926
174	0xbd0de198	-0.03463897
175	0xbd46be87	-0.048521545
176	0xbd389ca0	-0.045071244
177	0xbc662e51	-0.014049129
178	0x3c16f290	0.009213105
179	0xbcd62bbe	-0.026143905
180	0x3d6308b9	0.05542824
181	0x3d80a487	0.06281381
182	0x3d0bf5a0	0.034169793
183	0x3d5bacd4	0.05363162
184	0x3c4d0f66	0.012515878
185	0xbd6b9d0b	-0.057522815
186	0x3c87baec	0.016568623
187	0xbd7a6a6e	-0.061136656
188	0xbc23f78d	-0.010007751
189	0xbd28c289	-0.04120115
190	0xbd78f7ec	-0.06078331
191	0xbd76fd69	-0.060300265
192	0xbcea9efa	-0.028640259
193	0xbbf5f6d1	-0.0075062294
194	0xbd3ff9be	-0.046869032
195	0xbd0d5457	-0.03450426
196	0x3c5fb905	0.013654952
197	0xbccf6379	-0.025315987
198	0xbcabd80a	-0.020977039
199	0x3d1e7cab	0.03869311
200	0x3d30dd1e	0.043179624
201	0x3cad9e51	0.021193655
202	0x3cdc5a37	0.026898487
203	0x3cce97fc	0.025218956
204	0xbd2eb2b0	-0.04265088
205	0x3bc17bef	0.0059046666
206	0x3d101dc0	0.03518462
207	0x3d39fd0d	0.045407344
208	0xbd102030	-0.035186946
209	0xbcbac660	-0.02279967
210	0x3cde5925	0.027142117
211	0xbbd30bc7	-0.006440613
212	0xbd312736	-0.043250285
213	0xbd4bab64	-0.049723998
214	0xbd437b82	-0.047725208
215	0xbd6cf429	-0.057850037
216	0xbbaab8b8	-0.0052100085
217	0xbd48e26f	-0.04904407
218	0xbcb74b1f	-0.022374688
219	0x3c782809	0.015146264
220	0x3c9591dc	0.018258028
221	0xbce20ca6	-0.027593922
222	0xbd66b1c5	-0.056321878
223	0xbd1e2ab6	-0.03861495
224	0xbb7bc7cf	-0.0038418656
225	0xbd270e29	-0.04078499
226	0xbd33dcf7	-0.0439119
227	0xbcd09e61	-0.025466146
228	0x3d08e83e	0.03342461
229	0xbca2722a	-0.019829828
230	0x3bc65438	0.00605252
231	0x3a2c226c	0.00065664086
232	0xbd5d2c5a	-0.053997375
233	0xbb466077	-0.00302699
234	0xbd51ae38	-0.05119154
235	0xbd7a5180	-0.06111288
236	0x3d8e63e6	0.06952648
237	0xbd2a0ed0	-0.041518033
238	0xbd9298ca	-0.071580485
239	0x3d0726c8	0.03299597
240	0x3c5d1948	0.013494797
241	0xbc105bd4	-0.008810956
242	0x3cf3d392	0.02976397
243	0x3cb1614c	0.02165284
244	0xbc869ed8	-0.016433164
245	0x3b60ae1d	0.0034283467
246	0x3d09b205	0.03361704
247	0xbd541566	-0.05177822
248	0xbd7db6f5	-0.06194206
249	0x3b78c12d	0.0037956939
250	0x3d2147bd	0.039375056
251	0x3d6b5899	0.05745754
252	0x3bec0254	0.007202426
253	0x3c78cd15	0.015185614
254	0xbce17056	-0.027519386
255	0xbd14f279	-0.036364052

fc2.bias f4 [300]
0	0xbbdfc408	-0.0068287887
1	0xbc1895da	-0.009313071
2	0x3d20e448	0.039280206
3	0x3c61d47f	0.013783573
4	0xbbae784f	-0.0053244005
5	0x3c20d9ea	0.00981758
6	0x3d0ad5aa	0.033895172
7	0xb8b65898	-8.694938e-05
8	0xbd110feb	-0.03541557
9	0x3d35b78b	0.044364493
10	0xbccc1b7e	-0.024915453
11	0x3c8822ec	0.016618215
12	0x3d198cc2	0.037487753
13	0x3cc1f1b0	0.023674816
14	0xbd5b4c42	-0.053539522
15	0xbc9b5f64	-0.018966384
16	0x3d4018c7	0.04689863
17	0xbd13235a	-0.035922386
18	0xbc3944c3	-0.011307898
19	0xbcbb2aef	-0.02284762
20	0xbbf0465c	-0.0073326062
21	0xbd266503	-0.040623676
22	0xbc4ed545	-0.01262409
23	0x3b8649af	0.0040981392
24	0x3d34360d	0.04399686
25	0x3c402755	0.0117281275
26	0xbca83cb8	-0.020536765
27	0x3d1285fe	0.035772316
28	0xbcf2690a	-0.029591102
29	0xbd10a181	-0.035310272
30	0xbc918ad2	-0.01776639
31	0x3c396f27	0.011318005
32	0xbb77c88a	-0.003780874
33	0xbd25a1ef	-0.040437635
34	0xba00c088	-0.0004911502
35	0x3d233f87	0.039855506
36	0xbc3bda9e	-0.011465697
37	0xbd4a6d58	-0.049420685
38	0xbcbe5d63	-0.02323789
39	0x3c870f8e	0.01648691
40	0xbb0a5d28	-0.0021112654
41	0x3cedacf5	0.029013136
42	0x3d3e2666	0.04642334
43	0x3bfd8afa	0.0077375146
44	0xbce28acd	-0.027654076
45	0x3c3498b7	0.011022738
46	0xbc0943c7	-0.008377976
47	0xbcb753e5	-0.022378871
48	0xbc2c6652	-0.010522442
49	0x3cf13a48	0.029446736
50	0x3d13ddb7	0.036100116
51	0x3ceea407	0.029130949
52	0xbc9482b3	-0.018128728
53	0xba907bc2	-0.0011023211
54	0xbcfc0677	-0.030764801
55	0x3bdb8436	0.0066991104
56	0x3cb2bca0	0.021818459
57	0xbc0e5712	-0.008687751
58	0x3ce4f288	0.02794768
59	0x3c2419d7	0.010015926
60	0xbd28ce00	-0.041212082
61	0x3bbbcf21	0.005731479
62	0x3d62d4c2	0.055378683
63	0x3cd908af	0.026493398
64	0xbce2929f	-0.027657805
65	0xbab7a040	-0.001400955
66	0x3c6da8fa	0.014505619
67	0x3cb6e06d	0.022323811
68	0x3d1bbdf1	0.03802294
69	0x3c842a28	0.016133383
70	0xbcf3b3f8	-0.029748902
71	0x3cc57c71	0.02410719
72	0xbceef17d	-0.029167885
73	0x3d3061ee	0.043062143
74	0xbc9070b3	-0.017631864
75	0xbbac0909	-0.0052501005
76	0x3b585fd4	0.0033016102
77	0x3c065605	0.00819922
78	0xbce4b659	-0.027918981
79	0xbc57c63a	-0.0131698195
80	0xbd3ee6c3	-0.04660679
81	0xbc7438ab	-0.014906089
82	0xbd101cdb	-0.03518377
83	0xbd608f03	-0.054823887
84	0x3c421d6e	0.011847837
85	0xbaa25d0b	-0.0012387348
86	0xbd6273e5	-0.055286307
87	0xbc73b242	-0.014874043
88	0xbaee5d44	-0.0018185754
89	0xbafc6987	-0.0019257524
90	0x3d361f28	0.044463307
91	0xbd21a155	-0.0394605
92	0xbcbcdc13	-0.023054158
93	0x3c92ca4e	0.017918732
94	0xbca4cdae	-0.020117607
95	0xbd40acf2	-0.047039934
96	0x3cfa4d27	0.030554367
97	0xbc309ddf	-0.010779827
98	0x3d24f8e8	0.040276438
99	0x3d623619	0.055227373
100	0xbb88469e	-0.004158809
101	0xbba2a20d	-0.0049631656
102	0xbb099034	-0.0020990493
103	0xbc025801	-0.007955552
104	0xbcafa556	-0.021441143
105	0x3c60398b	0.013685594
106	0x3cdec73f	0.027194617
107	0x3be9c1c2	0.0071336934
108	0xbbd1c429	-0.006401558
109	0x3c54589b	0.012960578
110	0x3d132e81	0.03593302
111	0xbcf3463e	-0.02969658
112	0x3caffcee	0.021482911
113	0x3d4e95e3	0.050435912
114	0xbc2504b6	-0.010071924
115	0x3d4a1c90	0.049343646
116	0xbca1ef48	-0.019767419
117	0x3cb70821	0.022342743
118	0x3d0280c5	0.031861085
119	0x3b4fbbce	0.0031697634
120	0xbd484e41	-0.048902754
121	0xbd2452ca	-0.040118016
122	0x3c8c0857	0.01709382
123	0xbd5e5645	-0.05428149
124	0x3d048c37	0.03236028
125	0xbd6318a4	-0.05544342
126	0xbcde57f1	-0.027141543
127	0xbc6fd44e	-0.01463802
128	0x3d4b32ce	0.049608998
129	0xbd14581d	-0.036216844
130	0xbd16a9b5	-0.03678294
131	0x3d61437f	0.05499601
132	0xbc8c52b4	-0.01712928
133	0x3d05c96c	0.032662794
134	0xbd1b9d25	-0.03799166
135	0x3cfd5988	0.03092648
136	0xbc9ef3cf	-0.019403366
137	0xbd074a22	-0.033029683
138	0x3ccf8960	0.02533406
139	0xbbf37ac2	-0.0074304054
140	0xbd33ac18	-0.043865293
141	0xba1c95a9	-0.0005973229
142	0x3ce696da	0.028148104
143	0x3c44c90e	0.012010826
144	0xbc232cc9	-0.009959408
145	0xbc72b889	-0.014814504
146	0xbcf334ae	-0.029688206
147	0x3c72cb05	0.014818911
148	0x3ca0bd62	0.019621555
149	0x3d41ece6	0.047345065
150	0x38dfcdb5	0.000106717845
151	0x3d5ce890	0.053932726
152	0xbc8e567f	-0.017375229
153	0x3c552791	0.013009922
154	0xbd25feae	-0.040526085
155	0xbd2e82c3	-0.042605173
156	0xba26a5d8	-0.000635711
157	0xbbb60f0b	-0.0055559925
158	0x3d5c7f04	0.05383207
159	0xbc000106	-0.007812744
160	0xbc8202da	-0.0158705
161	0xbd25265f	-0.040319797
162	0xbb9eb1e1	-0.004842982
163	0x3c84ba02	0.016201977
164	0xbd243f8a	-0.040099658
165	0xbcd381ab	-0.025818666
166	0x3c8338d0	0.016018301
167	0xbb6123a1	-0.0034353512
168	0x3d34f3c1	0.044177774
169	0x3c4925c0	0.012277067
170	0x3cc45676	0.023967009
171	0xbc9f70de	-0.019462999
172	0x3c952067	0.018203927
173	0xbcf713f5	-0.030160883
174	0x3c76f3d7	0.015072784
175	0xbb20d873	-0.0024543076
176	0xbcf8073e	-0.03027689
177	0x3c76d9d2	0.015066581
178	0xbc87ebb9	-0.016591894
179	0x3ccf7c3e	0.025327798
180	0xbcb50422	-0.022096697
181	0xbd2aa863	-0.041664492
182	0x3d18c945	0.03730132
183	0x3d57b533	0.05266304
184	0xbc75f909	-0.015012988
185	0x3d2d5e21	0.042326096
186	0xbb060714	-0.0020450996
187	0xbd095e21	-0.033537034
188	0xbcd877f3	-0.026424384
189	0xbb10e2f9	-0.0022107942
190	0x3c676d21	0.014125139
191	0x3c6e7e00	0.014556408
192	0xbc3edf98	-0.011649989
193	0x3d50a9dc	0.05094324
194	0x3c5db7e3	0.013532612
195	0x3cac18c7	0.021007909
196	0xbcc96320	-0.0245834
197	0x3c105957	0.008810363
198	0x3d143654	0.036184624
199	0x3d4f8c4b	0.050670903
200	0x3d10d15f	0.03535592
201	0x3d052476	0.032505475
202	0x3d5f7f9c	0.054565057
203	0x3a297914	0.00064648804
204	0x3adb03d4	0.0016709515
205	0x3acb8026	0.0015525862
206	0x3c994cc1	0.018713357
207	0xbc820b53	-0.01587454
208	0x3ced1f5a	0.028945614
209	0x3cbebca1	0.023283305
210	0x3d4b77d4	0.049674824
211	0x3cb5dd49	0.022200244
212	0x3c3315c1	0.0109304795
213	0x3d421af0	0.04738897
214	0xbce3291d	-0.027729565
215	0xbd25c5c9	-0.040471826
216	0x3cbfaa75	0.02339671
217	0x3c2cc345	0.010544603
218	0x3d6e1171	0.058122102
219	0xbd264d74	-0.04060121
220	0x3cd09bcd	0.025464917
221	0xbd5479f9	-0.051874135
222	0xbc5589e6	-0.013033366
223	0xbc93d2ef	-0.018044917
224	0x3be089fb	0.006852386
225	0xbd3fde38	-0.046842784
226	0xbc61580f	-0.013753905
227	0xbce3e14f	-0.027817396
228	0xbcd3fd7a	-0.025877703
229	0xbbefb4b0	-0.007315241
230	0xbd0923e0	-0.03348148
231	0x3d02ca51	0.031931225
232	0xbd1f9bfb	-0.038967114
233	0x3d07cd9c	0.03315507
234	0xbcec76a1	-0.02886516
235	0x3cd31df5	0.02577112
236	0x3d1fcb70	0.039012372
237	0x3c15b9ec	0.0091385655
238	0xbcb22cf1	-0.021749945
239	0x3c973ec7	0.018462552
240	0x3c8686ed	0.01642176
241	0xbca18ed1	-0.01972142
242	0xbaa896b3	-0.0012862295
243	0xbcc6730e	-0.024224784
244	0x3ce64c8d	0.028112674
245	0x3d561d77	0.052274194
246	0x3d245513	0.040120196
247	0x3ca8d8fb	0.020611277
248	0x3ccd5af5	0.025067786
249	0x3a2516b7	0.0006297635
250	0xbd186d43	-0.037213575
251	0xbc57f1d7	-0.013180218
252	0xbca91c01	-0.020643236
253	0x3d2015fc	0.039083466
254	0x3cf6284e	0.030048516
255	0xbd35bbba	-0.044368483

fc3.weight f4 [1, 300]
0	0xbcef5e25	-0.029219696
1	0x3bab90c5	0.0052357637
2	0x3bb31aa5	0.0054658228
3	0xbb57e0f7	-0.0032940486
4	0xbc4e4487	-0.01258958
5	0x3b75dc7e	0.0037515457
6	0xba6c3f30	-0.0009012101
7	0xbcce0743	-0.025149947
8	0xbb33b727	-0.00274224
9	0x3ad83d52	0.0016497767
10	0xbbee780f	-0.0072774957
11	0x3b1c626c	0.0023862375
12	0x3bfc9be7	0.0077090147
13	0x3bc6ef01	0.006070972
14	0xbc81f24c	-0.015862606
15	0x3bc2e442	0.0059476206
16	0x3bbe5f8a	0.005809729
17	0x3c40f6a1	0.011777551
18	0x3c8cf888	0.017208353
19	0x3d85fe26	0.065426156
20	0xbce888df	-0.028385578
21	0x3c92f7ff	0.01794052
22	0xbc812d32	-0.015768621
23	0xbc3fe1af	-0.011711522
24	0x3cb589d8	0.022160456
25	0x3b627255	0.003455301
26	0xbd137a98	-0.036005586
27	0x39c69b4b	0.00037881205
28	0x3cf9db22	0.030499998
29	0x3b80477d	0.003914772
30	0x3d1de10a	0.038544692
31	0xba15196d	-0.00056876877
32	0x3c6d2288	0.014473565
33	0x3c492399	0.012276554
34	0xbc9ebbd5	-0.019376675
35	0x3c40a3e7	0.011757827
36	0xbb5fff82	-0.0034179394
37	0x3b7e0d1f	0.0038765145
38	0x3c76b4a8	0.01505772
39	0xbbc90ebd	-0.00613579
40	0xbaec150a	-0.0018011641
41	0xbbaa811b	-0.005203379
42	0x3ab14827	0.0013525531
43	0xbabb31e3	-0.0014281835
44	0x3b9119a9	0.0044281078
45	0xbd9b557e	-0.07584666
46	0xbc2bd5fe	-0.010488031
47	0x3932c4ee	0.00017048765
48	0xbb77f58b	-0.0037835564
49	0x3b3c3d34	0.0028723003
50	0x3c488b93	0.012240308
51	0xbd2bd3a2	-0.041949876
52	0xba957a0e	-0.0011404173
53	0xbbc57f4b	-0.0060271374
54	0x3c9365f0	0.017992944
55	0xbbc56bfe	-0.0060248366
56	0xba0aaadc	-0.0005289742
57	0x3c797c6e	0.01522742
58	0x3c4a7561	0.012357087
59	0xbaaf0bca	-0.0013354954
60	0xbc05882f	-0.0081501445
61	0xbbcfa524	-0.006336825
62	0x3c368c6e	0.0111418795
63	0x3d4c2bdf	0.049846526
64	0x3c46850c	0.012116682
65	0xbceea2ad	-0.029130304
66	0x3c858e7a	0.01630329
67	0x3d9a467d	0.07532976
68	0x3c5817b3	0.013189244
69	0x3b99b79a	0.0046910765
70	0xbc115d03	-0.008872273
71	0x3c6e57d7	0.01454731
72	0xbb7210de	-0.0036936323
73	0x3c7de206	0.015495783
74	0xbd3dffe9	-0.046386633
75	0x3b166925	0.0022950855
76	0xbc137120	-0.008999139
77	0x3cbbfe95	0.022948543
78	0x3a69e947	0.00089230057
79	0xbb10814d	-0.0022049726
80	0x3cbbce9d	0.02292567
81	0xbbfed9dc	-0.0077774357
82	0x3af65d27	0.0018796072
83	0xba6ecc38	-0.00091094105
84	0x3c5fab73	0.0136517165
85	0x3bf3a3bd	0.0074352906
86	0xbce30cf5	-0.02771614
87	0x3c0ba995	0.008524318
88	0xbc8d00ac	-0.017212234
89	0x3c234d64	0.009967182
90	0x3ce500e2	0.027954523
91	0x3c6d475e	0.014482347
92	0x3be08d7a	0.006852803
93	0x3d44c43d	0.04803871
94	0x3b8de72f	0.0043305377
95	0xbbab3a2c	-0.0052254405
96	0xbc4e0483	-0.012574318
97	0xbd8fbb9a	-0.07018204
98	0x3bfa6d09	0.0076423925
99	0x3d35463f	0.044256445
100	0x3cc67862	0.024227325
101	0xba6c9fc6	-0.00090264936
102	0x3c2d7e32	0.010589169
103	0xbb9f9be0	-0.0048708767
104	0x3b770a53	0.0037695363
105	0x3b99af87	0.004690114
106	0x3bb73095	0.005590508
107	0x3d826da0	0.063685656
108	0x3d4d9b25	0.050196785
109	0xbad0084b	-0.0015871612
110	0x3aaf3b21	0.0013369062
111	0xbbae50ae	-0.0053196764
112	0x3bc569dd	0.006024583
113	0x3d24dc65	0.040249247
114	0x3b8a67c8	0.0042237975
115	0x3b34aba1	0.002756812
116	0xbc80c3fd	-0.015718454
117	0xbad0ca61	-0.0015929454
118	0x3b444216	0.0029946617
119	0x3bf597f2	0.00749492
120	0xbc04adcf	-0.00809808
121	0xba635e09	-0.0008673375
122	0xbab23a3b	-0.0013597676
123	0xbd3459b6	-0.044030868
124	0x3b930f11	0.00448788
125	0xbb263ae0	-0.0025364682
126	0x3caabb83	0.020841366
127	0x3bde6183	0.0067865266
128	0x3b6c2cbb	0.0036037404
129	0xbcb43d5a	-0.022001911
130	0x3b89359d	0.0041872994
131	0x3c010fc1	0.007877291
132	0xb9e5c1c2	-0.00043822645
133	0xbb1db2b8	-0.0024062824
134	0x3adaa0f3	0.0016680047
135	0xbd039a18	-0.032129377
136	0xbd4f0c56	-0.050548874
137	0x3b995561	0.0046793674
138	0x3bf8521e	0.0075781485
139	0x3cf9d80d	0.030498529
140	0xbb24c244	-0.0025140205
141	0xbc172770	-0.009225711
142	0xbc131605	-0.008977418
143	0x3da0df30	0.0785507
144	0xbd6978d8	-0.05700001
145	0xbb4adade	-0.003095321
146	0x3c658c9f	0.014010577
147	0xbab60c58	-0.0013889177
148	0xbd0e41ee	-0.034730844
149	0x3a05ad87	0.0005099405
150	0xbb7dd9d0	-0.0038734563
151	0xbd806c99	-0.06270713
152	0x3b3c41c1	0.0028725716
153	0x3bc60544	0.006043108
154	0xbb4db27a	-0.0031386898
155	0x3a63018c	0.00086595933
156	0xbab5ef8a	-0.0013880592
157	0x3b3cd6c6	0.0028814538
158	0x3bae1bf5	0.0053133913
159	0x3bb39563	0.005480455
160	0x3b169e92	0.00229827
161	0x3ba5d89c	0.0050612222
162	0x3c7c8074	0.015411485
163	0x3c2344bf	0.009965121
164	0xbb8082d1	-0.0039218445
165	0xbbace562	-0.005276368
166	0x3be89205	0.007097485
167	0xbc01f30a	-0.00793148
168	0x3bd2c343	0.0064319684
169	0xbae5e9b8	-0.0017540967
170	0x3bc1be1f	0.005912557
171	0xbc238723	-0.00998095
172	0xbc7bff98	-0.0153807625
173	0xba90497d	-0.0011008229
174	0x38aa9c43	8.135338e-05
175	0xbcfaab22	-0.03059918
176	0xbbc5f080	-0.0060406327
177	0xbc06c650	-0.008225992
178	0xbae8433d	-0.0017720234
179	0xbd41df3a	-0.047332026
180	0xbc035911	-0.008016841
181	0xbbb4495f	-0.0055019106
182	0xbb9459ad	-0.0045272917
183	0x3cdde77c	0.02708792
184	0x3da2a0cc	0.07940826
185	0x3d3fb3db	0.046802383
186	0x3c31bf87	0.010848886
187	0xbad07451	-0.0015903806
188	0xbc0c6f75	-0.008571495
189	0x3c77c716	0.015123149
190	0x39b41875	0.00034350497
191	0xbc833fb6	-0.01602159
192	0x3b739389	0.0037166795
193	0x3be663a0	0.007030919
194	0x3a96a9fa	0.0011494749
195	0x3b44ece8	0.0030048434
196	0xbba3a430	-0.004993938
197	0xbb27a845	-0.0025582474
198	0xbb73359f	-0.0037110818
199	0x3d837652	0.06419052
200	0x3ba87e49	0.0051420075
201	0xba525dff	-0.0008024871
202	0x3c376205	0.011192803
203	0x3cbd4f40	0.023109078
204	0x3ce848b7	0.028354986
205	0x3baab1c6	0.0052091805
206	0x3b85946a	0.00407653
207	0xbc8bae02	-0.017050747
208	0xbb5e4aab	-0.0033919017
209	0x3b8414e9	0.004030813
210	0x3b52181e	0.0032057832
211	0x3cc17ab0	0.023618072
212	0xbbde6359	-0.0067867455
213	0xbd11df78	-0.035613507
214	0xbb904124	-0.0044022966
215	0xbc9bfdbd	-0.01904189
216	0xb9c8edf4	-0.00038324262
217	0x3a8dc941	0.0010817425
218	0x3d65498d	0.055978347
219	0x3b15625f	0.002279423
220	0x3ba8446c	0.0051351096
221	0x3a3b968a	0.0007155916
222	0xbb58608e	-0.0033016535
223	0x390a02c6	0.00013161739
224	0xba784434	-0.0009470612
225	0xbb8ade51	-0.004237928
226	0x3c7537d4	0.014966924
227	0x3c1db363	0.009625289
228	0x3d067cfc	0.03283404
229	0xbb0bf01d	-0.0021352835
230	0xbc46c21b	-0.012131239
231	0x3cabf04c	0.020988606
232	0xbb66f3ab	-0.0035240452
233	0xbcfcd2a8	-0.030862167
234	0xbcf353c8	-0.029703036
235	0x3ac74835	0.0015204014
236	0x3c6d8658	0.014497362
237	0xbbeeedb9	-0.0072915223
238	0xbcbe3064	-0.023216434
239	0x3bea1967	0.0071441415
240	0xbb0d81af	-0.002159219
241	0x3abbf77b	0.0014340723
242	0xbbc9d45c	-0.0061593484
243	0xba11b58f	-0.00055583654
244	0x3bf7d8ae	0.007563672
245	0x3d6a4ef8	0.057204217
246	0x3c0e1535	0.008672048
247	0x3d800bf5	0.062522806
248	0x3c927614	0.01787857
249	0xbd1154c0	-0.035481215
250	0xbd6cac46	-0.05778148
251	0xbc9e85c3	-0.019350892
252	0x3c15a7de	0.009134261
253	0x3b98ba54	0.004660884
254	0x3d1297ac	0.035789177
255	0xbc086295	-0.008324285
