p2_continuous-control/checkpoint_critic.pth (torch_old, 170066 bytes, 5 tensors)

fcs1.weight f4 [256, 33]
000000 4e 45 0a 3e c8 31 c5 3c eb 9d 04 3d 2e 5b 27 bc
       0.13503 0.02407159 0.032377165 -0.01021461
000010 58 49 94 bc 46 fb ce ba 86 68 98 bc 08 27 b5 3b
       -0.01810138 -0.0015791438 -0.018604528 0.0055283345
000020 6d a5 23 3e 9d 99 94 3c 09 9a 21 3d 85 f6 ca 3b
       0.15981074 0.018139655 0.03945354 0.006193938
000030 2c 7e c8 bc 33 21 1b be 3e 2d 18 3d f9 25 ae bd
       -0.024474226 -0.15149383 0.03715252 -0.085033365
000040 d8 f8 95 bc 41 fc 8e bc 1f d9 42 3b ad 86 bb 3b
       -0.018307135 -0.017454268 0.0029731465 0.0057228417
000050 83 91 9c bc 3e ae 93 bd b6 f1 80 bc 49 2c 76 bd
       -0.019112354 -0.072109684 -0.015740257 -0.060100827
000060 c5 fc 25 3c 66 53 3f bc 80 e7 b7 3c 0a 49 e8 3d
       0.010131066 -0.011677599 0.022449255 0.11342056
000070 fd d9 dd 3d ac 88 90 bc d1 16 30 be 64 ec 82 bc
       0.108325936 -0.017643295 -0.17196204 -0.01598186
000080 b2 34 85 3e f1 f9 03 bc 0b f8 3a 3d 6a 85 87 3d
       0.26016766 -0.008055196 0.04564671 0.066172436
000090 8b 4c cf bc 58 bc 15 bd f4 2b 5a 3c 35 6c a1 bc
       -0.025305053 -0.03655657 0.013316143 -0.019704917
0000a0 38 7b f4 bc 5b b1 52 bc a1 2b 16 bd 4a 30 d2 3d
       -0.029843912 -0.012859668 -0.0366627 0.10263117
0000b0 4d 6a 41 bd bc 0f 66 bb 6b 8d c2 3b 83 55 95 bd
       -0.047220517 -0.0035104593 0.0059372685 -0.07291701
0000c0 6b a4 7e bc ad e8 13 3d 4b a9 53 bc 1a b1 db bc
       -0.01554213 0.03611057 -0.012918781 -0.026817847
0000d0 e5 cd d6 3c 88 9d 89 3b 1e 7e eb bc d4 31 17 3c
       0.026221225 0.0041996874 -0.02874666 0.009228189
0000e0 59 1c 09 be 12 e1 d6 bc f1 1d b8 3c bb 64 a8 3b
       -0.1338972 -0.026230369 0.022475215 0.005138961
0000f0 1f bb da 3d 2b 0b 1b bb d4 55 d5 bc c2 ce e8 bd
       0.10680222 -0.002365778 -0.026041903 -0.11367561
000100 70 25 c1 bb 3b c8 42 3d 0a 14 23 3e 2e ed 1b be
       -0.0058943555 0.047554236 0.15925613 -0.15227196
000110 30 c8 ec 3c 21 8b 35 bc 5a c3 cf bc e5 c5 a8 bc
       0.02890405 -0.011080534 -0.025361706 -0.020602176
000120 a2 ee c9 3b 99 0d a8 bd ff 70 79 bd 41 33 1c be
       0.0061624805 -0.082057185 -0.060898777 -0.15253927
000130 ab 99 e4 3c c8 52 aa 3c 20 24 de 3c 8b 2f ba bd
       0.027905306 0.020791426 0.027116835 -0.09091099
000140 aa e5 de 3d 62 d2 de 3d 28 5d 29 bc 43 52 8d bc
       0.10883649 0.10879971 -0.010337152 -0.01725114
000150 e6 db e2 bb 47 12 ce bb 8b 78 de bd ff bc 41 bd
       -0.0069231866 -0.0062888 -0.108628355 -0.04729938
000160 61 df ac bb f3 eb 14 bd 28 a1 80 3d 56 7c da 3b
       -0.0052756523 -0.03635783 0.06280738 0.006667654
000170 c6 59 16 3d a8 ba a3 3d 4c 76 de 3c 34 23 7e bd
       0.03670671 0.07994586 0.027156018 -0.06204529
000180 43 a7 1c bd da 5b 3e bd 68 75 b2 3d b3 98 b9 3d
       -0.03824545 -0.046474315 0.087138 0.09062328
000190 7b a6 ee 3d 6e cd 94 3d 1e 98 02 bb 2e 40 45 3c
       0.116528474 0.07265745 -0.0019927095 0.012039227
0001a0 85 3c 82 3b 8e e3 bb bc 0e f8 88 3c e1 9b 30 be
       0.0039744996 -0.022935655 0.016719844 -0.17246963
0001b0 e9 b9 8f 3c 56 6c 7c 3b f4 99 f4 3d 36 98 cf bb
       0.017544704 0.0038516722 0.11943427 -0.0063352836
0001c0 f8 ed 6a bc 67 9f 82 bc 04 22 2e bd 6f a5 0e 3c
       -0.014338963 -0.01594515 -0.04251291 0.008706435
0001d0 8d ad 79 3c 4f 46 6e 3c 3e 9b 82 3c 96 3d 06 3c
       0.015239132 0.01454313 0.015943166 0.008193394
0001e0 92 36 7f 3c f3 9d 61 bd 8f 7e 66 bd 66 09 89 bd
       0.015576975 -0.055082273 -0.05627304 -0.06691246
0001f0 03 4c b4 bb 8c 20 84 3c e0 30 5f bd 83 d6 e0 bc
       -0.0055022254 0.0161288 -0.05448997 -0.027446037
000200 c8 5f 41 bd 22 f8 84 3d 00 82 64 39 16 a4 2b 3c
       -0.047210485 0.0649264 0.00021792203 0.010476133
000210 0c 49 d4 bd a3 cd cd bb d0 85 ef 3d 97 59 d2 3c
       -0.10365495 -0.0062806173 0.116954446 0.025677485
000220 34 94 86 3c 24 c1 48 bc dd 53 b7 bc d0 61 dd 3c
       0.01642809 -0.01225308 -0.022378856 0.02702418
000230 e2 42 ae 3d 48 17 83 3c 7d be 5b bd 7d d7 00 3c
       0.08508851 0.016002312 -0.05364846 0.007863876
000240 cf d3 ed 3d 5c 66 09 3d 07 ab 84 3d da 0f 88 bd
       0.11612665 0.033544883 0.064779334 -0.066436484
000250 5e 55 49 3c 75 96 1a 3c 17 47 2d 3b 72 c4 fc bb
       0.0122884195 0.009435286 0.0026440078 -0.007713848
000260 44 69 64 3d 11 c4 17 bd 9a 9e 7b 3c 08 f0 2b bc
       0.05576445 -0.037052218 0.015357638 -0.01049424
000270 59 00 7a 3c ea 43 31 bd 7e 74 9f bd 13 ce 19 3e
       0.015258872 -0.04327766 -0.07785891 0.15020017
000280 61 f7 10 bd 50 05 0a bc a3 bd 6e be e0 a0 21 3b
       -0.03539217 -0.008424118 -0.23314528 0.002466254
000290 1f 6e 73 3b a3 9f 9f 3c 94 b9 df 3d e0 dd ea bd
       0.0037144495 0.0194853 0.10924068 -0.114681005
0002a0 94 a3 e1 3c aa 3d 90 bc 59 20 97 bc a0 63 d8 bb
       0.02754382 -0.017607529 -0.018448042 -0.006603673
0002b0 f3 a7 8c bd e7 d6 a4 3e 02 42 65 be e5 92 af 3d
       -0.06867971 0.32195207 -0.22388461 0.0857294
0002c0 5c de 55 3d fa dd d4 bd 05 50 c4 bc b9 4c 0f 3d
       0.05221401 -0.10393901 -0.023963938 0.034985278
0002d0 15 c4 d4 3a 29 a0 f0 3b 47 c9 38 bc 30 07 70 3b
       0.0016232753 0.0073433113 -0.011278457 0.0036625378
0002e0 92 40 52 3c 2d 8a c3 bb 72 a9 29 3d be ba 08 bd
       0.012832778 -0.0059673996 0.04142136 -0.033381216
0002f0 5f be 4f 3c 25 c4 df 3c f8 18 40 3d 8c 9a 18 3d
       0.012679665 0.027315209 0.046898812 0.037256762
000300 c0 66 4b 3d 35 85 bb bb f8 41 79 bc 9d 1d 8c bd
       0.049658537 -0.0057226666 -0.015213482 -0.06841586
000310 f4 e7 13 bd 1e 81 e1 bd 91 49 ac bc a6 18 a2 3b
       -0.03610988 -0.11010955 -0.021031173 0.004946786
000320 4e 02 1e bd 00 df a2 3c 4f f3 fe 3c d4 b7 49 bd
       -0.038576417 0.019881725 0.031121878 -0.049247578
000330 d3 87 0b 3c 58 b0 5c 3c c6 65 e8 3d 68 3a 1a 3e
       0.00851627 0.013469778 0.11347537 0.15061343
000340 ef 27 7c bb 0b 39 c6 3d 0c 39 12 3d 99 49 3f bd
       -0.003847595 0.09678849 0.035698935 -0.046701048
000350 39 a1 a6 3d b4 fb 83 bd 44 b6 0a 3c a0 b9 ca 3c
       0.081362195 -0.06444493 0.008466307 0.024746716
000360 46 bc ec 3b b9 5a f6 3a c6 48 a5 bd 7b 7b 40 3c
       0.0072245924 0.0018795348 -0.08070521 0.01174819
000370 27 86 16 bd 1b bb 89 3c 1c 61 44 bd c6 a3 cb bd
       -0.03674903 0.016812852 -0.047944173 -0.09943347
000380 44 a0 50 3d d7 86 a6 3d 12 bd bf bb 56 ee 04 3d
       0.05093409 0.081311874 -0.0058513964 0.032453857
000390 d9 41 a7 bd e4 a5 d7 3c d3 a8 ec be d4 88 19 3e
       -0.08166856 0.02632422 -0.46222553 0.14993602
0003a0 e6 b0 11 3e 78 d3 c5 3d f4 b5 b2 bb 35 03 b8 3c
       0.14227638 0.09659475 -0.0054538194 0.022462467
0003b0 25 98 03 3c 0a 36 23 3c 72 4e 01 3d b0 6b 90 3d
       0.00803188 0.009961614 0.031568952 0.0705179
0003c0 96 ce 89 bd 7a 4c 50 3d d7 0d 20 3d a0 aa 0a bd
       -0.06728856 0.050854184 0.0390757 -0.033854127
0003d0 ea ec 19 be f4 a9 8e bd f2 39 10 be ca da 31 bc
       -0.15031782 -0.0696601 -0.14084604 -0.010855386
0003e0 a1 87 0c bb ee d5 a6 3c e2 fc 83 3c 84 2a 8c 3c
       -0.0021443146 0.020365681 0.016111795 0.017110117
0003f0 79 8d cd 3c b9 12 0d 3d 83 ae 31 bd da 3d 58 bd
       0.025091873 0.034441683 -0.043379318 -0.05279336

fcs1.bias f4 [256]
000000 c5 bc 44 be 0b 8d 19 be 6f 96 b0 3d f9 37 06 bc
       -0.19212635 -0.1499521 0.08622443 -0.008192056
000010 f5 87 c4 bd 2a 68 b6 bd 6a 58 93 be f2 66 2d 3c
       -0.09596244 -0.089065865 -0.28778392 0.010583626
000020 92 e4 a2 3d 0a 19 04 3e 2f 51 6a be a8 9f 1e 3e
       0.079537526 0.12900177 -0.22882532 0.15490592
000030 29 52 5b bd 69 b1 42 3e 5a e4 37 3e 58 6f c7 3d
       -0.05354515 0.19012989 0.17958203 0.09738034
000040 aa 7d 90 bc 3f 97 4e bc db d6 ae bd 91 e7 7f be
       -0.017638046 -0.012609302 -0.08537074 -0.2499068
000050 52 d4 81 bd 96 cf 1c be f8 d7 ba bc 02 cb f1 3b
       -0.06339325 -0.15313563 -0.02280806 0.0073789367
000060 45 58 7b be 5f f4 83 bd 01 37 52 3e 9e 14 09 3d
       -0.24545391 -0.064430945 0.20528795 0.033466928
000070 72 13 05 bd ab 5c a0 bd fe 69 71 bd 56 fc 63 bc
       -0.032489248 -0.07830175 -0.058938973 -0.013915142
000080 9f 8f 7a 3c 26 40 ba be e7 91 0d be 28 7c 36 3e
       0.015293031 -0.36377066 -0.13825189 0.178208
000090 74 3e 83 be b7 c6 11 be ac 57 0e 3e f5 30 96 3d
       -0.25633585 -0.1423596 0.13900632 0.073335566
0000a0 bb f5 52 be 69 b0 ef bd 0d c2 28 3d 77 f1 80 3d
       -0.20601551 -0.117035694 0.041200686 0.06296056
0000b0 13 b2 b0 3c 10 5d 1e be 44 a2 6a 3d 36 f8 a4 bc
       0.021569287 -0.15465188 0.057283655 -0.020137887
0000c0 95 52 aa 3d b8 39 fc 3d 30 3a 88 be 21 1a 80 3c
       0.083165325 0.123156965 -0.26606894 0.01563746
0000d0 77 97 4a be f1 85 37 3c 11 a1 fe bd e1 5e 57 3d
       -0.19784342 0.011201368 -0.12433065 0.052580718
0000e0 13 31 84 bd b6 19 60 3d 8d 25 ea bd 6f 39 a2 bc
       -0.06454673 0.05471202 -0.114329435 -0.019802777
0000f0 5d f6 a0 bc 53 85 67 be 43 b6 f0 3c f9 77 07 3d
       -0.019648725 -0.22609453 0.029383784 0.0330734
000100 56 1f a1 bd 06 92 4a be 38 5f 40 3e 4c 58 c9 bd
       -0.07867305 -0.19782266 0.18786323 -0.098312944
000110 69 df 5d 3d c2 7b 0c be b5 f1 a4 3b be 53 55 be
       0.05416814 -0.13719085 0.0050336965 -0.20832726
000120 a0 0e 4a be 79 1a c7 bd 7a 6a 60 3c 99 38 17 3e
       -0.19732141 -0.09721846 0.013697261 0.14767684
000130 0a a1 54 be 37 a5 fe bd f1 65 02 be 17 51 18 bb
       -0.20764557 -0.12433856 -0.127342 -0.0023241693
000140 ca 6f 6f 3d 63 f6 b6 ba 8f a6 f4 bd 3e fe ca bd
       0.05845622 -0.0013958927 -0.11945831 -0.09911774
000150 29 7a 5f 3c 8e 39 0a 3e f3 26 63 be 72 40 22 be
       0.013639965 0.13498518 -0.22182827 -0.15844896
000160 32 99 6a be c3 56 ae 3c 4a 13 2a be 5c 08 2c 3d
       -0.22910002 0.021281606 -0.1660892 0.04200016
000170 ff a0 cc 3d 30 bd 3c 3e f5 c2 a2 bd 8a 55 36 3d
       0.09991645 0.18431544 -0.07947341 0.04451517
000180 59 1c f6 bd 60 77 43 be 5e 00 06 bd 96 d9 ec 3c
       -0.12017126 -0.19088507 -0.032715194 0.028912347
000190 f8 cc 75 3d 12 60 44 bc 59 4b a3 bd 69 ba c3 bb
       0.060009927 -0.011985796 -0.07973356 -0.0059731496
0001a0 b2 28 12 bb 9b ef e0 bc 76 f0 46 be cb 3d 6d 3a
       -0.0022302088 -0.027458003 -0.19427666 0.00090500404
0001b0 3c 63 64 3d e7 6a 17 bc eb c6 34 3e 8c 30 46 be
       0.0557587 -0.009241796 0.17654006 -0.19354457
0001c0 48 3e 12 be 64 a4 4f be cb 61 3a 3d 15 58 c5 bb
       -0.14281571 -0.20277554 0.04550342 -0.006022463
0001d0 fc ad 75 be 04 45 89 bd d3 00 e0 3d b9 f8 13 bd
       -0.23992151 -0.06702617 0.10937657 -0.036125872
0001e0 e5 12 bf 3c e1 47 13 3e 21 f7 00 be cb a1 f8 3d
       0.02332444 0.14382888 -0.12594272 0.121402346
0001f0 9d 31 c3 3d 90 58 93 3d e7 4d 28 be 6b 41 21 be
       0.09530947 0.07194626 -0.16435967 -0.15747611
000200 0a dd b9 bd de 25 04 be 92 6a 5f bd 3c 2b 19 be
       -0.09075363 -0.1290507 -0.054544993 -0.14957899
000210 0b de 27 b7 ec c9 91 be 96 94 35 bc 59 55 a1 3d
       -1.0005674e-05 -0.28474367 -0.011082789 0.07877607
000220 98 46 31 3a 30 8f f0 bd 77 e5 a5 bd 53 33 05 be
       0.00067625334 -0.11746061 -0.081004076 -0.1300786
000230 6b 4e dd bd 9a a2 a7 bd a6 3c 43 3b 3a 0f a7 bd
       -0.10805973 -0.08185311 0.0029790788 -0.08157201
000240 be 54 d4 bd 5b 15 e2 bd db 5c 44 be 88 ed b3 3d
       -0.10367726 -0.110392295 -0.19176047 0.0878554
000250 ed a3 fb 3d 04 b2 26 be 92 d5 02 be 83 f1 99 bc
       0.12287126 -0.16278845 -0.12776783 -0.01879192
000260 47 c7 31 3d 76 ce c5 bd 27 98 29 3c be 73 fe bc
       0.043402936 -0.0965852 0.010351217 -0.03106105
000270 8b fb c0 bd d9 6d a0 3d 58 b5 ed bd 74 ae 97 be
       -0.09422978 0.07833452 -0.11606854 -0.29625285
000280 69 ab 10 3d 80 df 71 be 8a d4 76 3d a4 88 d0 3d
       0.03531972 -0.23620415 0.060261287 0.10182312
000290 15 b9 9b 3d 1b 38 13 be 04 15 13 be 68 85 c4 bd
       0.07603661 -0.14376871 -0.14363486 -0.09595758
0002a0 6c 8f 3e be 86 25 c8 3b 91 89 0d 3e 4e 16 3b 3e
       -0.18609399 0.006107989 0.13822009 0.18270227
0002b0 93 d5 3c be 9a fb d5 bd ca f1 ed bd f3 42 e6 3c
       -0.18440847 -0.1044838 -0.11618383 0.028108096
0002c0 2b 45 73 be 89 8b 80 bd 5d b5 26 be fd 7a 5c be
       -0.23756854 -0.06276614 -0.16280122 -0.21531291
0002d0 ad 7d 45 be 2b e2 82 bc 68 2f fe 3b 9e 18 9e be
       -0.19286223 -0.015976986 0.007757116 -0.30878156
0002e0 ea cd ce 3c 21 3b 2f bd 71 f5 7c 3d 2c 60 31 be
       0.025244672 -0.042781 0.06175751 -0.17321843
0002f0 1f 44 6d be 4f 93 8d 3d e5 62 97 bd 39 e5 cf 3d
       -0.23170517 0.069128625 -0.073919095 0.101511426
000300 f8 5c 09 3e 9c bb 1d be 75 92 d1 bc 00 17 b4 bd
       0.13414371 -0.15403599 -0.025582531 -0.087934494
000310 0a f5 45 bd ba 80 eb 38 9c 68 a8 be c9 96 44 bc
       -0.04832939 0.000112296504 -0.3289231 -0.011998841
000320 ff c9 d8 3d 02 02 36 3e c6 e5 85 bc b1 92 a8 3d
       0.10585403 0.17774203 -0.016344916 0.08231104
000330 47 79 26 bc e0 e3 6d be 55 c3 70 be a2 5a 84 be
       -0.010160751 -0.23231459 -0.23512013 -0.25850397
000340 15 f5 21 3d d9 fb 91 3d 63 a7 4e be ed a8 de bd
       0.03954037 0.07128114 -0.2018104 -0.10872064
000350 f9 e2 2e be 1e 91 1f 3e 35 f6 4b be e9 75 73 3c
       -0.1707877 0.15582702 -0.1991814 0.014859655
000360 f6 b7 fb bd eb 5b 93 bd 53 d1 95 bd ee 98 44 3e
       -0.12290947 -0.07195266 -0.07315316 0.19198963
000370 35 aa 73 bd c4 3c 1d be 5b 02 31 bc 2d 98 75 be
       -0.059488494 -0.15355211 -0.010803784 -0.23983832
000380 0d 4e f8 3d b1 e3 1d be 27 a4 f0 bd 9c 4e 67 be
       0.12124262 -0.15418889 -0.117500596 -0.22588581
000390 05 57 2c be 6c 41 d8 3d bb ab 90 3c f8 c0 10 bd
       -0.1683007 0.10559353 0.017660012 -0.03534028
0003a0 69 1c 27 be a3 28 f5 3d 0b e9 08 be 38 c7 fe bd
       -0.16319431 0.119706415 -0.13370149 -0.12440342
0003b0 7a 78 27 3c 6e a8 e5 3c 11 42 36 be f9 6f 89 bd
       0.010221595 0.028034415 -0.1779864 -0.0671081
0003c0 67 0a 58 be 33 d7 97 be a6 a6 c7 bd ff a4 06 bd
       -0.21097718 -0.2965637 -0.097485825 -0.032872196
0003d0 84 47 15 be 34 60 b1 bd c2 05 87 3c e3 a8 ae 3d
       -0.14578062 -0.086609274 0.016482238 0.08528306
0003e0 74 01 de bc 9c 95 d4 3d 66 96 83 bd d2 d2 39 be
       -0.027100302 0.10380098 -0.064251706 -0.18146828
0003f0 32 ba f4 bd f1 bb f9 bb 31 05 34 be 4a 76 41 be
       -0.119495764 -0.0076212813 -0.17580105 -0.1889278

fc2.weight f4 [128, 260]
000000 26 2b e5 bd f8 ec 23 3d 79 47 84 bd e2 a0 30 3d
       -0.111898705 0.040020913 -0.06458945 0.04312218
000010 ee d4 73 3b 96 f7 5d be c6 41 9d 3d 47 6b aa 3d
       0.0037205773 -0.21676478 0.07678561 0.08321243
000020 0c e8 29 bd 85 bf 8d 3c 74 d6 a4 bd 9b 8d 64 bc
       -0.041481063 0.017303238 -0.08048716 -0.013949777
000030 99 ac a7 bc 7f 8c a7 bd 9b 8d 42 3d a1 de 80 3d
       -0.020468043 -0.081810944 0.047498327 0.06292463
000040 73 e8 fe bd a8 af c5 bd 17 37 88 3d bd 98 77 3e
       -0.1244668 -0.096526444 0.066511326 0.24179359
000050 83 e4 5f bd 80 11 85 bd d4 f7 7c 3d ca 37 00 be
       -0.054661285 -0.064974785 0.061759785 -0.12521282
000060 4c 77 88 be 7c 11 92 3c 41 43 9d 3b 3d 5d 9a 3d
       -0.26653516 0.017830603 0.004799277 0.07537315
000070 87 6c 21 bb ee 6d 85 3c 0d 59 a6 3d 85 e4 ec 3c
       -0.0024631338 0.01628777 0.08122454 0.02891756
000080 e2 1f 25 bd b7 78 ee bd 8d d6 e7 3d d0 14 19 be
       -0.04031361 -0.11644118 0.11320219 -0.14949346
000090 99 73 81 bc 8b 93 bc bd c4 ae 01 3e 24 2a 3a 3d
       -0.015802192 -0.09207829 0.12664324 0.045450345
0000a0 56 0d 67 be 0c 6f 71 3b 90 62 93 3c e8 74 e2 bd
       -0.22563681 0.003683987 0.017991334 -0.11057454
0000b0 0a 2e 51 3d 62 0e c0 3d b5 9e 9b bc b9 68 a2 bd
       0.051069297 0.09377743 -0.018996576 -0.079301305
0000c0 56 51 c6 3b 18 c1 c6 bc 18 9f 2a 3e f3 15 31 3d
       0.0060521765 -0.024261996 0.16662252 0.043233823
0000d0 14 78 4d bd 59 fc 9c bd 32 f9 14 bd 6d e9 14 bd
       -0.050163344 -0.07665319 -0.036370464 -0.036355425
0000e0 20 82 50 bd 4d c1 d7 bd b9 80 3a 3d 4e f4 ed b9
       -0.050905347 -0.10534916 0.045532916 -0.00045386184
0000f0 47 ca 04 3e eb 3e c4 bc da b3 df bc 0d 5e 9c 3d
       0.12967788 -0.023955783 -0.02730744 0.07635126
000100 19 4e 0a be a9 f9 2d bd df bd d1 bc ef 6c c5 bd
       -0.13506354 -0.042474423 -0.025603233 -0.09639918
000110 6d b4 3c 3d 3d d9 1d be bb 71 49 bd ae 97 81 bd
       0.046070505 -0.15414901 -0.049180727 -0.06327759
000120 31 b3 b1 3d 2d 47 86 3d 46 50 a4 bd f3 e3 96 3d
       0.08676756 0.065565445 -0.080231234 0.073676966
000130 84 41 0a bd c8 dc f6 bc 31 59 54 bd 80 2c 5f 3d
       -0.033753887 -0.030134574 -0.051842872 0.054485798
000140 e9 cf f1 3d 74 ff d5 bc c4 de 38 ba dc 2f 9a 3d
       0.11807234 -0.026122786 -0.00070522376 0.0752866
000150 9b 83 09 3d 54 67 a5 bd a9 22 13 bd 1e 36 19 be
       0.033572774 -0.08076349 -0.035921726 -0.1496205
000160 f6 b7 80 bd 63 aa 5f bd 79 df 2e bb 17 3b 3a bd
       -0.06285088 -0.054605853 -0.0026683493 -0.04546651
000170 d9 7f b6 bc 20 37 6a 3d 1d 88 73 be a8 88 ee bb
       -0.02227776 0.057181478 -0.23782392 -0.0072794743
000180 75 83 32 3d b3 bf 62 3d 1d b4 c8 bd 43 a2 bb 3c
       0.0435824 0.0553586 -0.09799979 0.02290452
000190 76 5e 18 bd 5d ad 88 bd c6 fe 25 be b7 25 67 bd
       -0.03719946 -0.066736914 -0.1621047 -0.056432452
0001a0 19 03 16 be 66 40 d1 bd cc 5f 47 be f1 fd 03 3e
       -0.14649619 -0.10217361 -0.19470137 0.1288984
0001b0 c5 41 5a bd d9 46 95 bc 7a 0c b7 bc 2f 30 8d 3d
       -0.05328538 -0.01822226 -0.022344816 0.06893956
0001c0 f2 c8 83 3d 53 88 8e bc 27 00 db 3d 3c ff 5f 3c
       0.06434812 -0.017398989 0.106933884 0.013671692
0001d0 19 95 f7 3c 5a 44 8b bd 9e 74 f7 bd 06 b0 3d bc
       0.030222462 -0.068001464 -0.1208279 -0.011577612
0001e0 e4 4a bf 3b f9 55 bf 3b 6a a0 34 ba 6d f5 52 3d
       0.005837785 0.005839106 -0.00068903586 0.051503588
0001f0 6f 36 d7 bc c9 44 ba 3d 4e f6 bc 3c 37 d5 f3 3b
       -0.026271073 0.09095151 0.023066666 0.0074411887
000200 ec e4 32 b8 a3 a3 6a 3d 83 f1 22 bd 23 53 7c 3d
       -4.2651707e-05 0.057284962 -0.039781105 0.061602723
000210 66 5f 1a bd 9b a6 71 bd c8 b0 b5 bd 81 2b cd bc
       -0.037688635 -0.058996778 -0.08871609 -0.025045158
000220 5d 43 eb bb 03 ab 2c be b9 25 80 3c b8 40 06 be
       -0.007179661 -0.16862111 0.015642988 -0.13110626
000230 1a ec 2b 3b 52 40 e3 3d bc b5 ba bd 18 3a 3e bd
       0.0026233257 0.110962525 -0.09116694 -0.04644212
000240 1e ac 76 bd 83 e5 e7 ba 8e 29 20 3e a1 e5 9d bd
       -0.060222737 -0.0017692301 0.15640852 -0.07709814
000250 f4 91 61 3d ea 1e b5 be 52 45 ca ba 19 a7 8b bd
       0.055070832 -0.35375148 -0.0015432036 -0.06818981
000260 69 11 30 bc b8 15 a2 3d 8c ae 37 3d ee 5b c7 bb
       -0.010746338 0.07914299 0.044844195 -0.006083957
000270 20 b8 70 be df 2a 34 3a 36 2d c5 3d 12 7a 39 3c
       -0.23507738 0.00068728434 0.09627764 0.011320608
000280 98 63 b1 3c 62 00 f3 bd 47 ab 99 bc c8 f1 91 bd
       0.021653935 -0.118653074 -0.01875843 -0.07126194
000290 42 d3 b3 bd b8 e1 45 3d 2d 8e 74 bc f3 5a c3 bd
       -0.087805286 0.048310965 -0.0149264755 -0.095388316
0002a0 be 36 24 3d 54 50 47 3d 14 c6 5b bd b4 6a 21 be
       0.04009127 0.04866059 -0.0536557 -0.1576336
0002b0 58 41 8e 3c cd b6 88 bd e4 e8 d8 3d 46 99 af 3d
       0.017365143 -0.066754915 0.10591295 0.085741565
0002c0 08 6c 1c be 75 e9 db bc 01 92 09 3c d2 e8 10 be
       -0.15275586 -0.02684472 0.008396626 -0.14151314
0002d0 a6 56 82 3c ba ea 31 be c3 ba 27 3d 14 b1 81 be
       0.015910458 -0.17374697 0.040949594 -0.25330412
0002e0 4f 1e bd bd 18 0b 1b 3e 17 af 25 bd 90 9e 73 3c
       -0.092342965 0.1514095 -0.04045018 0.014869347
0002f0 4a 93 82 bd 40 c2 6f bd dd 65 0b 3d ee 0f b8 bb
       -0.063757494 -0.05853486 0.03403269 -0.0056171333
000300 b2 f0 95 bd 19 ff 80 3d 40 88 32 bc fe 04 fb 3d
       -0.073212996 0.06298656 -0.010896742 0.122568116
000310 f3 73 4a bd 51 b1 29 3d ed f1 bc 3d 74 ef 3c bd
       -0.049426984 0.041428868 0.09225831 -0.046126798
000320 f2 50 0d 3b 52 b6 b6 3d 39 6e 52 bd 69 db 4d bd
       0.002156314 0.089214936 -0.051374648 -0.050258074
000330 65 97 6a bd 45 8b d8 3d 08 bf dc 3d fc 9d 02 bf
       -0.057273287 0.105734386 0.10778624 -0.51022315
000340 b0 dc 10 be 49 72 06 3d cc 11 fd bd 45 57 53 bd
       -0.14146686 0.032823835 -0.1235691 -0.0515969
000350 41 b7 85 bb 40 9c 9d bd d5 3a 8e bd 89 f9 1f be
       -0.0040806835 -0.07695818 -0.06944815 -0.15622534
000360 00 f9 31 bc 54 9f 85 bd a8 56 99 bd 14 66 df bd
       -0.010862589 -0.0652453 -0.074872315 -0.10908142
000370 79 c8 b3 3d b1 f1 22 b9 08 78 fd 3d 12 d5 94 3d
       0.087784715 -0.00015539561 0.1237641 0.072672024
000380 70 ea 56 3b 09 f1 b1 3c eb a0 12 3b 94 a5 04 be
       0.0032793544 0.02172138 0.0022373747 -0.12953788
000390 c0 85 09 be 49 95 54 be d9 c1 64 3c c1 d1 42 bd
       -0.13429928 -0.20760073 0.0139622325 -0.04756332
0003a0 b3 05 01 be d8 d3 5b 3d 80 8f 59 3d 2f c7 9a 3c
       -0.1259983 0.053668827 0.053115368 0.018893806
0003b0 e6 0b 06 be e2 f5 0a 3d be bf 61 3d 52 29 53 be
       -0.13090476 0.0339259 0.0551145 -0.20621231
0003c0 bf f4 9c bd fe c4 c9 bd e1 d6 03 bd 91 06 16 bd
       -0.07663869 -0.098520264 -0.032187346 -0.036627356
0003d0 75 7f 98 be 0a 98 f6 bc 6d 45 ef 3b 12 98 09 3d
       -0.29784742 -0.030101795 0.0073019774 0.03359229
0003e0 87 80 25 be 40 07 f8 bd da 95 11 3e b9 16 a3 3d
       -0.1616231 -0.12110758 0.1421732 0.079633184
0003f0 af 98 0e be f2 3e 00 3e 9e f7 05 bb 4e 21 90 3d
       -0.13925432 0.12524012 -0.002044178 0.07037602

fc2.bias f4 [128]
000000 a8 84 07 3d ed 5e 7c bd c9 59 2c 3d 5c e9 94 bd
       0.033085495 -0.061613966 0.042077813 -0.07271072
000010 96 e2 71 3d 87 ee cc 3d 05 16 00 3e fb d2 a0 bd
       0.05905398 0.10006433 0.125084 -0.07852741
000020 8b 0c 85 3d 81 bd 37 3d 8e ce 91 3d b5 64 b5 bc
       0.06496533 0.04485846 0.07119475 -0.022142747
000030 9d 6a a9 3d 36 e6 c1 bc ae 73 02 3e 8a 10 bd 3d
       0.08272288 -0.023669343 0.12739441 0.0923167
000040 0d 5f fc 3d 06 c3 e1 bb 40 6b 0c bd 60 b8 5d bd
       0.12322817 -0.0068897037 -0.03428197 -0.05413091
000050 eb be 2d 3c 6f ab 87 3c e7 bc 8c 3c ea 62 ce bd
       0.0106046 0.016561238 0.01717992 -0.1007746
000060 38 47 15 3d 55 16 86 bd e8 cd dc 3d c4 a4 d1 3c
       0.036444873 -0.06547228 0.10781461 0.025591262
000070 5e a6 76 bc 53 44 0d bd 4f a7 95 3c 06 02 73 3d
       -0.0150543135 -0.034488987 0.018268256 0.0593281
000080 99 8b b5 bd 20 34 af bc b1 91 d1 3d e4 1d 78 3c
       -0.08864517 -0.02138716 0.102328666 0.015143845
000090 f2 32 fd 3c af b7 a7 bb 28 54 a1 3d 4a cb 1f 3d
       0.030908082 -0.0051183323 0.0787738 0.03901223
0000a0 82 67 31 3d c9 1a 93 bd 9b 18 f2 3d aa e2 55 3a
       0.043311603 -0.07182843 0.11821099 0.0008159081
0000b0 20 15 1b 3d 15 4d a2 3b 76 46 14 bd 7f 5a 8e 3d
       0.037861943 0.0049530366 -0.03620001 0.069508545
0000c0 0b 76 21 3d 25 a1 5e 3d 36 d8 74 3b 2e 8d 7a 3d
       0.039419215 0.0543529 0.0037360317 0.061169796
0000d0 7d 30 5e bd 75 4f 04 3c 0c 29 8c 3d 4a 0e b2 3d
       -0.05424546 0.008075585 0.068437666 0.08694132
0000e0 dc 3d 0f 3e 3e cd b2 3d 0d 88 6b 3d 31 0d 80 3d
       0.13988441 0.08730553 0.057502795 0.06252516
0000f0 c7 8b 6a 3d aa 5c 73 3d 5f 26 04 3e d1 80 66 bd
       0.05726221 0.059414543 0.12905262 -0.056275193
000100 0c 57 9c bd d3 98 96 3d 6e 3e 75 bc e4 ea 32 bd
       -0.076337904 0.07353368 -0.014968498 -0.04368104
000110 aa 5d 1c 3c d2 61 f1 bb 4f a0 20 3d c1 33 5f 3d
       0.009543816 -0.0073663974 0.039215382 0.054492716
000120 6d 09 0f bd 09 a5 28 bd 9d 3e f2 3d a6 3b 30 bd
       -0.0349211 -0.041173015 0.11828349 -0.043025635
000130 82 d1 0a 3e 30 67 08 bb 9f 10 57 bd fd d2 b4 3d
       0.13556483 -0.0020813458 -0.052506085 0.08829305
000140 f7 44 25 bc 0c 27 d3 3c 14 1d 7f bc 90 0e 08 bc
       -0.010087243 0.025775455 -0.015570898 -0.008304253
000150 d9 05 b9 3d 23 b2 23 bd 86 2b 04 3e 98 30 18 bd
       0.090343185 -0.039964806 0.12907228 -0.037155718
000160 1c b2 26 3d 76 08 34 bb 70 d8 2f bd fc 87 9a 3c
       0.040697202 -0.0027470863 -0.04293102 0.01886367
000170 f1 c9 18 3e b8 84 3a bd a0 1e b8 bd 71 75 0d 3e
       0.14920785 -0.045536727 -0.08990216 0.13814332
000180 58 49 17 bb 8d d2 8b 3d c3 fe ac 3d a0 33 a7 3d
       -0.0023084488 0.06827269 0.084470294 0.081641436
000190 e4 1c a0 3d f9 f4 de 3d c5 6a 40 bc 8e 54 41 3d
       0.078180104 0.108865686 -0.011744206 0.04719978
0001a0 fb 76 c9 bc 17 d8 9a 3b 8f db 92 3d d9 c6 52 3d
       -0.024592867 0.004725467 0.07170784 0.051459167
0001b0 06 13 d7 3d ec 1a aa 3d 1f 15 4a 3d 3d e4 d4 3c
       0.10501675 0.08305916 0.04933655 0.025987739
0001c0 95 4e 36 bb 91 87 57 bb b0 04 a5 3d f8 de 36 3d
       -0.0027817835 -0.00328872 0.08057535 0.044646233
0001d0 1e 6f aa 3c e5 1e 96 3d 63 0d 28 be 94 a7 86 3d
       0.020804938 0.073301114 -0.16411357 0.06574932
0001e0 66 82 c0 3d 0e c5 90 3d 93 12 8b 3c bd 62 ea 3c
       0.093998715 0.07068835 0.01697663 0.028611535
0001f0 8d fd c6 3d 67 b1 c4 3b 8f 28 9e 3d 82 64 c0 bc
       0.0971633 0.0060025933 0.0772258 -0.023485426

fc3.weight f4 [1, 128]
000000 c7 11 31 be b0 39 3e be 39 9e a7 3d 6e 1a 45 be
       -0.17291938 -0.18576694 0.081844755 -0.19248363
000010 2c 3e 98 3d b8 0d 01 3d 23 a9 c0 bd 5e df 8c bd
       0.07433733 0.031507224 -0.0940726 -0.068785414
000020 62 1a 3c bd 67 9c 49 bd 18 f5 11 3e e5 c8 14 be
       -0.045923598 -0.049221423 0.14253652 -0.1452976
000030 65 1c 21 3d 78 ec 4a bd 9d c8 e6 3c 4a 2a 24 3d
       0.03933372 -0.04954192 0.028171832 0.040079392
000040 90 48 1e 3d 46 f8 5f 3e 03 bf 08 bd 82 58 45 be
       0.03864342 0.21872053 -0.033385288 -0.19272044
000050 59 ff 07 3e 4a 0d c2 bc 3b b4 c3 3d b7 8c ca bd
       0.13281001 -0.023687977 0.095558606 -0.098901205
000060 ff b4 b9 3d 9f ab 8a 3e 6f d1 02 3d 56 15 7f 3d
       0.090677254 0.27084062 0.031938013 0.062276207
000070 9f 9b 94 bd 42 ce cc bd c1 20 58 3d 1e 15 af 3d
       -0.07256245 -0.10000278 0.05276561 0.0854895
000080 82 35 a6 bd 08 d0 0c 3e c8 79 fc 3c cc 35 8b bd
       -0.081156746 0.13751233 0.030819789 -0.0679737
000090 80 d6 ec 3d 11 97 ce bd 51 54 9a 3d 4d 93 f6 3c
       0.1156435 -0.100874074 0.07535613 0.030099535
0000a0 47 72 e5 3d 61 27 50 bd e4 40 02 3d 09 95 42 be
       0.11203437 -0.050818805 0.031800166 -0.19002165
0000b0 ae 95 4a bd 82 85 00 3e 8e 75 83 be 4a a3 d8 bc
       -0.049459152 0.12550929 -0.25675625 -0.02644505
0000c0 b8 b3 15 3e 06 0c 20 3d 52 d6 69 bd 8d fd bf 3d
       0.14619339 0.039073966 -0.057089157 0.09374533
0000d0 b5 c5 00 be d6 2e ef bd 5d 84 a4 3d d1 40 87 3d
       -0.12575419 -0.11678855 0.08033059 0.066041596
0000e0 79 0e ee 3c 5a 31 0f bd f8 8d aa 3d 13 ab 24 3d
       0.029059635 -0.034959175 0.0832786 0.04020221
0000f0 59 a2 41 be ad 18 b7 bc cb 49 3d 3d d9 28 35 be
       -0.18909587 -0.022350634 0.046212953 -0.17691363
000100 6e d3 2d be 02 21 73 bd 15 82 36 bd 30 30 73 bd
       -0.16975185 -0.05935765 -0.04455765 -0.059372127
000110 e2 a1 20 bd 06 4e 46 bd 94 63 81 bd 8f 91 07 3e
       -0.039216883 -0.048414253 -0.06317821 0.1323912
000120 f4 77 be bd d9 d3 9f 3d 31 7f f4 3c 0e 83 be bd
       -0.09300223 0.078040786 0.029845806 -0.093023404
000130 b4 9f fe 3c 70 bb 03 3e 7e 7f 00 be c4 99 3c 3d
       0.031082012 0.1286447 -0.12548634 0.04604508
000140 2e 24 91 bd 3e f2 f7 bd 91 36 ea 3d c5 4b 5e bd
       -0.07086979 -0.12106751 0.11436189 -0.05427148
000150 9b 1e 53 3d 6a 41 8e be d0 7f 87 3d 91 ed cf bd
       0.05154286 -0.27784282 0.06616175 -0.10152734
000160 52 1f f6 bd e9 f7 02 3d 2b 96 77 bd 88 02 a0 bd
       -0.120176926 0.031974707 -0.060445946 -0.07812983
000170 25 0e 62 3d a5 ed 66 be 0b b7 56 bd ca fa 4d 3d
       0.05518927 -0.22551592 -0.052420657 0.050288
000180 5e 0b 5f 3d f5 f6 05 3d 63 50 10 be bc c4 b2 bd
       0.0544542 0.03270622 -0.14093165 -0.0872893
000190 dc f4 82 3d ca 2f fc 3c 7c 22 c6 bc e4 1b 2c be
       0.063943595 0.030784506 -0.024186365 -0.16807514
0001a0 3c ac 5c be 34 e1 5b be a1 b5 3d 3d cb 12 64 3d
       -0.21550077 -0.21472627 0.046315793 0.055681985
0001b0 0e 0b 4c 3d 47 f5 2e 3d ff 41 e3 bc f0 42 9c 3d
       0.04981523 0.042714383 -0.02774143 0.07629955
0001c0 97 f0 46 be 61 db 64 bd 17 aa 43 3d 2f 1b a7 bd
       -0.19427715 -0.05587328 0.047769632 -0.08159482
0001d0 eb 2b b9 bd 75 81 e0 3c 59 ab 0e be 14 92 55 be
       -0.0904158 0.02740548 -0.13932551 -0.20856506
0001e0 b9 e8 25 3e e9 21 d2 bc 43 0e 92 bd 10 ac 36 bd
       0.16202058 -0.025650935 -0.071316265 -0.044597685
0001f0 7b 1e bb 3d bf 2b d2 bc 70 4a 38 3d bb e1 3d be
       0.09136673 -0.025655625 0.044992864 -0.1854314
