p2_continuous-control/checkpoint_actor.pth (torch_old, 174337 bytes, 10 tensors)

normalizer.weight f4 [256]
00000000: 5281 573f a17e 3c3f cc54 743f 4564 683f
00000010: 9621 163f 9815 483f 6a54 053f 582a fe3e
00000020: 7924 b03f 21e3 123f ea67 0c3f 7be7 793f
00000030: 53bf 7e3f 7f06 233f 0bb6 493f 94dd 223f
00000040: bbd0 b63e 093b 743f 5e47 8d3f 8d87 853f
00000050: 270b 353f ed66 703f 59c3 853a fef0 333f
00000060: 0fea 4a3f 0114 973f 13a9 b43f 42c6 543f
00000070: 4624 293f ec3c 913f 21f1 033f a5c8 393f
00000080: c8bc 923f 5923 3f3f 92d9 3a3e f5a3 1b3f
00000090: 8e2c 893f 902d 2f3f 17d2 643f a87c 9c3f
000000a0: 5340 923f 65a7 5c3f a96f 493f f442 3e3f
000000b0: eb5f b63f 7cd6 e43e 772a 983f 6628 933f
000000c0: 25f6 123f 9738 593f 723c 583f 29e2 18ba
000000d0: a279 c93e 7475 263f fa14 da3e c7b9 4d3f
000000e0: ef64 513f cbc3 293f d001 9c3e 5b8b 133f
000000f0: 013b 8c3f 2d8c 2d3f 12ef 863f 811a 093f
00000100: 50f8 223f 9ce8 0f3f 0a49 723f 9543 553f
00000110: 9131 453f 6846 003f d1a5 3e3f 3ed0 9e3e
00000120: ad1b c83f 0b0f e93e 8015 453f 4b20 9e3f
00000130: 22ea 173f f0eb 383f 1b08 203f 0a56 3c3f
00000140: 416e 4d3f 95e4 943f d7c3 3d3f 8ee4 1f3f
00000150: 0f92 343f 851d a33f e497 503f 7c80 b03f
00000160: 2580 1e3f 4d1a 723f 24f3 de3e 358d d23e
00000170: aca2 043f fe62 123f c795 483f 44c5 303f
00000180: 8846 5d3f a6a3 803f 2654 6a3f ef19 c33e
00000190: d1a4 443f 004b 593f 034e 1a3f c8ee 473f
000001a0: 0b0d 603f bc0e 8d3f 39c3 403f e8a3 653f
000001b0: d4c7 0e3f 57b4 533f 00fd 633f 22a8 443f
000001c0: a5cf 403f b92b 4d3f 9336 1a3f d276 9b3f
000001d0: 8baa b43f ee9f 463f 1447 413f b907 023f
000001e0: dcd7 653f 41b2 e23e b81d 553f eeed 203f
000001f0: 4526 3c3f 449d 6b3f 0f31 063f 8432 343f
00000200: 2c11 123f 253b 253f 69da 1b3f eefe 013f
00000210: acf3 ee3e 8014 5d3f d451 5e3f 7749 3f3f
00000220: 313f 563b d86f 3a3d 16dd 463f e5b4 163f
00000230: 319e a03f c0a4 333f 06ec 7c3f 2f95 6d3f
00000240: 779a b73f 4b3f 693f 52ce 733f 3487 f43e
00000250: e25f 7fbf 394e 8c3e 29bb f03e e48f 1e3f
00000260: 5e74 fa3e c322 643f 2065 493f cfd2 ca3e
00000270: 1ee6 403f 02b4 2b3f 1875 413f a2ad 683f
00000280: 2e05 7f3f e437 363f a3bc e63e eb44 223f
00000290: a982 cd3f 4bd7 5b3f 2801 0e3f 0ac6 313f
000002a0: 68a9 6f3f d63f af3f 6206 873f c0c3 133f
000002b0: a309 4b3f a249 0f3f 4106 0f3f 2698 0c3f
000002c0: 44b7 1c3f d07e 5f3f 3848 7e3f 2ac1 6c3f
000002d0: 423e 8d3f 288e 233f 2fdd 3c3f b18f 623f
000002e0: fe4a 013f a8c1 5d3f 64b5 643f 59a0 853f
000002f0: de62 243f d6b5 323f 7aa8 483f b533 1f3f
00000300: 2e62 203f 7b8d 863f ec99 d7ba b4ee 233f
00000310: b925 473f 27e6 483f 0e49 a23e 70e5 6d3f
00000320: 75ac d23e 578f 223f 74ad 2e3f 5b51 633f
00000330: 1670 3e3f fbe1 1a3f d5f3 0c3f c926 8d3f
00000340: f610 3e3f 827b 3f3f 338c 183f 3091 1a3f
00000350: a61a 503f 0519 103f 476a 653f ffdf e53e
00000360: 228e 853f a14f 453f 2d2c 933f 573c 883f
00000370: 9f8a 3c3f 17f6 483f a29c 243f 7e71 c73a
00000380: 01d7 a83f 1a69 2b3f b048 72bf 1959 4a3f
00000390: 33ae 603f ef08 f93e 381f e73e 3cdd 373f
000003a0: c9f1 b03f 07e5 983f 221a 293f 7d58 523f
000003b0: 7fd7 533f c90a 203f b183 913f bde5 f03e
000003c0: 69bf 943f 51e9 183f 8f0a 213f 203d 393f
000003d0: 5c34 343f 1fa3 863f 0766 3e3f 45a6 113f
000003e0: 3d1a 2d3f 108f 963f 9544 ef3e 0ab2 fb3e
000003f0: 721e 293f 375e 913e c730 793f 666d 503f
0.841817 0.7363072 0.9544189 0.90778 0.58645 0.7815795 0.5208193 0.4964168
1.376113 0.5737782 0.5484606 0.97618836 0.9951069 0.6368179 0.787934 0.6361935
0.35706124 0.9540258 1.1037405 1.0431992 0.7072014 0.9390705 0.0010205313 0.702896
0.79263395 1.180298 1.4114097 0.8311502 0.66070974 1.1346717 0.5153981 0.72571784
1.1463861 0.7466331 0.18247059 0.60797054 1.0716722 0.684289 0.8938307 1.2225542
1.142588 0.86192924 0.78686005 0.7432091 1.4248022 0.4469489 1.1887959 1.1496704
0.57406837 0.84851974 0.8446723 -0.00058320403 0.3935061 0.6502297 0.4259413 0.803616
0.8179464 0.6631438 0.30470133 0.57634515 1.0955507 0.67792016 1.0541708 0.53556067
0.63660145 0.5621431 0.946427 0.83306247 0.7702876 0.5010743 0.74471766 0.3101825
1.5633446 0.4551929 0.7698593 1.2353605 0.59341633 0.7223501 0.6251237 0.73568785
0.8024636 1.1632258 0.7412695 0.6245812 0.7053537 1.2743384 0.81481767 1.378921
0.61914283 0.9457138 0.43544877 0.41123357 0.5181072 0.571823 0.7835354 0.69051003
0.8643575 1.0049942 0.9153465 0.38105723 0.7681399 0.84880066 0.60275286 0.78098726
0.875199 1.1020122 0.75297886 0.89703226 0.55773664 0.8269705 0.8905792 0.7681905
0.7531684 0.8014484 0.60239524 1.2145636 1.4114546 0.77587783 0.7549908 0.50793034
0.897825 0.44276622 0.8324847 0.6286305 0.73495895 0.92036843 0.5241861 0.7038958
0.5705745 0.6454337 0.6088014 0.50779617 0.46670282 0.86359406 0.8684361 0.74721473
0.0032691474 0.04551682 0.776811 0.58869773 1.2548276 0.70173264 0.98797643 0.9280576
1.4344014 0.911122 0.95236695 0.47759402 -0.9975568 0.2740343 0.47017792 0.6193831
0.48916906 0.8911554 0.7866993 0.3961396 0.7535113 0.67071545 0.75569296 0.9088994
0.9961728 0.7117903 0.45065793 0.6338641 1.6055499 0.85875386 0.55470514 0.6944281
0.9361787 1.3691356 1.0548823 0.57720566 0.7931158 0.5597173 0.5586892 0.5491966
0.6121714 0.87302876 0.9932895 0.92482245 1.1034625 0.6388879 0.73775 0.88500506
0.50505054 0.8662362 0.8933928 1.0439559 0.6421336 0.6980871 0.78382075 0.62188274
0.6264981 1.0511926 -0.001644907 0.6403611 0.77791935 0.78476185 0.3169636 0.9292822
0.411472 0.6349997 0.6823342 0.88796014 0.7438978 0.6050107 0.5505956 1.1027461
0.7424463 0.7479783 0.5958893 0.6037779 0.8129066 0.56288177 0.8961529 0.44897458
1.0434 0.7707463 1.1497856 1.0643414 0.7364902 0.78500503 0.643015 0.0015216318
1.3190614 0.6695725 -0.9464216 0.790422 0.87765807 0.48639628 0.45141006 0.7182195
1.3823787 1.1944894 0.660555 0.8216627 0.82750696 0.62516457 1.1368314 0.47050276
1.1620914 0.5973101 0.62906736 0.72358894 0.70392394 1.0518531 0.7437443 0.5689433
0.6761816 1.1762409 0.4673201 0.4915927 0.6606208 0.28392193 0.97340053 0.8141693

normalizer.bias f4 [256]
00000000: 9e6b 95be 0ee7 dabe a163 9abe 5096 46be
00000010: 9127 30bf fbfc febe 6432 1abf a57c 09bf
00000020: 0482 0f3e 618c cdbe 226e e2be 89e8 55bf
00000030: 84cc b7be 0612 3dbe 7f53 34bf 6f84 e5be
00000040: 1d03 a4be 4241 cbbe 83ba ee3c 27f8 a5bd
00000050: 6a55 4bbf d525 54bf 85a9 05bc 236e 4ebf
00000060: 1dae 99be fb62 03bf 16c2 853d efd8 a1be
00000070: 435b 10bf d0de 49bf 9af5 37bf d624 0abf
00000080: e677 50bf e271 2cbf 21f6 5ebd 955f 00bf
00000090: fb90 00bf cc87 acbe 6065 bebe 7bcb bbbe
000000a0: 3de2 2abf f6f0 01bf 43f3 08bf ac02 71be
000000b0: b722 5fbe 2234 1cbf 685a 12bf c9b2 edbe
000000c0: d2d7 f1be bea9 32be 955f 2fbf 6a5b 56bb
000000d0: 282d 09bf 17a6 e5be 771e f1be 600c 2dbf
000000e0: c7dc 4abf f38a aebe 255c 01bf d8d8 0dbf
000000f0: c1cb 17bf 4b79 04bf d8f9 20bf 1a62 ccbe
00000100: 412b 3bbe 5ed5 99be f760 13bf 73c7 26bf
00000110: 92bc 1bbf 0887 d4be ebf5 d6be d4ca bc3d
00000120: 9b5e 1fbf dc8b 1cbf 547e 14bf 6e07 30bf
00000130: d1ab 55bf ea6f 1fbf e432 d3be edae f3be
00000140: fe44 d3be 89d1 d0be 4fe4 26bf 8017 36bf
00000150: 502a 4fbf d0b5 d0be 45ac 5fbf c9cc c4be
00000160: 25fa 2abf 0b4c 33bf 34ef dfbe 2264 71be
00000170: 9e4f c7be 3b72 e1be 21f9 29bf 431f 28bf
00000180: 6b2d 14bf 0453 b5be e414 debe 560e 13bf
00000190: d5af c0be 814d a13e b630 a2be 9f0d 1abf
000001a0: 4271 26bf 8463 4fbf 3981 52bf 488b d0be
000001b0: 2cc7 d8be 4870 77bd 34db 64be ed18 06bf
000001c0: a094 09bf ae69 10bf 50d2 eabe 80fc 21bf
000001d0: 9ddd 58bf 2390 3bbf ce77 f7be 271f 0fbf
000001e0: 5551 37bf d434 52bf b67d 22bf 0a29 1ebf
000001f0: ef50 f5be ae9e 3dbf bc33 0ebf 3ab6 57bf
00000200: 9f6a 33be dc29 32bf 7118 efbe 3ffb a23e
00000210: 8d82 35bf d7f1 e4be 4308 eabe f623 54bf
00000220: b748 9abc f8b2 abbe a6a7 33bf 119c c1be
00000230: 721a 10bf e756 01bf 2207 0fbf 18e2 babe
00000240: 6fb8 d6be 4207 f1be 19db 4ebf d0a5 b43e
00000250: ac1d 62be 32d2 05bf f778 00bf 99ae 5dbe
00000260: 704c 1dbf af50 45bf f5a0 92be 99e0 90be
00000270: 3bdf a0be 6e34 44bf 2955 d6be c617 83be
00000280: da78 cbbe 2fac 19bf 6bb1 04bf d76b 1ebf
00000290: 710d 9ebe 4fe6 08bf 4b8b 36bf 9138 4dbf
000002a0: 16cf 18bf 10d1 38bf b017 5ebf 97c3 22bf
000002b0: 8ee5 41bf 4034 12bf be8a 13bf e259 06bf
000002c0: bd38 b6be a94c f3be 47f0 afbe 23e5 10bf
000002d0: d37a b3be 2e79 3dbf 4d71 8dbe a112 49bf
000002e0: cfc9 04bf f16c 06bf 5d13 1ebf 7c64 5ebf
000002f0: 54f5 0abf 4516 71be 22e9 afbe 208a 99bd
00000300: 2356 debe eef6 68bf bd52 d0bc b9d0 b8be
00000310: 122d 2fbf 393b 0ebf ef71 ebbe 1c17 3ebf
00000320: fcef e0be 4f3d febe 1960 ffbe 9d36 98bf
00000330: 3744 21be 7c6e 31bf 3089 65be 0c87 fabe
00000340: 8d6d 07bf b727 bebe a53e 0ebe 9749 e4be
00000350: d8d7 55be bbf1 39bf 7052 c9be 502b 9cbe
00000360: 0611 5f3e 021f ffbe 80a5 d7be 3f01 3dbe
00000370: 2627 dcbe cffb 4abf 744d 07bf e471 43bd
00000380: 42e8 5abe f91b e2be cc2a d73e 5edc f0be
00000390: 9e2e 5abf 1006 54be 8b63 56be b188 01bf
000003a0: e93c b9be 317c a3bf 5c69 0abf 175f a1be
000003b0: af53 a9be e125 13bf e0e6 22be 6ba2 b5bd
000003c0: b860 31bf 4a4b 1ebf a1d5 1fbf 865a 33bf
000003d0: cbe5 2cbf d2ca 3fbf 4b78 8abe a4bc 01bf
000003e0: 8f06 21bf 2e6a d9be 2369 54be 0e77 58be
000003f0: 33be 52bf a806 27bd b2cb 24bf 8588 3bbf
-0.29183668 -0.42754406 -0.30154136 -0.19393277 -0.68810374 -0.49802384 -0.6023314 -0.5370582
0.14014441 -0.40146163 -0.4422465 -0.83557945 -0.3589822 -0.18463907 -0.70439905 -0.448276
-0.32033625 -0.39698225 0.02914167 -0.08103972 -0.79427207 -0.8287023 -0.008158092 -0.80636805
-0.3001565 -0.5132291 0.065311596 -0.3161082 -0.56389254 -0.7885561 -0.71859133 -0.5396246
-0.8143295 -0.6736127 -0.054433946 -0.50145847 -0.5022122 -0.33697355 -0.37186718 -0.3667868
-0.6675146 -0.507583 -0.5349619 -0.23536175 -0.21790586 -0.6101705 -0.571692 -0.46425465
-0.4723497 -0.17447564 -0.6850522 -0.0032708296 -0.5358453 -0.4485328 -0.47093555 -0.6759701
-0.7924313 -0.34090385 -0.50531226 -0.55409 -0.5929528 -0.5174758 -0.6288123 -0.39918596
-0.18278219 -0.300456 -0.5756983 -0.65148085 -0.6083461 -0.4150927 -0.41984496 0.09218374
-0.6225373 -0.6115091 -0.5800526 -0.68761337 -0.83465296 -0.6228014 -0.41249764 -0.47594395
-0.41263574 -0.40784863 -0.6519212 -0.7112961 -0.8092394 -0.40763712 -0.8737224 -0.3843749
-0.6678794 -0.7003791 -0.43737185 -0.23573354 -0.3892793 -0.44032463 -0.66395766 -0.656727
-0.578818 -0.35414898 -0.43375313 -0.5744375 -0.3763415 0.31504443 -0.31677788 -0.60177034
-0.6501657 -0.81011224 -0.8222843 -0.40731263 -0.42339456 -0.060409814 -0.22349244 -0.52381784
-0.5374241 -0.56411254 -0.4586358 -0.6327591 -0.84713155 -0.7326681 -0.4833359 -0.5590691
-0.7160848 -0.8211186 -0.6347307 -0.6178137 -0.4791331 -0.7407025 -0.5554769 -0.8426243
-0.17521141 -0.6959512 -0.46698335 0.3183231 -0.7090233 -0.4471576 -0.45709428 -0.8286737
-0.018833501 -0.3353498 -0.70177686 -0.37814382 -0.5629035 -0.5052323 -0.5587026 -0.3650062
-0.41937587 -0.4707585 -0.80803066 0.35282755 -0.22081631 -0.5227386 -0.5018458 -0.21648635
-0.6144476 -0.7707624 -0.28638425 -0.28296354 -0.3142031 -0.766425 -0.41861847 -0.25604075
-0.3974064 -0.60028356 -0.5183322 -0.618833 -0.3086963 -0.53476423 -0.71306294 -0.8016444
-0.5969099 -0.72194004 -0.86754894 -0.63579696 -0.757409 -0.5711098 -0.5763358 -0.524809
-0.35590163 -0.47519425 -0.34363005 -0.56599635 -0.35054645 -0.7401303 -0.27625504 -0.7854405
-0.51870435 -0.5250998 -0.61748296 -0.86872077 -0.5428059 -0.23543651 -0.34357554 -0.074970484
-0.43425092 -0.91001785 -0.025430078 -0.36096743 -0.68428147 -0.55559117 -0.45985362 -0.7425401
-0.43933094 -0.4965615 -0.49878004 -1.1891667 -0.15748678 -0.6930921 -0.22415614 -0.48931158
-0.52901536 -0.37139675 -0.13891084 -0.44587395 -0.20883119 -0.72634476 -0.39320707 -0.30501795
0.21783838 -0.49828345 -0.42118454 -0.18457507 -0.42998618 -0.7929048 -0.5285256 -0.047716036
-0.21377662 -0.44161966 0.4202484 -0.47043127 -0.8522738 -0.20705438 -0.2093641 -0.505992
-0.36179283 -1.2772275 -0.54067016 -0.3151786 -0.33071658 -0.57479674 -0.15908384 -0.088688694
-0.69288206 -0.6183363 -0.62435347 -0.7006 -0.67538136 -0.74918854 -0.270449 -0.5067847
-0.6290063 -0.4246382 -0.20743231 -0.21139166 -0.8232147 -0.040777832 -0.64373314 -0.7325519

normalizer.running_mean f4 [256]
00000000: 6756 613f 960e f53f 5221 97be 0009 c83f
00000010: 51c7 d53f fb3c 0940 59a2 8dbe 47f1 f3bf
00000020: 952b 3dbe 6625 813f a979 bcbf 2160 c9be
00000030: 1c25 94bf e30a aebe 06be debf 691e 3840
00000040: cf0c ebbe c07b 35bf 0620 403f 86e5 e93f
00000050: 1fbc 4fc0 9152 f4be 9599 333d 9214 eabd
00000060: acfa 263f a6b7 23be 2eb8 093f e4af 203f
00000070: 9480 1840 2b45 913e f69a c6bf 4dc2 d43f
00000080: caa8 10be 06eb 09bf 44d1 cf3f b985 bebf
00000090: 0837 d7bf d0a3 29bf 02e6 1b3d ca2e 683f
000000a0: f182 47bf 5fa0 07c0 6e45 103f 9ef2 8cbf
000000b0: 75e2 993f 7bf9 1ebf a657 e03f 691f 403f
000000c0: cdc0 903e ce33 db3f 9fa5 2440 8e36 a9bd
000000d0: 18dc 673d 28c4 ef3c 46ca 2dc0 bad2 10bf
000000e0: c9bc 88bf d919 09c0 0397 87be 4b8c c93f
000000f0: 1adf e93f 1572 85bf 9ae5 13c0 e33f 5ec0
00000100: 4f10 e9bd 4d27 5ebf 90c6 e9bf dafc c0bf
00000110: 13dc 1a3d dd3a f4bf fda9 08bf adc6 67be
00000120: ba4b 6ebe e7db 6ac0 f2d9 e53f 4dc9 b03f
00000130: 3596 10bf da06 07bf 6783 e6bf 9e53 a6bf
00000140: 3e43 acbe e14d aa3e 8085 54be e781 a0c0
00000150: 67bb bebf 5496 bc3e 02f5 abbf fe12 863f
00000160: 764f 2ebe be30 26bf c120 2b3d db65 c73f
00000170: ca55 0fc0 38b8 9fc0 5d09 b2bf b9e2 1dc0
00000180: 28b8 1bc0 a634 bb3d b8da 933f 10a1 e13f
00000190: d14d 963f a89b b4be 731a af3f 344b 0c3f
000001a0: 3140 49c0 d5f6 d0bf 634c fcbe 5ead 1ec0
000001b0: dd9b 1ac0 833b ac3f e3ef d03f c57c 8a3f
000001c0: 006e fdbe ce78 c4bf 8b0f 5cbf bfb4 8b3e
000001d0: 420a 873f 3881 113d cdff 923f 6bfb 5e3f
000001e0: b499 ef3d f229 15c0 da34 0b3f 0c56 5cc0
000001f0: 0d07 9e3f 3c02 9cbf 6149 14c0 8bac 7dc0
00000200: aa49 bb3f 387f 15c0 f686 23c0 c83b 1d40
00000210: b15b 1ec0 1e97 f73f 5a2d 1c40 a66f 8e3f
00000220: 1113 703e 9ce4 05c0 a6e9 f23f 20b0 83be
00000230: 5ee1 08c0 fb6a aebf 6c7f 1bc0 8a80 8dbf
00000240: cd7b ce3f 12a6 8740 bfdd 0a3f 71b7 0f40
00000250: c5dc 383f 1ffd 1ec0 a7b8 e0bf 12e7 57bf
00000260: 430e 2bc0 88c0 133e c0f8 ecbe 860f 2940
00000270: d2b0 763f f879 49c0 402b 03c0 f0e7 f3bf
00000280: 0f1d 3c3f 7204 36c0 1f30 95bf a99d 853f
00000290: 9af6 dd3e 487e b4bf f64c 93c0 1092 1ec0
000002a0: c370 2dbf 7ca4 783e 1008 d4bf 7fb6 20bf
000002b0: 5bec edbe 5b6e 32be 1af5 1ec0 1aeb 83bf
000002c0: 5eb1 8e3d c709 8b3f 7b10 b0bf e885 233f
000002d0: 9406 3ac0 20bd 043c e261 fc3e b80a cdbf
000002e0: ac92 0e3f 51d6 82bf 1fbd 1fbf e7c8 e23f
000002f0: 69dc 0e3e 8327 7e3e cf73 a9bf 081a 1a3f
00000300: 8bf4 e1bd fba1 b5be e24d 2ebe ed24 13c0
00000310: a96f 463f 29e7 cfbe 87a7 e13e bf8a 4540
00000320: 2585 05bf 4e5e 8bc0 07a1 4340 7b86 56bf
00000330: 00da ec3e 1d86 6a40 749d f33e 8c6f 0f40
00000340: fd43 fd3f d7b5 ca3f f1b4 0740 e288 7d3f
00000350: 0e90 81bf 5fcf 42c0 892d 1440 98e5 2abf
00000360: 6149 0d3e ab2b aabd 623f 083f 8547 853f
00000370: 6473 b13f 18c3 b8bf b65e 303f 8f57 abbe
00000380: 25b0 293e f74b 36bf f90b 94bf 51be 63bf
00000390: 62ec 10be bb12 0d40 b5b5 81be 36d1 bcbf
000003a0: f749 67be d0ae 62bf 552d 53bf b0a1 91be
000003b0: d978 52bf 86cb 1e40 5889 873f bf29 2840
000003c0: 3123 62bd c79e 8e3f 4bdf 80bf 8839 13c0
000003d0: 2f2f cabf 48d3 2ec0 df4a 8dbf 6c4f a9bf
000003e0: b075 eabe 320e f13f fa50 2940 fc16 0940
000003f0: 4f1f 98bf c2dd 19c0 dcb8 07bf f71f f4bf
0.88022465 1.9145076 -0.2951761 1.5627747 1.6701452 2.144347 -0.27662924 -1.9058007
-0.18473656 1.0089538 -1.4724628 -0.39331153 -1.1573825 -0.3399268 -1.740174 2.876856
-0.4590821 -0.7089195 0.75048864 1.827317 -3.245857 -0.47719243 0.04384764 -0.11429705
0.65226245 -0.15988025 0.5379666 0.6276839 2.3828478 0.28373083 -1.551604 1.6621796
-0.14126888 -0.5387424 1.6235738 -1.4884559 -1.6813669 -0.66265583 0.03806115 0.90696394
-0.77934176 -2.1191633 0.5635594 -1.1011541 1.2022234 -0.62099427 1.7526748 0.7504793
0.28272095 1.7125185 2.5726087 -0.082623586 0.056606382 0.02926834 -2.7154708 -0.56571543
-1.0682613 -2.1422026 -0.264824 1.5745939 1.827121 -1.042544 -2.3108888 -3.4726493
-0.11380064 -0.8677872 -1.8263721 -1.5077164 0.037807535 -1.9080464 -0.5338438 -0.22634383
-0.23271075 -3.6696718 1.7957137 1.3811432 -0.564792 -0.5274483 -1.8008851 -1.2994268
-0.33645052 0.33262542 -0.20754051 -5.015857 -1.4900941 0.3683344 -1.3434145 1.0474546
-0.170225 -0.64918125 0.041779283 1.5577959 -2.2396111 -4.9912376 -1.3909107 -2.466963
-2.433115 0.09140901 1.1551123 1.7627277 1.1742498 -0.35275006 1.3679947 0.5480225
-3.144543 -1.6325327 -0.49277028 -2.4793315 -2.4157631 1.3455662 1.6323208 1.0819327
-0.49497986 -1.5349367 -0.85961217 0.27286336 1.0550005 0.035523623 1.1484314 0.87102383
0.116992384 -2.3306851 0.5437752 -3.442752 1.2345902 -1.2188182 -2.3169787 -3.9636562
1.4631855 -2.3358898 -2.5551124 2.4567738 -2.4743464 1.9342992 2.440268 1.1127822
0.23444773 -2.0920782 1.8977554 -0.2572031 -2.1387553 -1.3626398 -2.4296522 -1.1054852
1.6131531 4.2390223 0.5424461 2.2455714 0.7221187 -2.4841993 -1.7556351 -0.8433696
-2.6727455 0.14428914 -0.4628353 2.6415725 0.96363556 -3.1480694 -2.0495148 -1.9055157
0.7348184 -2.8440213 -1.165531 1.0438739 0.43352205 -1.4101038 -4.6031446 -2.477665
-0.67750186 0.24281496 -1.656496 -0.62778467 -0.46469387 -0.1742491 -2.4837098 -1.0306122
0.06967424 1.0862359 -1.375503 0.638762 -2.9066515 0.008101732 0.4929343 -1.6018896
0.55692554 -1.0221654 -0.6239795 1.771756 0.13951267 0.2481976 -1.3238467 0.6019597
-0.11032971 -0.35475144 -0.17021897 -2.2991288 0.7751413 -0.4060605 0.44073126 3.0865934
-0.5215629 -4.355262 3.0567033 -0.8379895 0.4626007 3.6644356 0.47581065 2.2411833
1.9786373 1.5836743 2.1204188 0.9903699 -1.0122087 -3.043907 2.3152792 -0.6675658
0.13797523 -0.0830911 0.53221714 1.0412451 1.386334 -1.4434538 0.6889452 -0.3346524
0.165711 -0.71209663 -1.1566154 -0.88962275 -0.14152673 2.2042682 -0.25333944 -1.4751346
-0.22586809 -0.8854799 -0.82491046 -0.2844367 -0.8221565 2.481172 1.0588789 2.627548
-0.055209342 1.1142205 -1.0068144 -2.3003864 -1.5795649 -2.7316456 -1.1038474 -1.3227363
-0.45792913 1.8832457 2.6455674 2.1420279 -1.1884555 -2.40416 -0.5301645 -1.9072255

normalizer.running_var f4 [256]
00000000: 31b5 a040 b425 b341 aecd 1640 e2d6 6041
00000010: 6278 3242 d952 d940 d8ed 2c41 cb77 5140
00000020: eb1e 0940 ac48 db40 c1df 1641 3a5d 1b40
00000030: 4a69 ef40 2816 a640 c6f4 8541 754d 2541
00000040: fb72 7041 79d4 2341 8e6d ba40 4542 0e41
00000050: 9c05 3d40 2320 3741 a577 2d3e 6e2e 9241
00000060: fcf6 f541 ce9b b540 8e21 7c3f 202f 1f41
00000070: 6dc2 ea40 a07b ab41 7449 1040 03d8 6740
00000080: 1d04 5041 94ca 833f 43c5 a341 1f2a c440
00000090: 1fa8 1441 4c61 1a3f 4cf6 b840 837d 7340
000000a0: 8fc3 9a40 3679 2340 62e9 6c40 ccb7 8b41
000000b0: b191 3540 54b4 0341 dc64 9e41 9f02 fd40
000000c0: 9111 8d40 060c 0d41 3c9b 4541 ce46 613f
000000d0: 85ee 9640 4674 d440 24b0 4b41 2333 9540
000000e0: c758 2341 1db0 5d41 2b78 e340 e5df d240
000000f0: e0d1 8e41 c5a7 4e41 37a0 9340 64c7 9940
00000100: f579 5541 7ba9 7a40 f7b5 9540 8f27 dd3f
00000110: 70d0 3241 1a7b 6041 73dc 1141 1bb1 1641
00000120: 67bf 8a40 e4fb 3e40 8960 4241 14c0 a640
00000130: 5d34 6340 9f15 9040 81f1 2141 147c e440
00000140: 1d77 7a40 4c86 3740 1b23 a140 a847 4c41
00000150: eaa7 0a41 0e40 a440 318e ce41 2161 dc40
00000160: 4f26 6b41 71fd 9740 f96d f740 f9bd ad41
00000170: f493 9441 2406 c740 9b0f 9e41 06d6 c240
00000180: 34f7 3e41 4d3c ad40 1f0e 2f40 1bad 7640
00000190: b1ec e341 965f b741 1827 8640 f66a 9a40
000001a0: a3d4 2441 12d6 7440 2608 8440 4c9e 2d41
000001b0: 1130 9240 c252 e540 8a1e db40 7292 4040
000001c0: 7681 5041 6559 af40 38ac 6540 1cfb 6340
000001d0: 0edc 2b40 71f3 0041 4c5f 0641 abd1 c840
000001e0: 2470 c73f bf3e 0541 a462 6040 c0ee b440
000001f0: 1bc0 6341 c9c8 3e40 c4e6 1f41 ca81 7b40
00000200: 90d9 7041 235d 0142 ff9e da41 27dd d040
00000210: 3f84 cf40 65c0 9e41 3731 a340 fde5 6941
00000220: dec3 1a3f 4e61 8840 1177 be40 eea0 1241
00000230: b70d d340 7c22 4e41 bcc4 fe40 f6d8 c240
00000240: 57e1 6640 35f8 0641 bfae 9540 aa5b c040
00000250: d3a4 0f40 2c77 bf40 f2ee 1d42 92f9 f341
00000260: 5658 2740 b047 0741 254d 5640 10a2 1c41
00000270: 1242 a440 3d2e 8b40 70a4 7e40 3cd8 5c40
00000280: 9373 3d40 64c3 d240 0f24 0540 fe5a 8041
00000290: 24f5 bb40 5d89 8f41 9f64 9b40 5911 6741
000002a0: 174b e841 e7db b940 f10a 2640 336e 3940
000002b0: 997e 4140 0923 1640 fcd1 f340 3f09 9c40
000002c0: cc12 6b41 bc2b ee40 e4a5 8c40 4239 9241
000002d0: eb61 5741 f16a b641 8a64 d841 26b3 5f41
000002e0: 6c1d 3241 3297 5c40 dae3 4640 8f8b 2a41
000002f0: adb0 a140 d1a2 5440 5f28 1141 092d 9f3f
00000300: aa44 2b41 70d7 b040 796e bf3d 4cc1 b640
00000310: a51f b041 74aa 8440 6594 8641 c706 9840
00000320: b1f4 5f41 90bb b940 e763 9c41 b233 1740
00000330: aaef 7840 fe7b 6c40 dd68 8840 9f43 d640
00000340: 6b18 b741 e287 7940 d9e4 0341 133c 9540
00000350: f088 3340 6f1e 4e41 a64e 6641 99b4 dc40
00000360: 97a1 633f 62da 9f40 1928 e03f 37c4 ec40
00000370: 699a dd41 d294 7d3f 5b65 5d40 767a c53e
00000380: 818a 8340 1872 ad41 2adc e33f 3ff3 9d41
00000390: 0f44 1840 0d71 8341 3908 9640 784a 9640
000003a0: 5814 9840 a43b 9740 09bd 2841 9412 5640
000003b0: b0aa 2041 7daf ca40 569e 6540 9bee 3141
000003c0: 698e 4741 538a dc40 696a 8941 6343 0d41
000003d0: 4249 b541 ead4 ee40 9c4c f340 22b9 9d40
000003e0: bed5 2641 84ba 8040 417c 9541 9559 4141
000003f0: 6362 2b41 0595 4941 b1bf cc40 c8ad 5341
5.022118 22.39341 2.3563037 14.052462 44.61756 6.7913632 10.808067 3.2729366
2.142512 6.852621 9.429627 2.427565 7.4816027 5.1902046 16.744518 10.33141
15.028071 10.239373 5.8258734 8.891179 2.9534674 11.445346 0.16940172 18.27267
30.745598 5.675269 0.984887 9.949005 7.3362336 21.435364 2.2544832 3.6225593
13.001004 1.0296197 20.47132 6.1301417 9.291045 0.60304713 5.7800655 3.8045356
4.836372 2.5542731 3.7017446 17.464745 2.8370173 8.231525 19.799248 7.90657
4.4083943 8.815435 12.350399 0.87998664 4.716616 6.6391935 12.730503 4.6624923
10.209174 13.855496 7.108419 6.589831 17.852478 12.915959 4.6133075 4.8055897
13.342275 3.9165943 4.6784625 1.7277697 11.175888 14.030054 9.116321 9.418239
4.3358645 2.9841242 12.148568 5.210947 3.550071 4.5026393 10.121461 7.1401463
3.91352 2.8675718 5.0355353 12.767494 8.665995 5.132819 25.81943 6.8868566
14.696853 4.7496877 7.7321744 21.71776 18.572243 6.2194996 19.75762 6.088626
11.935352 5.413611 2.735237 3.8543155 28.490572 22.921673 4.192272 4.8255568
10.301913 3.8255658 4.1259947 10.851147 4.5683675 7.1663523 6.847478 3.0089383
13.031607 5.4796624 3.5886364 3.5622015 2.685306 8.059434 8.398266 6.275594
1.5581098 8.327819 3.5060205 5.6541443 14.234401 2.981005 9.993839 3.9297967
15.053116 32.340954 27.327635 6.526996 6.4848933 19.843943 5.0997577 14.6186495
0.6045512 4.261878 5.9520345 9.164289 6.595424 12.883419 7.9615154 6.0889845
3.6075037 8.435597 4.6775813 6.0111895 2.244435 5.9832973 39.483345 30.49686
2.6147666 8.455002 3.3484585 9.789566 5.133065 4.3493943 3.9787865 3.450698
2.960179 6.5863514 2.0803258 16.04443 5.8736744 17.942072 4.856033 14.441735
29.036665 5.8080935 2.5944178 2.897351 3.023352 2.3458884 7.619383 4.8761287
14.692089 7.4428387 4.3952503 18.277958 13.461406 22.802217 27.049091 13.981237
11.132183 3.4467282 3.107657 10.659072 5.052817 3.3224375 9.072356 1.2435619
10.704264 5.5262985 0.09347243 5.711096 22.015451 4.1458073 16.822458 4.7508273
13.997239 5.804146 19.54878 2.3625302 3.889628 3.695068 4.2628007 6.6957545
22.886923 3.8989186 8.243371 4.6635833 2.805233 12.88243 14.394201 6.8970456
0.8891844 4.995408 1.7512237 7.398952 27.700396 0.99055207 3.4593112 0.38569993
4.110657 21.68071 1.7801564 19.743773 2.379154 16.4302 4.6885037 4.6965904
4.7524834 4.7260303 10.546151 3.344884 10.041672 6.333922 3.587789 11.120753
12.472268 6.8918853 17.176958 8.828952 22.66077 7.4634905 7.6031017 4.928849
10.427183 4.022768 18.68567 12.084371 10.71152 12.598882 6.3984 13.229927

fc1.weight f4 [256, 33]
00000000: d82e f73e 5156 613e e721 f1be ba20 a33d
00000010: 15ff 06bc 02df 21bd 8fa3 b6bd 7c7c 3abc
00000020: 246f e1bd cbe8 443d 17b6 05bd a9a6 ae3d
00000030: fb33 3cbe b070 c33d 799e 69be 8f22 143d
00000040: c88c b03c ae92 233e 061f 17be 2e44 593e
00000050: 27c0 763d bd60 ce3d ab08 653e dd4d 8b3d
00000060: 3565 913b 509c f93d 3c81 f2bd 2f42 5c3c
00000070: 2fa1 b63e d2df 3d3d e9e3 afbb 2c23 acbc
00000080: 6ed7 22c0 d845 a5be 14b3 05bf fa0e abbe
00000090: 0dfe 0bbd 5fb3 cbbe d032 783e b046 8ebd
000000a0: 345f 0f3f 31ce 113f cbad d8be 3d63 64be
000000b0: 8d63 e6bc bb2e 77be 09d4 713d 5bab 6cbe
000000c0: abad e5be d802 383e 17c6 8cbc 767f c2be
000000d0: 5fa7 4e3e f934 7dbe b814 aebc 8ff1 e03e
000000e0: 00af b2be 32b6 ecbe 9625 83be a99b 663d
000000f0: 7cc4 1fbd 0d07 adbe 4286 1a3d 1063 6d3d
00000100: b80c c0bc 5feb c73e aa67 2dbf bcb1 11bf
00000110: 0e5c 463e d4b8 143e 64cf 83be e97b b9bd
00000120: 4381 41be f194 bdbd 2e58 96bd 86bd ac3d
00000130: 3d4d c3bd 276d b63d 9328 c4ba 06b8 183f
00000140: 09f7 2d3f 0a04 3cbd a376 9f3d a370 703c
00000150: 5b00 00bd 5dcd f1bc ff36 02be c1a4 e83c
00000160: 9fd3 293e 582a dd3d abb7 033e b226 56be
00000170: 7412 c1be 68e6 28bd 196c 3dbe b8de 41bc
00000180: bba3 adbb ae3d 1ebd cdc3 963b 36d9 323f
00000190: dcd5 8f3d c344 023c 94d5 56bd 5111 b43e
000001a0: 4fe9 b13e 08e9 343d 2bbe adbd 24e9 1ebd
000001b0: 6cd2 453e 99f8 ff3d 98a2 e7bc f9a9 573e
000001c0: 9308 29be 0641 efbe 2097 b73e 637c 65bd
000001d0: b196 4fbd 052a e23d d6c7 5d3e 9765 453e
000001e0: 5b29 13be 17df 4c3f 88a8 cf3e eb92 04be
000001f0: e164 46bc 0b5c 8abe 791d f93c a7a1 8b3e
00000200: 800a f83b b58a 6ebd d033 d13c 6cf2 38bf
00000210: b45d 25be 4440 a93d 654e 913e fc96 bd3d
00000220: d40c e63d be94 3d3e 8710 eabd 0a07 813d
00000230: 3513 b03e e3cf b73e f1e9 2f3e 930c 6d3d
00000240: 4694 d7bd 004a 94be 8ca1 36bf 6d7d 2a3f
00000250: a245 64be fbb0 3dbd 9482 b53e 3068 ecbc
00000260: 26a6 153e e199 9d3d fb5a 343e c58a 8dbd
00000270: 1bad 04be fa76 003e 2ffc 253e b2c7 1abd
00000280: d23b 033f c6c3 2e3d 4692 373d 70e1 e1bb
00000290: b9e5 563f d15c 9d3c 4b17 14bf f119 153f
000002a0: d30b 453e 48ed 6e3e 776f 663c 99d4 cebd
000002b0: 1a3d ce3d ff68 58be 0c53 1bbe 5f55 333d
000002c0: 1a91 2abe 44e3 b43e 4e5b d83e cf4b 12be
000002d0: 32d2 a5bd 640b a53d fd27 f1bd fb52 72be
000002e0: afbb 50be ef7b 8c3e accf 31be f05f ed3d
000002f0: 385a 76be bc9f efbd 4291 4e3e 4ba6 0cbd
00000300: 3cf3 093d dc5b 943d 0093 e13a e3de da3c
00000310: 5010 423d fa19 f13f 0786 f9be df62 a63d
00000320: c5db 56be 4d64 8c3e 53d8 cdbe cd5a 9fbd
00000330: c8d5 9abd 3523 cd3e f2d7 173e 0f68 783e
00000340: 5f22 143e 8842 08bf f649 993d c3ee a03d
00000350: bfba b6bd 9d85 ef3e 4788 fdbe 1879 91bd
00000360: 1521 0f3d 73cd 0ebe 722f 26be 220c ec3e
00000370: b6ec fdbe 3942 823e 44c5 18bf 3298 553e
00000380: a959 2b3e e99d 3d3d bd66 383e 3671 6f3d
00000390: e1e6 143d a8f0 bb3c 73f8 123e d0af f33c
000003a0: 7975 2f3f b791 9ebe 1044 cbbc 94f4 95be
000003b0: b09d 893d 35f4 d0be c3ea a13c f37c c33e
000003c0: ff98 113e ee21 0dbe 1a21 c13e 3321 8fbe
000003d0: 4fe1 b63e aa9f 373e 86e8 91bd 94d3 32bc
000003e0: 4fe6 0abe 0594 0c3e 6bd0 7f3e 37af 31be
000003f0: 6be3 2d3e 3064 8cbd 3952 793e fda5 69ba
0.48277926 0.22005583 -0.47096178 0.079652265 -0.008239527 -0.039519317 -0.08917915 -0.011382218
-0.110075265 0.04807357 -0.032644358 0.08527882 -0.18379204 0.09542978 -0.22814359 0.03616577
0.021551505 0.15973923 -0.14757928 0.21217415 0.060241845 0.10077045 0.22366588 0.068019606
0.0044371136 0.12188017 -0.11841056 0.013443514 0.35669848 0.04635603 -0.005367745 -0.021012865
-2.5443988 -0.3227985 -0.52226377 -0.33409864 -0.03417783 -0.39785287 0.24238133 -0.06947076
0.56004643 0.5695525 -0.42320094 -0.22303481 -0.028123641 -0.2413892 0.059040103 -0.23112242
-0.4485906 0.17969835 -0.0171843 -0.3798787 0.20181035 -0.24727239 -0.021250114 0.43934295
-0.3489914 -0.46232754 -0.25614613 0.056300793 -0.03900574 -0.33794442 0.037725694 0.0579558
-0.023443565 0.3904676 -0.67736304 -0.56911826 0.19371054 0.14523631 -0.25744164 -0.09056837
-0.18896966 -0.09256924 -0.07341038 0.08434586 -0.095362164 0.08907538 -0.0014965705 0.596558
0.6795507 -0.04590229 0.077863 0.014675292 -0.03125034 -0.02951687 -0.12716292 0.028398873
0.16584633 0.10799092 0.12863033 -0.20913199 -0.3770939 -0.041235358 -0.18498267 -0.011832885
-0.005299059 -0.03863304 0.004600978 0.6986269 0.07023212 0.007950964 -0.052449778 0.3516946
0.34748313 0.04416755 -0.08483537 -0.03879656 0.19318551 0.12498588 -0.028275773 0.21060933
-0.16507177 -0.46729296 0.35857487 -0.056026828 -0.05068082 0.11043171 0.21658263 0.19277035
-0.14371245 0.8002791 0.40558267 -0.1294667 -0.012109012 -0.27023348 0.030409561 0.27271768
0.007569611 -0.05823775 0.025537401 -0.72244906 -0.16149026 0.08264211 0.28380123 0.092573136
0.112329155 0.18513772 -0.114289336 0.06300171 0.34389654 0.35900792 0.17179085 0.05787332
-0.10526328 -0.28962708 -0.7134025 0.66597635 -0.22292188 -0.04631136 0.35451186 -0.028858274
0.14614162 0.07695366 0.17612831 -0.06911234 -0.1295666 0.12545386 0.16209482 -0.0377881
0.51263154 0.042667173 0.04481723 -0.0068933293 0.8394428 0.019209297 -0.5784804 0.5824271
0.19242792 0.23332703 0.014064661 -0.100991435 0.10070248 -0.21133803 -0.15168399 0.043782588
-0.16656914 0.3532964 0.4225716 -0.14286731 -0.08096732 0.08058813 -0.11775205 -0.23664467
-0.20384096 0.27438304 -0.17364377 0.11590564 -0.24057853 -0.11700389 0.20172599 -0.034338277
0.033679232 0.07244083 0.0017209947 0.026717609 0.047378838 1.8836052 -0.48735067 0.08124327
-0.20982273 0.27420273 -0.40204105 -0.07780991 -0.07560307 0.40065923 0.1482847 0.24258445
0.14466237 -0.5322652 0.0748481 0.0785804 -0.08922338 0.46781626 -0.49518034 -0.07103175
0.03494366 -0.1394556 -0.16229036 0.46103007 -0.4959466 0.2544115 -0.59676003 0.20858839
0.16733421 0.046293173 0.18007942 0.058457576 0.036352996 0.022941902 0.14352588 0.02974692
0.68538624 -0.30970547 -0.024812728 -0.2928816 0.0671953 -0.40811315 0.019765263 0.38181266
0.1421852 -0.13782474 0.37720567 -0.27955016 0.35718772 0.17932001 -0.071244285 -0.010914702
-0.13564418 0.1372834 0.24981849 -0.17351995 0.16981284 -0.06855047 0.24347772 -0.0008912979

fc1.bias f4 [256]
00000000: 4e78 e8bc 8664 bbbd a10b 0a3e 3eba 5abd
00000010: 4189 9d3d 5511 bfbb 22ca 30be b020 413d
00000020: 8945 9f3d 7a3b 1d3e aa8f 19be 51ef fc3d
00000030: 1193 90bd 0f36 133e 7e7e 2d3e a047 273e
00000040: 9023 9e3d 3d6f 893c ca17 b3bd d1e1 d2bd
00000050: 8930 473d f5a8 97bd acd2 0f3d 4b20 213e
00000060: 94bd a0bd 13de b83c 08e1 273e bd74 193d
00000070: 7370 033d 2218 b2bd 0ef2 70bd 91d8 0fbd
00000080: 3727 483d 08c0 fdbd c643 cbbd f617 f73d
00000090: c3e4 efbd 6da5 f3bd ee4e 1e3e 2094 823d
000000a0: 3f26 12be 8b31 163d 7d54 093e 512c 203e
000000b0: 4b7a 173e 7188 edbc 7e94 ee3d 118d 1dbc
000000c0: f5b2 133e d4f6 e33d 6646 02be bc1c a93d
000000d0: b90d 5fbd 07de 5abc 2f4a 43bd f6a4 be3d
000000e0: 2d6a edbc c903 a83d e108 22be 021f 6a3d
000000f0: 146d 67bd 800c 5bbd a846 ed3c 6335 8b3c
00000100: 1094 47bd 4063 09be 687a 263e f982 9a3b
00000110: c4d1 733d be21 90bd 0baa 0b3e c3b1 e7bd
00000120: a43d 27be 9702 b53d 7418 9a3d 096d c93d
00000130: aa0f b7bd 291c 3c3c ca06 e8bd 1c29 303d
00000140: ac73 273e 9bfe 2e3d e4bf d6bd 467e adbb
00000150: 98bf 923d f37a c73d a87d 32be d9a1 9cbd
00000160: 3d4a 7cbd d9dc 123e ba33 81bc 822d af3d
00000170: 7bb1 9e3d 9a66 173e d7be af3b 0c5c 253c
00000180: 7d74 ecbc ea1b 24be 7a5c dbbc 108c ca3d
00000190: 29ce a63d 148a b03d 0e99 403d a562 783d
000001a0: 9338 303d 21f5 86bc 4a2a 8abd 6e40 113d
000001b0: a6fc 743c c7af 753b bdf5 273e 85eb 44bd
000001c0: 3802 1cbe dbd3 17be 6736 9c3d d24b 8cbc
000001d0: 166f c8bd ce96 94bd 891a fd3d c5d0 c6bc
000001e0: 5c21 0c3e c5f4 063e 1e89 2bbd 2609 013e
000001f0: 9b6a 263e f19c bc3d 3e31 c8bd 90d0 86bd
00000200: 64c8 a5bd b87b 2cbe b630 dbbd e29a 19be
00000210: da08 073e a86e 9cbd 0e9a 2abd 5bf7 643d
00000220: 08db 9f3c e395 debd b35b 92bd 309b 04bd
00000230: 8041 b53b e6c2 13bc 225f 9c3d 40ed 0a3a
00000240: decb cebd e8f9 8dbd 5091 24bd 677a f23d
00000250: 3ebb ff3d 344e 17be d36e 09be 3fe8 c23c
00000260: 491c 9f3d e67f 04bd 561a 6d3d 79c7 563a
00000270: af15 b3bd cda4 b53d 21e7 6ebd 084e e8bd
00000280: d5ef 8bbb a714 95bd a02e c53d c578 1f3e
00000290: 4e90 de3d ae2a 5dbd 81c2 afbd ee65 79bd
000002a0: 7211 ccbd 53ca 51bd 5748 163e ff82 303e
000002b0: 757d 85bd 8669 693d 8ab7 333c c117 363d
000002c0: 1118 0abe 2481 c1bd ae27 27bd 0d45 5fbd
000002d0: 03d1 16bd e3df 433d fbe4 adbb 8075 12be
000002e0: 829e f03b d01f 0d3d 2e2e 013e 99f2 c0bd
000002f0: 03d5 c9bd 3f28 fc3d 24c2 82bd 5c76 743d
00000300: 898d 113e 05de fdbc 902b 7bbc 9650 d1bd
00000310: a358 aa3d 8eb4 b73d 888d 16be 5e02 d73d
00000320: 58a5 2d3e 47d6 243e 7034 813d f2ca 2b3e
00000330: caea fc3c ef2b b6bd 1e47 0cbe 20a5 0cbe
00000340: b653 8d3d 37f2 963d be16 b4bd 7555 5d3c
00000350: a406 9abd d649 993d 9170 fbbd 4e60 a83c
00000360: aff6 4cbd e6a3 cbbd 481d 82bd 22f3 2e3e
00000370: 6cc6 223d 98d0 10be 5ccd 873d 1e5c 18be
00000380: b9d6 0d3e 9f73 15be f66e 6bbd 775e 26be
00000390: 101f 77bd 4492 003e 8fda a13d 0001 f03b
000003a0: 96b6 f8bd 61d6 073e 51d7 93bc 6310 c5bc
000003b0: bd41 a53d 38ae b73d 58bf f8bd 4ae6 143c
000003c0: 3208 f0bd 74c0 f0bd 5460 d239 556c 96bb
000003d0: 5e75 363d 07ca e0bd ed4e 3f3d 9371 e33d
000003e0: de6f 713c 8a27 193e b04c 323b 7337 02be
000003f0: 647e 9ebd 2c28 583d 2a41 f5bd 3db9 d3bd
-0.028377678 -0.09150033 0.13480999 -0.05340027 0.07692195 -0.0058309236 -0.17264608 0.047150314
0.07776935 0.1535472 -0.1499621 0.123503335 -0.07059301 0.1437609 0.16942784 0.16335917
0.07721627 0.016776675 -0.08744772 -0.10296977 0.04863027 -0.07405273 0.03511302 0.15734975
-0.07848659 0.02256683 0.16394436 0.037464846 0.03208966 -0.08696009 -0.05882459 -0.035118643
0.048865523 -0.12390143 -0.09925036 0.12065117 -0.11713555 -0.11896787 0.15459797 0.06375909
-0.14272402 0.03666834 0.13411136 0.15641905 0.14792745 -0.028995724 0.116494164 -0.009616152
0.14423735 0.11131063 -0.12722167 0.08257434 -0.054456446 -0.0133585995 -0.04767817 0.093088076
-0.028981293 0.08203847 -0.158237 0.057158478 -0.05650051 -0.053478718 0.028964356 0.01699323
-0.048725188 -0.13416767 0.16257632 0.00471532 0.05952622 -0.07037686 0.13639085 -0.11313202
-0.16332108 0.088383846 0.07524195 0.0983525 -0.089385346 0.011481323 -0.1132942 0.043007955
0.16352719 0.04272328 -0.10485819 -0.005294594 0.0716545 0.097402476 -0.17430747 -0.076480575
-0.061594237 0.14342059 -0.015771735 0.08553602 0.077486955 0.14785233 0.005363326 0.0100927465
-0.02886414 -0.16026273 -0.026777495 0.09889996 0.08144791 0.08620086 0.047020964 0.06064095
0.043022703 -0.016474308 -0.06746347 0.035461836 0.014952814 0.0037488805 0.16402335 -0.04807617
-0.15235221 -0.1482691 0.07627564 -0.017125998 -0.09786813 -0.07255326 0.12358577 -0.024269471
0.136846 0.1317931 -0.041878812 0.12601146 0.16251604 0.09209622 -0.09775017 -0.06582749
-0.08094862 -0.1684407 -0.1070265 -0.1500049 0.1318697 -0.076382935 -0.041650824 0.05589996
0.019513622 -0.108684324 -0.071463965 -0.03237456 0.00553149 -0.009018635 0.07635333 0.0005299635
-0.10097478 -0.069324315 -0.040177643 0.11839753 0.124868855 -0.14775926 -0.13421182 0.023792384
0.07769067 -0.032348536 0.057886444 0.0008193176 -0.0874437 0.08869324 -0.05832589 -0.11343008
-0.0042705336 -0.0727933 0.09628034 0.15573414 0.10867368 -0.05399578 -0.085820206 -0.060888223
-0.09964265 -0.051218342 0.14676033 0.17237471 -0.0651807 0.0569854 0.010969052 0.044456247
-0.13485743 -0.0944846 -0.040809326 -0.05450921 -0.036820423 0.047820937 -0.0053068376 -0.14302635
0.0073431144 0.034454167 0.12615272 -0.09421272 -0.09855082 0.12312364 -0.06384686 0.05968319
0.14214148 -0.030989656 -0.01533021 -0.10220449 0.08317687 0.08969985 -0.14702427 0.104984984
0.16957605 0.16097365 0.0630883 0.16776636 0.030873675 -0.088950984 -0.13699004 -0.13734865
0.06900732 0.073704176 -0.087934 0.013509144 -0.07520798 0.07484786 -0.1227733 0.020553734
-0.050039943 -0.099433705 -0.06353241 0.17084935 0.03974001 -0.14142072 0.06630966 -0.1487889
0.13851441 -0.14594887 -0.057478867 -0.16246973 -0.060332358 0.12555796 0.07903015 0.007324338
-0.121442005 0.13265373 -0.018047007 -0.024055665 0.08069179 0.089687765 -0.12145871 0.009088108
-0.11720313 -0.117554575 0.0004012609 -0.004590551 0.044545524 -0.10976034 0.04670613 0.11105647
0.014736144 0.14956489 0.0027206354 -0.12716465 -0.07738951 0.052772686 -0.1197532 -0.10338066

fc2.weight f4 [128, 256]
00000000: 1bb7 893e e649 f73d e8a6 4fbf 16de d13e
00000010: 855c eabd c8a9 23be d631 01bf ac46 44bf
00000020: dd33 703f b7ab ee3c beec 9cbd ed23 513f
00000030: cbe5 7fbe 907e c1b9 a5dc 5fbe e6b5 8bbe
00000040: 3f8b c4be c503 be3e 605d 86bf e65c 2cbf
00000050: 9c2b 823e 98d7 933e d711 5c3d be50 0ebf
00000060: 3930 82bc 97ca 7b3e 573c 2b3f 1215 19bf
00000070: c36d 1abf cdbb 72be 32d1 3ebf ad30 1ebe
00000080: 8217 5dbe f45f c5be ce0a 513d 8031 0bbf
00000090: 2824 0abe 3177 4ebf 7bbb 5dbe 8b5f e1be
000000a0: 1469 923e 7e77 6b3f 1c55 3f3e e9e8 d23d
000000b0: 0be1 6b3f e856 0fbf 9894 cebd 6f79 0c3f
000000c0: 8219 693f d46d 643e 73c3 7b3e ce96 c7bc
000000d0: 611e 57bf 5cf8 223e 8a4e 5b3e a626 ba3d
000000e0: db25 04be c301 d2be 5ff0 12bd 2913 03be
000000f0: b639 02be 7417 26bf 68d1 2f3f c3a6 a63d
00000100: 381c 95be 6658 493f ca6a 423e 1ac8 803e
00000110: 211a 8bbe 1373 4d3e 99c6 22be a90b 513f
00000120: e327 b13e d452 a2be 6cac 6f3e b126 2dbf
00000130: ca68 873e d3dc 8d3e 95ce 9fbe ce5c 303e
00000140: a3e1 5c3f 2972 393f 01d4 883d 4295 c93e
00000150: d7d3 b2be 3472 2abf 55c4 72bf 8151 2fbf
00000160: 7967 15bf de8f 0f3f ca9c 8dbe a02a bfbd
00000170: fa69 183e e344 013d 7571 31bf 8dde c83e
00000180: f4e8 45be 4790 51bf e583 c1bc be51 c3be
00000190: 422f 103e f967 65be ff0f 013f 51d3 a13e
000001a0: 670b 623e 5229 2dbd ed33 c0be 68f6 9bbe
000001b0: e99c d7bd e3ed cfbe c70c 89bd 0d72 ef3e
000001c0: f990 ccbe c3c5 ebbe 1a20 2bbd e262 de3e
000001d0: c13f 69be a3ae 7ebe a580 8f3d 57c5 22be
000001e0: 6888 2bbe 8e42 323c d5dc 2abf b9a2 113f
000001f0: fe84 be3e b65a af3e d01e a1be a54f b93e
00000200: 31da bbbe 1710 a7be 4540 8cbe 3205 babe
00000210: 5d87 893e 6a4f 473e a3be 113e 3f51 a4be
00000220: 78ae 293d 3c51 2d3d 03e8 6b3d 5de8 8ebd
00000230: 1075 bf3c 99d0 9abd 73a0 403e 3562 bbbe
00000240: e8b2 b43e e320 cfbd fa25 9e3e 9e4b aebe
00000250: c01d 333f 6243 d2bd 8fd9 a43e b3bc 57bc
00000260: fb45 273d c4c6 583d d172 903e c993 4ebe
00000270: 711d c6bd 8271 6cbc 8f5f 8c3e 2aca fa3e
00000280: 6fe9 31bf 6c3c e43d bb48 413d a6b9 dfbe
00000290: 4dfd bcbe ce31 97bd 1253 a73e 7590 c1bd
000002a0: f4bc 3cbf d9b0 ed3d 8b6f 8b3f ae1a d9be
000002b0: 53d1 4ebf d590 70bf bb74 0bbf ae2d 21be
000002c0: fcc6 efbe f238 84be baad 0a3e 6f63 e0be
000002d0: d918 41be 28a5 513e 061f 7b3e 7a08 3bbe
000002e0: 887a cbbe 2b81 aebe 2e24 863e e3b1 2bbf
000002f0: 38de 3e3e 8065 24bf 407b 4c3d debe a0be
00000300: 3fb0 6b3f d44d 3dbe eaef eabc de12 8abe
00000310: 1e6a 83bf 344c 7bbe a351 883d 93cc 50be
00000320: ec7a 4b3e a94d e63e cbde b8be 427d 0e3e
00000330: 6854 2cbf 179f 5dbf 5855 7ebe 2c3b 7fbd
00000340: 5521 7dbe fa9c aa3d c37e f03e 23ac 983d
00000350: 6468 283f 8710 fcbc 46bc 1fbe eea4 743e
00000360: f13e 133f 066f a7be 0faa 5b3e 3ea2 863d
00000370: 462c 02be fb2d 87be 210e c1be 505a 95ba
00000380: 4168 f8be 437f 2abf 8521 b33e 8410 b03d
00000390: 5aab 8abe 6aaf 83be c757 d23e 3417 333e
000003a0: cb25 d23b e808 0ebd a76d db3e a71a 03bf
000003b0: 7aad b93e 5fb8 aabd 4b24 42be f1c0 c43e
000003c0: 9fc5 c0be a1a0 2bbf ab00 4abf 84d7 77be
000003d0: 5f73 8ebf c13c f13d b5ff d5be e019 b73e
000003e0: cc30 24be 4764 f8be c480 d03e 368f bf3e
000003f0: c16d 11bf 15af c53e 310f 2cbe ad9d df3e
0.2689751 0.12074642 -0.81114054 0.4098975 -0.11443428 -0.15982735 -0.5046667 -0.76670337
0.9382914 0.029134614 -0.076623425 0.81695443 -0.24990003 -0.00036906125 -0.21861513 -0.27287215
-0.38387486 0.3711225 -1.0497246 -0.6732925 0.25423896 0.28875422 0.05372795 -0.5559195
-0.015892135 0.24589 0.66888946 -0.59797776 -0.60323733 -0.23704453 -0.74537957 -0.15448256
-0.21590999 -0.3854977 0.051035695 -0.54372406 -0.13490355 -0.8065062 -0.2165355 -0.44018206
0.28595793 0.91979206 0.1868481 0.1029833 0.92140263 -0.55991983 -0.10086936 0.5487279
0.91054547 0.22307521 0.24586277 -0.024363901 -0.8403073 0.15915054 0.21416679 0.09089403
-0.12905066 -0.4101697 -0.035873767 -0.12800278 -0.12717327 -0.64879537 0.68678904 0.08137276
-0.29123092 0.7865051 0.1898605 0.25152665 -0.27168372 0.20063429 -0.15896071 0.81658417
0.34600744 -0.31703818 0.23405617 -0.67637163 0.26447135 0.27707538 -0.31212297 0.17222902
0.86281794 0.7243982 0.066810615 0.39371687 -0.34927246 -0.6658051 -0.9483083 -0.6848374
-0.5836101 0.560789 -0.27658683 -0.09334302 0.14884177 0.031559836 -0.69313747 0.39232293
-0.19327146 -0.81860775 -0.023622463 -0.38148302 0.14080527 -0.22402944 0.50415033 0.31606534
0.22074662 -0.042275734 -0.37539616 -0.3046143 -0.10527975 -0.4061118 -0.0669189 0.467667
-0.39954355 -0.46049318 -0.04177866 0.43434817 -0.22778226 -0.24871306 0.07006959 -0.15895592
-0.16751254 0.010880126 -0.6674321 0.5688892 0.3721084 0.34248894 -0.3146882 0.36193576
-0.36689904 -0.32629463 -0.27392784 -0.3633209 0.26861086 0.19463888 0.14232878 -0.32093236
0.041426152 0.0423138 0.05759431 -0.069779135 0.02337125 -0.07559318 0.18811207 -0.36598364
0.35292745 -0.101136945 0.3088835 -0.34042066 0.6996727 -0.102667585 0.32197234 -0.013167548
0.040838223 0.052923933 0.28212598 -0.20173563 -0.09673584 -0.014431359 0.27416655 0.48982364
-0.69496816 0.11144337 0.0471885 -0.43696326 -0.36912003 -0.07382546 0.32680565 -0.09451381
-0.7372582 0.11605997 1.0893415 -0.42403167 -0.80788153 -0.93970996 -0.5447499 -0.15740082
-0.468315 -0.25824696 0.13542834 -0.43825862 -0.18857135 0.20473158 0.24523553 -0.18264952
-0.3974192 -0.34082922 0.26199478 -0.6706831 0.18639457 -0.64217377 0.049922228 -0.3139562
0.92065805 -0.1848672 -0.028678853 -0.2696752 -1.0266759 -0.24540788 0.06656196 -0.20390539
0.1987111 0.44981125 -0.36107478 0.1391497 -0.67316294 -0.86570877 -0.24837244 -0.06231229
-0.24719746 0.08330722 0.46971712 0.074547075 0.6578429 -0.0307696 -0.15599164 0.2389104
0.57517916 -0.32701892 0.21451591 0.06573914 -0.12712201 -0.26402268 -0.37706092 -0.0011394713
-0.4851704 -0.66600436 0.3498651 0.085969 -0.27083856 -0.25719768 0.41082594 0.1748932
0.0064131967 -0.034676462 0.42857096 -0.51212543 0.36265165 -0.08335947 -0.18959157 0.38428453
-0.37650773 -0.67041975 -0.7890727 -0.24203306 -1.1128958 0.11779166 -0.4179665 0.3576193
-0.1603424 -0.48514006 0.4072324 0.3741395 -0.56808096 0.3861014 -0.1680267 0.43674985

fc2.bias f4 [128]
00000000: 4b62 063e bcd3 393e 2b69 2a3f 0953 0cbb
00000010: 6438 b4bd 05ea ac3e 26ff 94be d752 8c3e
00000020: 5468 653e 687d a0bd a884 86bd a5c8 be3e
00000030: 7f76 45bf 6b88 023f 03ed 05ba b171 dabe
00000040: f0e0 0cbf 9c9e d1be 1a9d 973e b8a3 abbd
00000050: 4c71 5abe 88d3 db3e e7fa 1cbe 8015 8dbe
00000060: 530a 253e d112 833e 0f06 a93d 4a88 3c3e
00000070: 4b8b 7dbf be6d debd 1c7d 083e 6711 073e
00000080: 3e68 ffbd 99e5 01be 47e7 aebe 9b11 a7be
00000090: 990e 4fbf ad53 07bf 3574 e9bc 5109 093e
000000a0: 07c9 0dbf 4c28 f33d 7806 96bc 009d 153d
000000b0: b0bb 4e3c 8041 4cbe 1010 49bd d7b4 0abe
000000c0: 1155 4dbe 5a6c 563c 5c91 3bbd aebb 383e
000000d0: 2681 e83e fb68 d13e 561c 24be c131 b8bd
000000e0: 65f1 0b3e 4fd4 a03e b9de 19be 99bf 9f3e
000000f0: 8973 54be 6845 b73c 5afe 6e3d fca2 c7bd
00000100: e1be f0be efda 83be 80c3 c33e 4948 b53e
00000110: cebe 883e 6741 1cbe 0cfb 74bf 0b58 cf3d
00000120: 9d51 a03e dc64 7d3e bf23 cabe 6bb5 60bf
00000130: 5486 a9bc dbe9 d6bd bc70 60be 26aa 34be
00000140: 473a 22bf e5a2 20be 08e6 7f3e 9539 e93e
00000150: d9e6 47bd 33a9 283e d1fb c3be 4df1 c13e
00000160: fdea 82be b94e 5e3e 84df 833e 118d 2fbe
00000170: eceb 7ebd 9721 e9be edb9 88bd bcf3 a1be
00000180: ff53 15be 3b56 593c f3b1 debd c59e 1a3e
00000190: 974d de3e 248d 25be 1198 e6be ea60 12be
000001a0: 87ac 21bf 812c 153e c2e5 523e 07a2 033f
000001b0: 72ee 02bf 6921 c9bd 02cd 75bc 4e14 a63e
000001c0: f6b3 53bc 2886 733c 3754 8cbe 8644 4f3e
000001d0: f634 61be 471b 40bf 087c 0ebe 1ea1 b2be
000001e0: b55f 2fbe b5fc 003e e171 f83d 8e95 23bf
000001f0: a068 41bd 1fda c9be 39cb 84be 5558 3abe
0.13123433 0.18147177 0.66566724 -0.0021411797 -0.08799818 0.33772293 -0.29100913 0.27406952
0.2240308 -0.07836419 -0.06568271 0.37262455 -0.77133936 0.5098941 -0.0005108865 -0.42664865
-0.5503073 -0.40941322 0.29612046 -0.08380836 -0.21332282 0.42934823 -0.15330087 -0.27555466
0.1611722 0.25600293 0.08253109 0.18411365 -0.9904067 -0.108607754 0.13328975 0.13190232
-0.124710545 -0.12685241 -0.34160826 -0.3263062 -0.8088165 -0.52862054 -0.028497795 0.1338246
-0.5538487 0.118729204 -0.018313631 0.03652668 0.01261799 -0.19946861 -0.049087584 -0.13545547
-0.20051982 0.013087356 -0.045792922 0.18040344 0.45411032 0.40900406 -0.16026434 -0.08993865
0.13666303 0.3141198 -0.15026368 0.31200865 -0.20747198 0.022371963 0.058348037 -0.09747884
-0.4702063 -0.2575297 0.38235092 0.35406712 0.26708072 -0.15259324 -0.9569557 0.10124215
0.31312266 0.24745506 -0.39480397 -0.8777682 -0.020693935 -0.10493823 -0.21918005 -0.17643031
-0.63370174 -0.1568714 0.24990094 0.45551744 -0.048804138 0.16470794 -0.38278058 0.3787941
-0.25569907 0.21709718 0.25756466 -0.17143656 -0.06223671 -0.4553344 -0.066760875 -0.31631267
-0.14582823 0.013265188 -0.10873785 0.15099628 0.4341857 -0.16167122 -0.45037892 -0.14294782
-0.6315388 0.14567758 0.20595458 0.5141911 -0.5114509 -0.098208256 -0.015002491 0.32437366
-0.012921324 0.014863528 -0.27408 0.20240983 -0.21992859 -0.7504162 -0.13914502 -0.34888548
-0.17126353 0.125964 0.12131096 -0.6390008 -0.04721892 -0.39424226 -0.25936297 -0.18197758
