p2_continuous-control/checkpoint_actor.pth (torch_old, 600141 bytes, 6 tensors)

fc1.weight f4 [512, 33]
0	0x3c31ac82	0.010844352
1	0xbcc99a1a	-0.024609614
2	0xbcb285a0	-0.021792233
3	0xbcb7213e	-0.022354718
4	0x3d9f0f9f	0.07766651
5	0xbd9dfab9	-0.07713837
6	0xbcb73910	-0.022366077
7	0x3d1708bd	0.036873568
8	0xbbe5b139	-0.007009652
9	0xbd1a61e4	-0.037691012
10	0x3d897f8a	0.06713779
11	0xbc2a7db3	-0.010405946
12	0xbd412887	-0.04715779
13	0x3c118912	0.008882778
14	0x3c160836	0.009157231
15	0x3c5a3b86	0.013319856
16	0xbd4391e8	-0.04774657
17	0xbb9835bf	-0.004645079
18	0x3ca98ee2	0.020698015
19	0x3b53bdb9	0.0032309128
20	0x3d2ebaa2	0.042658456
21	0x3d24210e	0.040070586
22	0x3c5fbee3	0.013656351
23	0x3c47de56	0.012199005
24	0xbbb70c72	-0.0055862004
25	0x3c045994	0.008077998
26	0x3cb20c21	0.0217343
27	0xbc624cc2	-0.013812246
28	0x3cb8486d	0.022495473
29	0x3bea14e0	0.007143602
30	0xbd546206	-0.051851295
31	0x3d312d4d	0.043256093
32	0x3c2056bf	0.009786307
33	0xbca3cd63	-0.019995397
34	0xbb0f105b	-0.0021829817
35	0x3d4578a8	0.04821077
36	0x3cd720cf	0.026260762
37	0x3cd608f5	0.026127318
38	0xbcedef5d	-0.029044801
39	0x3cb5bdcb	0.022185227
40	0x3c9157b1	0.01774201
41	0xba8ffbb2	-0.0010985045
42	0xbd223117	-0.039597597
43	0x3b93f5be	0.0045153787
44	0xbd043f81	-0.032287125
45	0x3c237856	0.009977421
46	0xbcf4fe80	-0.029906511
47	0x3cf3ad9b	0.029745867
48	0xbc8b926c	-0.017037593
49	0xbd472b88	-0.0486255
50	0xbd09d9b5	-0.033654887
51	0x3bee0df9	0.0072648493
52	0xbd7025ee	-0.058629923
53	0xbae1fb72	-0.0017241074
54	0x3c27932f	0.010227962
55	0xbd18654f	-0.03720599
56	0xbb50a953	-0.0031839206
57	0x3b365adc	0.0027825153
58	0xbc9acc52	-0.018896256
59	0x3be75dc5	0.0070607387
60	0x3e111602	0.14168552
61	0xbc06623a	-0.00820213
62	0x3a8d42e0	0.0010777377
63	0xbdd85a2b	-0.10564073
64	0x3d3353df	0.043781158
65	0xbd9f065c	-0.07764885
66	0x3c0ce52d	0.008599562
67	0xbbc0869f	-0.005875423
68	0x3b14d953	0.0022712543
69	0xbd9f3256	-0.07773273
70	0xbca75b6f	-0.020429341
71	0x3d0bcbe1	0.03412998
72	0xbd9111a8	-0.07083446
73	0xbb2b9d2f	-0.0026186218
74	0x3ca5b926	0.020229887
75	0xbd37ec50	-0.0449031
76	0x3b3479b7	0.0027538368
77	0xbaf06323	-0.0018340092
78	0xbd1f2508	-0.038853675
79	0xbc2b48ac	-0.010454338
80	0x3caaf180	0.02086711
81	0x3d036188	0.032075435
82	0xbcbc015c	-0.022949867
83	0x3d1cf908	0.038323432
84	0xbba1b531	-0.00493493
85	0x3b9fed13	0.0048805564
86	0xbc7263c8	-0.0147942975
87	0xbbf5cd92	-0.0075013125
88	0xbc626cab	-0.013819854
89	0x3d3aa31a	0.045565702
90	0xbc6e42ad	-0.014542264
91	0xbcd8dc77	-0.026472313
92	0x3e21e27f	0.15809058
93	0x3d8ed6b9	0.06974549
94	0xbe667749	-0.22506441
95	0x3c35be8c	0.011092793
96	0xbcb72662	-0.02235717
97	0xbc309a8c	-0.010779034
98	0x3e720666	0.23635253
99	0x3c03837e	0.008026956
100	0xbcde041c	-0.027101569
101	0xbb1a3b49	-0.0023533872
102	0x3cd76133	0.026291465
103	0x3ce0ae30	0.02742681
104	0x3bcd880e	0.0062723225
105	0x3d35bb1b	0.04436789
106	0xbc8ccc0d	-0.017187143
107	0xbcda6858	-0.026661083
108	0xbc5f932f	-0.013645931
109	0x3ba9948c	0.005175179
110	0x3c33d566	0.010976171
111	0x3ca2bb29	0.019864636
112	0xbb269020	-0.0025415495
113	0x3c3b4b14	0.011431474
114	0xbd4b62a9	-0.049654637
115	0xbd4467af	-0.047950443
116	0x3d14654c	0.036229417
117	0x3d19954b	0.037495892
118	0xbc11dec6	-0.008903211
119	0x3ba14221	0.0049212133
120	0xbd323035	-0.043503005
121	0xbc4ab554	-0.012372334
122	0x3af4db3f	0.0018681063
123	0xbca13570	-0.019678801
124	0x3bdb315e	0.0066892346
125	0xbd420870	-0.047371328
126	0xb9c1f08a	-0.00036991044
127	0x3dd42275	0.10358135
128	0xbb259ca0	-0.0025270358
129	0xbd02e88b	-0.03196005
130	0xbc4f007c	-0.012634393
131	0xbd80910a	-0.06277664
132	0xbd33b940	-0.04387784
133	0xbd165668	-0.036703497
134	0x3c8d7fea	0.017272908
135	0xbd80a21b	-0.06280919
136	0xbc52e07a	-0.012870902
137	0x3c68637f	0.014183878
138	0xbcb442f6	-0.022004586
139	0x3c1acab2	0.00944774
140	0x3cac5add	0.02103942
141	0x3c812f19	0.015769528
142	0x3b681683	0.0035413809
143	0x3cd55604	0.026041992
144	0xbd12f3e4	-0.035877123
145	0xbd0a4bf9	-0.03376386
146	0x3c7afd2d	0.015319151
147	0xbca62314	-0.020280398
148	0x3d0b4106	0.033997558
149	0xbbbf53b0	-0.0058388337
150	0x3d280ceb	0.041027945
151	0x3ca58860	0.02020663
152	0xbbc84c53	-0.006112614
153	0xbca6f368	-0.020379737
154	0x3c2910af	0.010318919
155	0xbb13daa4	-0.002256074
156	0xbcbcfbbe	-0.023069259
157	0xbc19f11c	-0.009395864
158	0x3dfd6ff3	0.12374868
159	0x3ca2fcfe	0.019896027
160	0x3d170d8f	0.036878165
161	0x3cd1958a	0.025584001
162	0x3c353a49	0.01106126
163	0xbd33bc29	-0.043880615
164	0xbe9cfdf4	-0.306625
165	0xbc5a3b58	-0.013319813
166	0x3ce28ce7	0.027655078
167	0xbd01539e	-0.031573884
168	0xbca97cbf	-0.020689366
169	0xbcac1d3d	-0.021010036
170	0x3d43856b	0.04773466
171	0xbd310ded	-0.04322617
172	0xbce17bb1	-0.027524801
173	0xbc773e3b	-0.0150905205
174	0x3ca0c382	0.019624475
175	0xbcb0c01a	-0.021575976
176	0x3c355697	0.011068008
177	0x3c3e6e67	0.011623002
178	0xbcb1f42b	-0.021722874
179	0xb9cddccd	-0.00039265156
180	0xbccd6032	-0.025070284
181	0xbcae67aa	-0.021289665
182	0x3b56f163	0.0032797686
183	0x3c073c3e	0.008254109
184	0x3d130afe	0.035899155
185	0x3cebe32e	0.028794851
186	0x3c2780a5	0.010223542
187	0x3cc2d848	0.023784772
188	0x3d05b861	0.03264654
189	0x3d052f67	0.03251591
190	0x3b9223a3	0.0044598146
191	0x3c801f27	0.015639855
192	0x3c794fdd	0.015216795
193	0x3e2ce0b0	0.16882586
194	0x391d0800	0.00014975667
195	0xbd0a7437	-0.033802237
196	0x3d204b49	0.039134298
197	0x3e851537	0.25992748
198	0x3c95f871	0.018306943
199	0xbbdef22a	-0.0068037705
200	0x3c1237a6	0.0089244
201	0x3d6ca4b5	0.057774264
202	0xbd6ab1a2	-0.05729831
203	0x3c8dbb32	0.017301176
204	0x3cac19be	0.021008369
205	0x3cd3a2e4	0.025834508
206	0x3bd0a3f1	0.0063671996
207	0xbd98aeb2	-0.074551955
208	0x3c84a456	0.016191643
209	0x3d9230ae	0.07138191
210	0xbbce3206	-0.0062925844
211	0x3c730938	0.014833741
212	0x3d34e930	0.044167697
213	0xbc63b5b5	-0.013898303
214	0xbcc14956	-0.02359454
215	0xbcccbd0f	-0.024992494
216	0x3be0b81b	0.0068578846
217	0x3d2807c6	0.04102304
218	0x3d609253	0.054827046
219	0x3b911a2e	0.0044281697
220	0xbd681454	-0.05666001
221	0x3bc8dec7	0.0061300728
222	0x3c86a657	0.016436739
223	0xbbaa06e6	-0.0051888106
224	0x3cb85b66	0.02250452
225	0x3dc5de44	0.096615344
226	0xbd0f0253	-0.034914326
227	0x3d15a2b3	0.036532115
228	0xbcf8e924	-0.030384608
229	0x3c822fc4	0.015891917
230	0xbd318b41	-0.043345693
231	0x3d47d903	0.048790943
232	0x3d2151a1	0.039384488
233	0xbc8b08b4	-0.016971923
234	0xbca785aa	-0.020449478
235	0x3d46d561	0.048543338
236	0x3ce68c20	0.028142989
237	0x3d3fc4df	0.04681861
238	0xbcf5dfd7	-0.030013962
239	0xbd1d418a	-0.03839258
240	0x3d10d839	0.035362456
241	0x3d109f58	0.035308212
242	0xbcb4703c	-0.022026174
243	0x3d4b3d74	0.049619153
244	0xbc34345f	-0.010998814
245	0x3c4a0bc8	0.01233191
246	0x3b7b357f	0.0038331447
247	0xbd88b999	-0.06676025
248	0xbb2a6683	-0.0026001043
249	0x3b0abb71	0.0021168853
250	0x3d37dfca	0.044891156
251	0xbc6d1195	-0.014469524
252	0x3cc18764	0.02362413
253	0xbc2f8ac8	-0.01071424
254	0x3d1a7eab	0.037718456
255	0xbc3c5b86	-0.01149643

fc1.bias f4 [512]
0	0xbe2a6645	-0.16640575
1	0x3b743dce	0.0037268284
2	0xbe3118d7	-0.17294632
3	0x3d9e71bb	0.07736536
4	0x3d4bfe07	0.049802806
5	0x3e168d58	0.14702356
6	0x3d75d9cb	0.060022157
7	0xbd62c4b8	-0.055363387
8	0xbd158bd0	-0.03651029
9	0xbd6d4fcc	-0.05793743
10	0xbde68367	-0.11255532
11	0x3de66fbd	0.11251781
12	0xbe305287	-0.17218982
13	0xbd12f954	-0.03588231
14	0xbd4f7c1e	-0.050655477
15	0xbe385791	-0.18002154
16	0xbd68774f	-0.056754407
17	0xbe15c5ec	-0.14626282
18	0x3e02605c	0.1273207
19	0xbd417e2e	-0.047239475
20	0xbcf806fb	-0.030276766
21	0x3e08b77e	0.13351247
22	0xbe307cdb	-0.17235129
23	0xbc9c8e5a	-0.019110847
24	0xbe011d1a	-0.12608758
25	0x3d8298cf	0.06376802
26	0xbdf39a7f	-0.11894702
27	0xba66716f	-0.00087907066
28	0xbdaa53d6	-0.08316772
29	0x3e0894fa	0.1333808
30	0xbb9ad409	-0.0047249836
31	0xbc8e0b8f	-0.017339496
32	0x3d7f0ca9	0.062267933
33	0xbe437b70	-0.19090056
34	0x3def908f	0.11697494
35	0x3e2511bf	0.16120051
36	0xbe3fbfa3	-0.18725447
37	0x3dfee029	0.12445099
38	0xbdd81b35	-0.10552064
39	0xbe28e581	-0.16493799
40	0xbd82be8f	-0.063840024
41	0x3daa2eea	0.083097294
42	0x3e143588	0.14473546
43	0xbe37b7a7	-0.17941152
44	0x3c0ae44f	0.008477285
45	0x3d2502a7	0.040285733
46	0xbde826c6	-0.113355204
47	0xbda25218	-0.079258144
48	0xbdfc1ae0	-0.123098135
49	0x3c997236	0.018731218
50	0x3c1558ba	0.009115392
51	0xbde22f7a	-0.11044212
52	0xbe17b327	-0.14814435
53	0xbe2d572f	-0.16927789
54	0xbd91d1e2	-0.0712011
55	0x3c03b480	0.00803864
56	0x3da8c871	0.08241356
57	0xbe4fde40	-0.20299625
58	0x3c07c830	0.0082874745
59	0x3aaba45d	0.0013095249
60	0x3dc3c509	0.09559066
61	0xbddbac41	-0.10726214
62	0xbe42e93c	-0.19034284
63	0x3c5ef7f5	0.013608922
64	0xbe4d6074	-0.20056325
65	0x3d972e68	0.07381898
66	0x3d7fa8fd	0.06241702
67	0xbdba073d	-0.09083412
68	0xbd028f5e	-0.031875007
69	0x3e029d41	0.127553
70	0x3dda5e69	0.106625386
71	0xbdffa1e8	-0.12482053
72	0x3e13b724	0.14425331
73	0x3dde3ed4	0.10851827
74	0xbe0624bc	-0.1309995
75	0xbe3cd9a9	-0.18442406
76	0x3d51b8b5	0.05120154
77	0x3da9628c	0.082707494
78	0xbcbb7200	-0.022881508
79	0xbde995a0	-0.11405492
80	0xbdd1f534	-0.10251847
81	0x3d3b5ffe	0.045745842
82	0xbe2870ff	-0.16449355
83	0xbdc1278d	-0.09431372
84	0x3e09b89a	0.13449326
85	0xbdf29020	-0.11843896
86	0x3e046c59	0.12931956
87	0x3af6c48a	0.0018826884
88	0xbe178a39	-0.14798822
89	0x3d857eaa	0.065183
90	0xbdee5338	-0.116369665
91	0xbe034ff8	-0.12823474
92	0xbc787592	-0.01516475
93	0xbcc6b6a1	-0.024257006
94	0x3dc2277c	0.09480187
95	0xbdc755ff	-0.09733199
96	0xbc0dd3d6	-0.008656463
97	0xbdb032cf	-0.08603441
98	0xbda90a21	-0.08253885
99	0xbd1864a6	-0.03720536
100	0xbde09fa0	-0.10967946
101	0xbe021958	-0.1270498
102	0x3dd2c795	0.102919735
103	0xbdc14f66	-0.09438972
104	0x3df3c3b0	0.11902559
105	0x3ddea5b3	0.10871448
106	0xbd05bf7b	-0.032653313
107	0xbdfb9205	-0.122837104
108	0x3b2cecff	0.0026386378
109	0xbd11e985	-0.035623092
110	0x3cdca3bd	0.026933545
111	0xbe15bf72	-0.14623812
112	0x3d1ebcaf	0.03875416
113	0xbd496b77	-0.049174752
114	0xbd8cdafe	-0.06877707
115	0xbd8dee4c	-0.06930217
116	0x3d1e3d17	0.03863248
117	0x3d3ae43f	0.04562783
118	0xbe1bee27	-0.15227567
119	0x3d817a40	0.063221455
120	0xbe11a4fa	-0.1422309
121	0xbdee7aec	-0.11644539
122	0x3cb2a7a4	0.021808453
123	0x3e0afb71	0.1357248
124	0xbe10aa3a	-0.14127436
125	0xbdb84933	-0.08998337
126	0xbdf9695d	-0.121782996
127	0xbd57aa82	-0.052652843
128	0xbdbdb020	-0.09262109
129	0xbe472a9e	-0.19449851
130	0x3d30e79d	0.043189634
131	0xbdce223d	-0.10065124
132	0x3dadf47e	0.08493899
133	0xbe0d174b	-0.13778417
134	0x3e25ae9b	0.16179888
135	0xbb7cbf3f	-0.003856614
136	0x3db35b96	0.08757703
137	0x3d44d7a8	0.04805723
138	0xbde3b720	-0.11118913
139	0x3c50e632	0.012750195
140	0x3d46a1d1	0.048494164
141	0x3cae4856	0.021274727
142	0x3dcf06ee	0.101087436
143	0x3dba4f1b	0.090971194
144	0xba476f28	-0.0007607811
145	0xbd65d6df	-0.05611312
146	0xbc8b02d8	-0.01696913
147	0xbdf3d95c	-0.119066924
148	0x3dab76cd	0.08372269
149	0xbe364505	-0.17799766
150	0xbd1c844a	-0.0382121
151	0xbe224e33	-0.15850143
152	0x3da3a9a2	0.07991339
153	0x3e028ebf	0.12749766
154	0xbdd0d498	-0.10196799
155	0xbd459975	-0.04824205
156	0x3df04105	0.117311515
157	0xbe25591d	-0.16147275
158	0xbe19e4cb	-0.15028684
159	0xbc8cf1c3	-0.017205125
160	0xbd45adc8	-0.048261434
161	0xbe36d79b	-0.17855684
162	0x3dab890e	0.083757505
163	0xbd8e0973	-0.06935396
164	0xbd7ef4e4	-0.062245265
165	0xbe416eb7	-0.1888989
166	0x3dfce11f	0.12347626
167	0xbd52ca2e	-0.051462345
168	0x3dc08790	0.094008565
169	0xbdc3bb27	-0.09557181
170	0xbe2c5f18	-0.1683315
171	0xbd8b205d	-0.06793282
172	0xbc97761d	-0.018488938
173	0x3ddc7df6	0.10766213
174	0xbdc4b388	-0.09604555
175	0xbd3009f4	-0.042978242
176	0x3cb9d5e7	0.022685004
177	0x3d70b048	0.058761865
178	0x3d005aae	0.03133648
179	0x3deefae4	0.11668947
180	0x3b50f9a7	0.0031887086
181	0xbdc5abbf	-0.096518986
182	0x3dfcf7c7	0.12351947
183	0xb82d0841	-4.12541e-05
184	0xbd824652	-0.06361069
185	0xbd555829	-0.05208603
186	0xbbfe3b3d	-0.0077585266
187	0x3e29f335	0.16596682
188	0x3cca84de	0.02472156
189	0xbdaa8dca	-0.08327825
190	0x3df26af7	0.11836808
191	0xbd00d025	-0.031448502
192	0xbdc99d4c	-0.09844455
193	0xbdaeab2f	-0.085287444
194	0xbdca4bd9	-0.09877748
195	0xbd69a9c5	-0.05704667
196	0xbc776d07	-0.015101678
197	0x3dc2276f	0.094801776
198	0xbda1f297	-0.079075985
199	0xbd50877a	-0.05091045
200	0x3ac83751	0.0015275275
201	0x3c7ed8d5	0.0155546265
202	0x3c6d8988	0.014498122
203	0x3cdb322c	0.026757322
204	0xbd784402	-0.060611732
205	0xbe2fb462	-0.17158654
206	0xbe602ae2	-0.21891358
207	0xbe247af3	-0.16062526
208	0xbe2abb3f	-0.16672991
209	0xbd41e946	-0.047341608
210	0x3e0bdc2a	0.13658205
211	0xbdc6e0eb	-0.097108684
212	0xbdd0a934	-0.10188523
213	0xbc2ca811	-0.010538117
214	0x3e2ebfa1	0.17065288
215	0xbe461d7e	-0.19347188
216	0xbe23f1cf	-0.16010211
217	0xbe2ccda8	-0.16875327
218	0xbcd494e8	-0.02594991
219	0xbe18323d	-0.14862914
220	0xbe6617e3	-0.2247005
221	0x3e1c683b	0.15274136
222	0x3d4f9ff0	0.050689638
223	0x3de6f1af	0.11276566
224	0xbe03affb	-0.128601
225	0x3d812bb8	0.06307167
226	0xba7e6eb4	-0.0009705827
227	0xbdbd2043	-0.09234669
228	0xbe168434	-0.14698869
229	0xbdf59a3b	-0.11992308
230	0xbdbc4cc3	-0.09194329
231	0xbd2fb185	-0.042893905
232	0xbd32455a	-0.04352317
233	0x3dfdbb53	0.12389245
234	0xbd3f2ecc	-0.04667549
235	0x3b7d4699	0.0038646816
236	0xbd734260	-0.059389472
237	0x3d3714ac	0.04469745
238	0xbdbdf304	-0.09274867
239	0xbe0b50e5	-0.13605078
240	0xbdf14804	-0.11781314
241	0xbe2c229b	-0.16810076
242	0xbe188984	-0.14896208
243	0xb61fb9f5	-2.3801088e-06
244	0xbe1c541e	-0.15266463
245	0x3d19aceb	0.037518423
246	0x3e3b3c92	0.18284824
247	0xbe3b5a01	-0.18296053
248	0x3da438bc	0.08018634
249	0xbd1f3ebb	-0.038878184
250	0x3de701e1	0.11279655
251	0x3c2b0e22	0.010440381
252	0xbda0a05b	-0.078430854
253	0xbcb86a6a	-0.02251168
254	0xbe58bb79	-0.21165265
255	0xbceaf0bd	-0.028679246

fc2.weight f4 [256, 512]
0	0x3d52ece4	0.051495448
1	0xbd01c281	-0.031679634
2	0xbd654bd2	-0.05598051
3	0x3d90f610	0.07078183
4	0xbd10cacb	-0.03534965
5	0x3ca60433	0.020265674
6	0x3cc687a0	0.024234593
7	0x3cd2cbd3	0.025731957
8	0xbbeae2fa	-0.007168171
9	0x3d842c7a	0.06453796
10	0x3de4e569	0.11176569
11	0x3d6840ab	0.056702297
12	0x3dace280	0.08441639
13	0x3d1c1145	0.038102407
14	0x3d63d63c	0.05562423
15	0x3d370cfb	0.044690114
16	0x3d4b97f8	0.049705476
17	0xbd17fad4	-0.037104443
18	0x3dab13d0	0.08353388
19	0x3d6b3c0a	0.057430305
20	0xbd3a1663	-0.045431506
21	0x3db3aeb6	0.08773558
22	0x3d66998b	0.056298774
23	0x3d3cf5bb	0.046132784
24	0xbd1e86a0	-0.038702607
25	0xbcf957c6	-0.030437361
26	0x3d3c1d07	0.04592612
27	0x3d9581b4	0.073001295
28	0x3cf21146	0.029549252
29	0xbc08dd01	-0.008353473
30	0xbd2f55ae	-0.04280632
31	0x3cea3c77	0.028593285
32	0xbdd24f21	-0.10268999
33	0xbc87169c	-0.016490273
34	0xbc955ab7	-0.018231733
35	0x3e1040fa	0.14087287
36	0x3cab6529	0.02092226
37	0xbc857ee4	-0.016295858
38	0xbcfa5a3a	-0.030560602
39	0x3bbc82f2	0.0057529146
40	0x3e026bd5	0.12736447
41	0xbc812e4b	-0.015769145
42	0xbc1fad35	-0.009745886
43	0x3d5f3c7a	0.054501034
44	0xbdada389	-0.084784575
45	0x3df5a89c	0.1199505
46	0xbd243983	-0.04009391
47	0x3e22e2d6	0.15906844
48	0xbc53d355	-0.012928803
49	0x3c9929f2	0.018696759
50	0xbd6da7da	-0.058021404
51	0x3d70c5ae	0.058782272
52	0xbb28b53a	-0.0025742785
53	0xbc2e8cf1	-0.01065372
54	0xbcaf402e	-0.021392908
55	0x3cbc96e5	0.02302117
56	0x3d85fab0	0.065419555
57	0xbd8617fa	-0.06547542
58	0x3d17e1fc	0.03708075
59	0xbc78d0f0	-0.015186533
60	0xbd152a17	-0.036417093
61	0x3d969572	0.07352723
62	0x3cca05d4	0.024660982
63	0x3d8494ac	0.064736694
64	0xbcef9f96	-0.029250901
65	0x3cd43f56	0.025909107
66	0xbc4d7339	-0.012539678
67	0xbbddd3e6	-0.006769645
68	0x3d5d93d6	0.054096065
69	0x3dcf82ca	0.10132368
70	0x3d892747	0.06696945
71	0x3c34edfd	0.011043069
72	0x3c681b06	0.014166599
73	0x3d74f771	0.05980629
74	0x3ca99099	0.020698832
75	0x3e22e9be	0.15909478
76	0x3d6b842c	0.057499096
77	0x3d25a9c6	0.04044511
78	0xbcbeb892	-0.02328137
79	0x3c5a93b4	0.013340879
80	0xbc21f53c	-0.009885129
81	0x3cf4cafc	0.029881947
82	0xbd7ce6be	-0.06174349
83	0x3d11b019	0.03556833
84	0xbca5d76a	-0.020244319
85	0xbd7e3ca3	-0.062069546
86	0x3d0b8659	0.03406367
87	0xbd3e092f	-0.046395477
88	0xbd38ab03	-0.045084964
89	0xbd12a28f	-0.03579956
90	0xbd7e1da2	-0.06203998
91	0x3c6b8706	0.014375454
92	0xbaeec006	-0.0018215186
93	0xbb79c3b3	-0.003811103
94	0x3d0528df	0.03250968
95	0xbc06468b	-0.00819553
96	0x3d15d360	0.036578536
97	0x3d7add7e	0.061246388
98	0x3d804464	0.062630445
99	0xbcc29482	-0.023752455
100	0xbc6d2825	-0.014474903
101	0x3cca2a17	0.024678273
102	0xbd42911b	-0.047501665
103	0x3d40efaa	0.04710356
104	0xbd9d17e6	-0.07670574
105	0x3c1a0f5e	0.009403078
106	0xbbb50be8	-0.005525101
107	0x3e0c4140	0.13696766
108	0xbac72aff	-0.0015195309
109	0x3e5149fa	0.20438376
110	0xbd050fec	-0.032485887
111	0x3c56b3a4	0.013104353
112	0x3cc7cc61	0.024389448
113	0x3d8b7c3b	0.068108045
114	0xbd83210c	-0.064027876
115	0xbd980c3b	-0.07424208
116	0x3d703ef0	0.058653772
117	0x3dde01c6	0.10840182
118	0xbd3b1a3d	-0.04567932
119	0xbbe1bff3	-0.006889337
120	0x3d4a37b2	0.04936952
121	0x3d266bbe	0.040630095
122	0x3d36347e	0.044483654
123	0x3c6654ff	0.014058351
124	0x3d28836c	0.04114096
125	0xbd90388e	-0.07042037
126	0x3de37c4d	0.11107693
127	0xbcab99c2	-0.02094734
128	0x3d298388	0.041385204
129	0x3dae5a34	0.08513299
130	0x3c988e13	0.018622434
131	0x3e152b5b	0.1456732
132	0xbce1413e	-0.02749693
133	0x3d6f262b	0.05838601
134	0xbcb7cbe9	-0.0224361
135	0x3d890904	0.06691173
136	0x3c9fe436	0.019518
137	0xbd376063	-0.044769656
138	0x3c5ea30a	0.013588676
139	0xbdae3280	-0.08505726
140	0x3cbab7b1	0.022792669
141	0xb793e250	-1.762915e-05
142	0xbd820a77	-0.06349652
143	0x3d80acd4	0.06282964
144	0xbcc1c964	-0.0236556
145	0xbd0a1e79	-0.033720467
146	0x3daf6ab6	0.08565275
147	0xbbd72b34	-0.0065664295
148	0x3daa3c78	0.08312315
149	0x3e4f2efc	0.20232767
150	0x3db6961c	0.0891535
151	0xbd1dcff8	-0.038528413
152	0x3cad5088	0.021156564
153	0x3d76ea98	0.06028232
154	0x3c95b390	0.018274099
155	0xba21911d	-0.0006163286
156	0x3d2b2801	0.041786198
157	0x3db25276	0.087071344
158	0xbcd84d3c	-0.026404016
159	0x3d90aded	0.07064424
160	0x3d14dfe7	0.036346342
161	0xba51028a	-0.00079730956
162	0xbc87ea9a	-0.016591359
163	0x3dcf3c5b	0.10118934
164	0xbd484d83	-0.048902046
165	0x3d30d046	0.043167375
166	0xbd34384a	-0.043998994
167	0x3d99e3c6	0.075141475
168	0x3db1719f	0.0866425
169	0x3e06a5d4	0.13149196
170	0xbd5df758	-0.054190964
171	0xbb3734e1	-0.0027955102
172	0xbcf5a09f	-0.029983817
173	0x3d4e21a6	0.05032506
174	0x3d584ed5	0.052809555
175	0x3d48ae60	0.048994422
176	0x3ceb271c	0.028705172
177	0x3ef4897c	0.47761142
178	0xbc661f81	-0.014045597
179	0xbbfefa86	-0.0077813296
180	0x3c6e85d0	0.014558271
181	0xbd313446	-0.043262742
182	0x3cf73eb6	0.03018127
183	0xbdcf27df	-0.10115027
184	0xbd66344c	-0.056202218
185	0x3e050a73	0.12992267
186	0xbd68a98c	-0.056802318
187	0xbd729de0	-0.059232593
188	0xbb4ce3a1	-0.0031263607
189	0x3d2e7314	0.042590216
190	0xbbca89fc	-0.006181
191	0xbd469c2c	-0.04848878
192	0x3d875227	0.06607466
193	0x3e22cb35	0.1589783
194	0x3cdb9aff	0.026807306
195	0xbb51661e	-0.0031951736
196	0x3d82402d	0.06359897
197	0xbd2258f9	-0.039635632
198	0x3dbb80f5	0.09155456
199	0xbd1edd16	-0.038785063
200	0xbc086b71	-0.008326397
201	0xbd8d6e1f	-0.069057696
202	0x3d86120c	0.06546411
203	0xbcd90fe5	-0.026496837
204	0xbe1779d8	-0.14792573
205	0xbd3f8288	-0.046755344
206	0x3d38c495	0.04510935
207	0xbbfba607	-0.007679704
208	0x3d8e9654	0.069622666
209	0x3c59162a	0.013249913
210	0xbd012705	-0.031531353
211	0x3cda59e5	0.026654193
212	0xbd7f8c44	-0.062389627
213	0xbdf99105	-0.121858634
214	0x3d220db8	0.039563864
215	0x3d53083e	0.051521532
216	0xbb4233e2	-0.0029632975
217	0xbbb9c08d	-0.005668706
218	0xbcfef8c7	-0.031124486
219	0xbb908a8d	-0.004411048
220	0x3d9a892b	0.07545694
221	0x3dd83f9e	0.10559009
222	0x3d067fb2	0.032836623
223	0x3ceede03	0.029158598
224	0xbabd91f2	-0.0014463051
225	0xbd05150d	-0.03249078
226	0x3c90ec0a	0.017690677
227	0xba8927de	-0.0010464152
228	0xbc10ec6a	-0.008845428
229	0x3d6595ef	0.05605119
230	0x3da6d446	0.08145957
231	0xbd1c690d	-0.03818612
232	0x3db74d65	0.08950309
233	0xbd08fa4b	-0.033441823
234	0x3c3d5c56	0.011557659
235	0x3d15dccf	0.036587533
236	0x3b84aad8	0.0040486865
237	0x3d4b0233	0.049562644
238	0x3c9d5d74	0.019209601
239	0x3c18be3e	0.009322701
240	0x3b8b16ef	0.0042446773
241	0x3ce3f639	0.027827369
242	0x3dc21940	0.09477472
243	0xbdaaccd7	-0.08339851
244	0x3d22f302	0.03978253
245	0xbce83e0c	-0.028349899
246	0x3cc575d4	0.024104036
247	0x3d81638e	0.06317817
248	0x3d5fdd72	0.054654546
249	0x3d1f09c0	0.038827658
250	0x3d097331	0.03355712
251	0x3c02c885	0.007982378
252	0x3cc3bab9	0.023892747
253	0xbd797adc	-0.060908183
254	0x3cac3a08	0.021023765
255	0xbd64a3be	-0.05582022

fc2.bias f4 [256]
0	0x3d45300e	0.04814153
1	0xbd88b103	-0.06674387
2	0xbcb1dc05	-0.021711359
3	0x3d470272	0.048586316
4	0x3d4e936b	0.050433557
5	0xbcae6487	-0.02128817
6	0xbd3026cf	-0.04300576
7	0x3ca24b7e	0.019811388
8	0x3d6d11f9	0.05787847
9	0x3d417b3b	0.047236662
10	0x3cf36fbe	0.029716369
11	0x3c997ba1	0.018735709
12	0x3c1d4816	0.009599706
13	0x3d6ee572	0.058324285
14	0x3c8fc172	0.017548297
15	0xbd535c47	-0.051601674
16	0x3b47fe80	0.0030516684
17	0xbd68be2e	-0.056821994
18	0xbbb12d07	-0.005406979
19	0xbbee2e52	-0.0072687054
20	0xbc280c40	-0.010256827
21	0x3bb35687	0.0054729613
22	0xbd457f14	-0.048216894
23	0x3d6f27ac	0.058387443
24	0x3ca078ee	0.019588914
25	0xbbc9eda9	-0.0061623645
26	0x3cfe1164	0.031014152
27	0x3c8fd4e9	0.017557578
28	0x3b9a3e8d	0.0047071637
29	0xbc6a3316	-0.014294406
30	0xbc9439e2	-0.018094007
31	0x3c29673d	0.010339555
32	0xbd000259	-0.03125224
33	0xbcec9a80	-0.028882265
34	0xbcaf1ce7	-0.021376086
35	0x3a5f0df6	0.0008508855
36	0xbcfcd612	-0.030863795
37	0x3d2ea274	0.042635396
38	0x3cc5315f	0.024071394
39	0xbd03f5e7	-0.032216933
40	0x3d1191f2	0.035539575
41	0xbc0072bb	-0.007839854
42	0xbd6b7492	-0.057484217
43	0xbc7555d7	-0.014974079
44	0xbcc9d580	-0.024637938
45	0x3caa68b7	0.020801885
46	0xbd5b72b6	-0.053576194
47	0xbcbc74b6	-0.02300487
48	0x3d221c37	0.03957769
49	0x3da26b70	0.07930648
50	0x3ce67606	0.02813245
51	0x3b0dd6a3	0.0021642826
52	0xbcfb13ad	-0.03064903
53	0xbb077faa	-0.002067546
54	0xbd8f75ca	-0.07004888
55	0xbdc20634	-0.094738394
56	0xbd219869	-0.03945199
57	0xbcb68212	-0.02227882
58	0xbcb7d4e2	-0.022440378
59	0xbce2b34e	-0.02767339
60	0xbc310df0	-0.010806546
61	0x3c660703	0.014039758
62	0xbc9a5900	-0.018841267
63	0x3cefb3b4	0.029260494
64	0x3c55d677	0.013051621
65	0x3d5f93ec	0.05458443
66	0x3ca3a7df	0.019977508
67	0xba4eef20	-0.0007893909
68	0xbd0661c1	-0.03280807
69	0x3d02185b	0.03176151
70	0x3d2701be	0.040773146
71	0xbc0a7a33	-0.008451986
72	0xbc297265	-0.010342215
73	0x3cb6c7ea	0.022312123
74	0x3d2e12ff	0.042498585
75	0x3c84f0f9	0.016228186
76	0x3b2d02d9	0.0026399402
77	0xbd371e31	-0.044706527
78	0x3c126180	0.008934379
79	0x3c76cc10	0.015063301
80	0x3d832d42	0.064051166
81	0xbd13a1e3	-0.03604306
82	0x3dab5529	0.083658524
83	0xbd0ed3bf	-0.034869906
84	0x3dc3eb02	0.095663086
85	0xbbe017b4	-0.006838763
86	0xbda40cf0	-0.0801028
87	0x3d371b2b	0.044703644
88	0xbd18cced	-0.037304807
89	0x39f34e94	0.00046407117
90	0xbcdba87b	-0.026813736
91	0x3cf5aff8	0.029991135
92	0x3cb9e791	0.022693427
93	0xbd8a31b9	-0.06747765
94	0xbcc04365	-0.023469636
95	0xbd516ee6	-0.05113115
96	0xbb5a5807	-0.0033316629
97	0x3ca71633	0.020396328
98	0xbcdbaadc	-0.02681487
99	0xbba074a5	-0.0048967176
100	0xbca94989	-0.020664947
101	0xbc2897d6	-0.010290107
102	0x3cca1127	0.024666382
103	0xbd35eb1a	-0.044413663
104	0x3d829d7f	0.06377696
105	0x3bf36e12	0.007428893
106	0xbc18a043	-0.009315553
107	0x3d6f2595	0.05838545
108	0x3d4ae7d5	0.0495375
109	0xb701049f	-7.690075e-06
110	0xbb8543b5	-0.004066909
111	0x3d0f01cd	0.034913827
112	0xbc458ae1	-0.012057037
113	0x3cdd435e	0.027009662
114	0xbce6092c	-0.028080545
115	0x3cec4ae8	0.028844312
116	0x3d834a58	0.06410664
117	0x3b86f842	0.00411895
118	0x3cc6c369	0.0242631
119	0x3de16ed1	0.11007465
120	0xbd28acfc	-0.041180596
121	0xbc86f528	-0.016474321
122	0x3d376afa	0.044779755
123	0x3d3385f4	0.04382892
124	0xbd12919d	-0.0357834
125	0xbc46aaa5	-0.012125646
126	0x3c57590e	0.013143791
127	0x3cb72e67	0.022360994
128	0x3c0835fe	0.008313654
129	0x3bc317ac	0.0059537496
130	0x3c9360b2	0.017990444
131	0xbca0d80d	-0.019634271
132	0x3c34ca6a	0.011034587
133	0x3d01c0a5	0.03167786
134	0xbd6aeafe	-0.057353012
135	0x3c96e087	0.01841761
136	0xbcb80615	-0.022463838
137	0xbc600058	-0.013671957
138	0x3ce42917	0.027851624
139	0xbd0d6a3b	-0.034525137
140	0xbd3e6556	-0.04648336
141	0xbd4fd137	-0.050736632
142	0xbd0a0045	-0.033691663
143	0x3d51097c	0.051034436
144	0x3e14b8d9	0.14523639
145	0x3c1d2d96	0.009593388
146	0xbd4b8a77	-0.049692597
147	0x3d86cdbd	0.0658221
148	0x3dc550e3	0.096345685
149	0xbc6fecc4	-0.014643852
150	0xbca9a9a3	-0.020710772
151	0x3aba0230	0.0014191326
152	0x3cf3a3e4	0.029741235
153	0xbc02d028	-0.007984199
154	0x3cab5f71	0.020919533
155	0xbd33d1d1	-0.04390127
156	0xbbc2396d	-0.005927256
157	0xbd55ec9c	-0.0522276
158	0xbd2f6d90	-0.042829096
159	0x3d13fb7f	0.036128517
160	0xbc72d6bd	-0.014821705
161	0x3d04be7c	0.032408223
162	0xbc243314	-0.010021944
163	0xbd26a239	-0.04068205
164	0x3960dd8b	0.00021444836
165	0x3e0b6c13	0.13615446
166	0x3d036177	0.03207537
167	0x3db57d11	0.08861745
168	0x3b6ffe38	0.0036620032
169	0xbd285c0c	-0.041103408
170	0x3d9e059f	0.07715916
171	0xbbacd43b	-0.0052743233
172	0x3d405616	0.046957098
173	0xbbae4619	-0.005318415
174	0x3d813c3b	0.06310316
175	0x3d74e603	0.05978967
176	0x3d6b2f75	0.057418305
177	0x3d469ed6	0.04849132
178	0xba174ad4	-0.0005771343
179	0xbd6da629	-0.05801979
180	0x3d33a3a8	0.043857247
181	0xbd361d79	-0.0444617
182	0xbcc5644c	-0.024095677
183	0xbd366854	-0.04453309
184	0xbd8ce62f	-0.068798415
185	0xbdadd628	-0.08488113
186	0xbc1f50f0	-0.009723887
187	0x3d438b60	0.04774034
188	0x3d84c78e	0.064833745
189	0xbcd09da6	-0.025465798
190	0x3d87c3d6	0.066291496
191	0xbd9e5b60	-0.07732272
192	0xbca6e8cf	-0.020374684
193	0x3d8d7afc	0.06908223
194	0x3d8853cc	0.06656608
195	0xbd84700a	-0.06466682
196	0x3dccf3a2	0.10007407
197	0x3c82ac96	0.015951436
198	0x3d9e90a5	0.077424325
199	0xbd1ebef8	-0.03875634
200	0x3c8454f1	0.016153784
201	0x3da12802	0.07868959
202	0x3d1dfcf2	0.038571306
203	0x3c4863a4	0.012230787
204	0x3bbff102	0.005857588
205	0x3d75041d	0.059818376
206	0xbbd9868c	-0.0066383537
207	0xbbbf37d9	-0.005835515
208	0x3d8d3bcb	0.0689617
209	0x3d75aede	0.05998122
210	0xbbceb1fe	-0.0063078394
211	0xbc94eac1	-0.018178346
212	0xbda9c964	-0.08290365
213	0xbc820ef8	-0.015876278
214	0x3d592dfc	0.05302237
215	0xbd59d20d	-0.053178836
216	0xbe1ba58f	-0.15199874
217	0xbcc6f78a	-0.024287958
218	0x3d400821	0.046882752
219	0x3c67fc8e	0.014159335
220	0xbc018149	-0.007904359
221	0xbd36bd3d	-0.044614065
222	0x3d909fca	0.07061727
223	0x3c0d3b6d	0.008620125
224	0x3bb986f7	0.005661841
225	0xbcb78260	-0.022401035
226	0xbd14a36c	-0.036288664
227	0x3d84fdc2	0.06493713
228	0xbc7db707	-0.015485532
229	0x3d49b844	0.049247995
230	0xbc85d909	-0.016338842
231	0x3d3b5f6a	0.04574529
232	0x3cc26f9a	0.023734856
233	0x3db0745c	0.08615944
234	0xbb0d4ef7	-0.002156196
235	0xbd284c8d	-0.04108863
236	0x3d3de66d	0.04636233
237	0x3d6f4378	0.058413953
238	0xbc8d813b	-0.017273536
239	0x3cc43334	0.023950197
240	0xbcb84bc1	-0.02249706
241	0x3ab17895	0.0013539965
242	0xbbe6e9ca	-0.007046913
243	0x3cb12cec	0.021627866
244	0xbb98a850	-0.0046587363
245	0x3d5b7aef	0.053584035
246	0x3d76c920	0.0602504
247	0x3cadeb90	0.021230489
248	0xbd201e3c	-0.039091334
249	0xbc8137f0	-0.015773743
250	0xbd1ca1b1	-0.03824014
251	0x3d692487	0.0569196
252	0xbc9967fe	-0.018726345
253	0xbc824167	-0.015900327
254	0x3d513c29	0.051082764
255	0x3df574d4	0.11985174

out.weight f4 [4, 256]
0	0x3b1c24d2	0.0023825658
1	0xbeab5622	-0.33464152
2	0x3d404032	0.04693622
3	0xbfeaca54	-1.8342996
4	0x3d7599bd	0.05996107
5	0xbbbb9736	-0.005724813
6	0xbc161635	-0.009160568
7	0xbe9506bd	-0.29106703
8	0xbccb1ee6	-0.024795007
9	0x3caf5efe	0.0214076
10	0x3db8c033	0.09021034
11	0xbe2d4281	-0.169199
12	0xbe80cc62	-0.25155932
13	0xbc91025d	-0.017701322
14	0x3d159157	0.03651556
15	0x3ce682aa	0.028138477
16	0xbb92c958	-0.0044795685
17	0x3da50d86	0.0805922
18	0xbeadd14c	-0.33948743
19	0x3b6cac95	0.003611361
20	0xbaaf1c87	-0.0013359942
21	0xbd17ac81	-0.037029747
22	0x39d5cf8a	0.00040781155
23	0x3d6e2aaf	0.058146175
24	0xbbec0306	-0.007202509
25	0x3d1f93ed	0.038959432
26	0xbd5114c5	-0.051045198
27	0xbe58928b	-0.21149652
28	0x3a5a3b66	0.0008324891
29	0xbf1f28b3	-0.6217148
30	0xbed2645c	-0.41092193
31	0x3d996878	0.07490629
32	0xbd95f089	-0.07321269
33	0xbf0226f0	-0.50840664
34	0xbc48f8c0	-0.012266338
35	0x3b0f0850	0.0021825023
36	0xbdb4690a	-0.08809097
37	0x3cb9d1c0	0.022683024
38	0x3cb1593c	0.021648996
39	0x3d022bb3	0.031779956
40	0xbd71df6b	-0.05905096
41	0x3e125df0	0.14293647
42	0xbd16e6cc	-0.0368412
43	0xbe5032e1	-0.20331909
44	0xbd23f9cf	-0.040033158
45	0xba32e330	-0.00068240147
46	0x3d8bcdf5	0.068263926
47	0xbe88d0d7	-0.26721832
48	0xbd18e3ea	-0.03732673
49	0xbb3b6045	-0.0028591317
50	0xbd5df254	-0.05418618
51	0xbd1e8d19	-0.03870878
52	0xb553822f	-7.879307e-07
53	0xbca3cd82	-0.019995455
54	0x3ed908a8	0.42389417
55	0x3d20629d	0.039156545
56	0x3ce92497	0.02845983
57	0xbbffae33	-0.0078027486
58	0x3a12cf0e	0.00056003116
59	0xbbfe7b8e	-0.0077661937
60	0xba0c5b9b	-0.00053542265
61	0x3e1d5b6a	0.15366903
62	0xbde97f97	-0.11401289
63	0xbd3b4b93	-0.04572637
64	0x3dc3b21e	0.095554575
65	0xbd1b52fc	-0.037920937
66	0x3c8ceccb	0.017202755
67	0xbce477f2	-0.027889226
68	0x3e3d8b09	0.18510069
69	0x3d69e423	0.057102334
70	0x3bb8641c	0.0056271683
71	0xbe1b3020	-0.15155077
72	0xbd839f66	-0.06426887
73	0xbe6187f7	-0.22024523
74	0x3baf3c6e	0.00534778
75	0xbe05350c	-0.13008517
76	0xbfdcacb9	-1.7240211
77	0xbe317db4	-0.17333108
78	0xbc93659f	-0.017992793
79	0x3e5fec88	0.21867573
80	0x3c4b149e	0.012395052
81	0xbc857a6d	-0.016293729
82	0xbe114b5b	-0.14188902
83	0xbcf68491	-0.03009251
84	0xbc8c0c94	-0.017095841
85	0x3d7fa421	0.062412385
86	0xbe5b5798	-0.21420133
87	0xbc914c88	-0.017736688
88	0xbda3d044	-0.07998708
89	0xbda8b23a	-0.08237119
90	0x3d4fbe5a	0.050718643
91	0x3d2332bd	0.03984331
92	0x3c0d5c23	0.008627924
93	0xba729808	-0.0009254222
94	0xbbe42aa0	-0.006963089
95	0x3a499eec	0.00076912227
96	0x3cb8d3ba	0.022561897
97	0xbcb5f53a	-0.02221166
98	0xbc0470a9	-0.008083501
99	0xbe64424f	-0.2229092
100	0x3b8113d5	0.0039391317
101	0xbb864365	-0.0040973895
102	0x3de47317	0.11154764
103	0xbd39d484	-0.045368686
104	0x3cd127b9	0.025531637
105	0xba96a545	-0.0011493346
106	0x3d404ec3	0.046950113
107	0x3c2430b5	0.010021378
108	0x3d1e1789	0.038596664
109	0xbd0fad96	-0.035077654
110	0x3b407b5a	0.0029370398
111	0xbd01dab1	-0.0317027
112	0xbf60ccc3	-0.8781244
113	0x3e2977df	0.16549633
114	0x3f2db5dc	0.6785562
115	0xbce0a199	-0.027420806
116	0xbde46d8a	-0.111537054
117	0xbc01c2ab	-0.007919948
118	0x3b178011	0.0023117105
119	0x3cc23417	0.023706479
120	0x386d7ff9	5.6624387e-05
121	0x3cb9fed6	0.022704523
122	0x3c7764dc	0.01509973
123	0x3d8d460f	0.06898128
124	0xbf2d8d25	-0.67793494
125	0xbbe6c416	-0.0070424182
126	0xbb4df41f	-0.0031426025
127	0x3ee6eccc	0.45102537
128	0x3d330513	0.04370601
129	0xbd55354d	-0.052052785
130	0xba60eee6	-0.00085805205
131	0xbc6ca5f9	-0.014443868
132	0xbfb0882d	-1.3791558
133	0xbd99aa97	-0.075032406
134	0xbc079488	-0.008275159
135	0xbd166633	-0.03671856
136	0x3ec552f5	0.38539854
137	0x3d0b3096	0.033981882
138	0xbc434457	-0.011918149
139	0x3d50b0d9	0.050949905
140	0x3e702ad9	0.23453845
141	0xbe313857	-0.17306648
142	0x3c5e20ee	0.013557656
143	0xbd81e752	-0.06342949
144	0x3bf87764	0.007582592
145	0xbf294681	-0.66123205
146	0x3b988f4e	0.004655755
147	0xbdba4574	-0.090952784
148	0xbdc78f0f	-0.09744083
149	0x39ec173c	0.0004503074
150	0x3c4e24ef	0.012582048
151	0xbedaf16c	-0.42762315
152	0x3ce511e7	0.027962638
153	0x3e0a2b89	0.1349317
154	0xbc7cc8a3	-0.015428695
155	0xbb3c8a4a	-0.002876895
156	0x3cf88313	0.030335939
157	0xbbf1bf80	-0.007377565
158	0x3d4cb196	0.049974047
159	0x3c0989ca	0.008394668
160	0x3e033b1d	0.12815519
161	0x3ddbc27f	0.107304566
162	0x3d27e145	0.04098632
163	0x3d2c7b58	0.042109817
164	0xbecbf5d5	-0.39835992
165	0xbe179646	-0.14803419
166	0xbc8176bb	-0.015803685
167	0xbd4256cb	-0.047446053
168	0x3f1419ea	0.5785204
169	0x3bd2e384	0.0064358134
170	0xbdbf7c67	-0.093499
171	0x3ebb260b	0.36552462
172	0x3c2f59a5	0.010702525
173	0x3c57da36	0.013174584
174	0x3d35a72b	0.044348877
175	0xbd097c17	-0.033565607
176	0xbd1e1d63	-0.038602244
177	0xbbf614a7	-0.007509786
178	0xbb59abe7	-0.0033214034
179	0xbdd76cb2	-0.10518779
180	0x3d4c2709	0.049841914
181	0xbf1a1d5f	-0.60201067
182	0xbe6236b7	-0.22091185
183	0xbff361ce	-1.9014223
184	0x3ef6c1fa	0.48194867
185	0xc018c189	-2.3868124
186	0x3d664c0c	0.056224868
187	0xbc0d3755	-0.008619149
188	0xbe0beb0f	-0.13663886
189	0xbe0d825c	-0.1381926
190	0x3d914f71	0.0709523
191	0xc035d0ab	-2.840861
192	0x3d47b316	0.048754774
193	0xbdba54f7	-0.09098237
194	0xbd6b0e2e	-0.05738657
195	0x3d31a72c	0.04337232
196	0x3c1eb862	0.009687515
197	0x3ea9562c	0.33073556
198	0x3cc3ee98	0.023917481
199	0xbd154952	-0.036446877
200	0xbd29d17f	-0.041459557
201	0xbfb5b99d	-1.419727
202	0xbf50a3a6	-0.8149971
203	0x3e73e550	0.23817945
204	0xbe1068cc	-0.14102477
205	0xbad057b3	-0.0015895277
206	0x3e878897	0.26471397
207	0xbe40bb3d	-0.18821426
208	0x3df7a746	0.12092452
209	0xbf8da7d6	-1.1066844
210	0xbe211a0b	-0.15732591
211	0xbe9aee1f	-0.30259797
212	0x3f81d68e	1.0143602
213	0xbbf9a0e4	-0.0076180566
214	0xbe17ad2d	-0.14812155
215	0xbd522862	-0.051308043
216	0x3e4400ad	0.19140883
217	0xbb9a108a	-0.0047016786
218	0x3c6a1a3b	0.01428848
219	0x3d5bfecb	0.053709786
220	0xb9277f5c	-0.00015973806
221	0x39a1c4a4	0.00030854822
222	0xbbfd7cbd	-0.007735817
223	0xbb4d77b4	-0.0031351866
224	0xbcf19699	-0.029490756
225	0x3e0802d7	0.13282333
226	0xc04d7ecb	-3.2108638
227	0xbd836ccf	-0.06417238
228	0xbb90aae1	-0.0044149016
229	0xbc343d18	-0.011000894
230	0xbc10b6a6	-0.008832609
231	0x3c6e5b12	0.01454808
232	0xbd8f5237	-0.06998103
233	0xbd8290b9	-0.0637526
234	0x3cd95ead	0.026534403
235	0x3d3e4b36	0.046458445
236	0xbcfcae04	-0.030844696
237	0xbb9545f7	-0.0045554596
238	0x3dca4519	0.098764606
239	0xbca712eb	-0.020394763
240	0xbcc0499f	-0.023472605
241	0x3e1e16ee	0.15438434
242	0x3eb9a320	0.36257267
243	0x3aa89ff2	0.001286505
244	0xba23ce76	-0.00062487216
245	0xbdb3f4fe	-0.08786963
246	0xbe1421b9	-0.14465989
247	0xbcbce1ca	-0.023056883
248	0x3d5099a7	0.050927784
249	0xbbad6eab	-0.0052927337
250	0x3b17d13d	0.0023165487
251	0x3d801c94	0.06255451
252	0x3d517b5e	0.051143043
253	0x3d5ba726	0.053626202
254	0xbd69d05b	-0.05708347
255	0x3d282a4d	0.041055966

out.bias f4 [4]
0	0xba87a141	-0.001034774
1	0x3e0067b6	0.12539563
2	0xbcd78971	-0.026310654
3	0x3db4f1f8	0.088352144
