p2_continuous-control/checkpoint_critic.pth (torch_old, 174839 bytes, 9 tensors)

normalizer.weight f4 [256]
0.6670607 0.30930346 0.6381339 0.1759641 0.20305794 0.3905382 0.15772589 0.5747841
0.1694032 0.29571417 0.776981 0.3231999 0.17941314 0.3984189 0.4549 0.37722498
0.3192186 0.31174034 -0.0074655386 0.26525974 0.42448455 0.3852263 0.44646567 0.2888607
0.43812028 0.27917656 0.17782189 0.36056337 0.4053583 0.2706766 0.26682863 0.40200445
0.42419946 0.38525322 0.3987319 0.30074325 0.35114267 0.34237993 0.20037079 0.19898695
0.34619567 0.41421646 0.40268824 0.29139417 0.27840173 0.15547276 0.19050968 0.1953323
0.28282687 0.5505876 0.6277183 0.39021978 0.45629147 0.45376152 0.47327107 0.6259158
0.54506487 0.2811668 0.39182425 0.45902002 0.0011433688 0.3340986 0.35857332 0.25981823
0.5260066 0.563983 0.37574407 0.00069091085 0.37732312 0.41357523 0.34822455 0.3322415
0.39711156 0.59062076 0.29616353 0.7271235 0.49125436 0.4219224 0.36753058 0.23852293
0.35674298 0.405992 0.36122388 0.3092095 0.5808504 0.2892556 0.2589663 0.5044865
0.3464471 0.58035684 0.47476494 0.23442492 0.15685664 0.3898609 0.3097761 0.43647468
0.67386895 0.5364098 0.7453369 0.2556632 0.4708092 0.2047311 0.45726636 0.24828705
0.3699539 0.2861501 0.43116704 0.21668409 0.36876398 0.28454995 0.26354912 0.36628664
0.8312448 0.65016526 0.29511303 0.282408 0.88536465 0.534653 0.2405331 0.56479466
0.38286355 0.32098925 0.42680407 0.3212724 0.67108774 0.41239116 0.23321201 0.3065759
0.19497842 0.6394035 0.52124137 0.3365574 0.15640444 0.00033076035 0.55434537 0.57758504
0.30944058 0.47628477 -0.004463502 0.36293367 0.34840328 0.10559499 0.51030165 0.009690791
0.2409407 0.39159968 0.23527916 0.23965071 0.25438845 0.17026931 0.6929537 0.276614
0.46355638 0.31560317 0.23166701 0.5263218 0.2254313 0.41507208 0.39530614 0.44213608
0.2794064 0.28501588 0.2230389 0.25995633 0.49583834 0.33544782 0.20384851 0.2691388
0.13652518 0.17281438 0.41175455 0.24389608 0.5855018 0.42847613 0.42969137 0.314319
0.4583769 0.21278681 0.24437274 0.5061071 0.33843762 0.36818874 0.6561357 0.26385775
0.2827151 0.16556346 0.33435887 0.35812542 0.3639341 0.42606506 0.17366906 0.028685385
0.5649854 0.18672293 0.34561065 -0.0022519303 0.18564032 0.3483135 0.36445653 0.3934936
0.41566944 0.3146972 0.44882947 0.00030041067 0.37617108 0.26433232 0.34443715 0.3395293
0.2749373 0.35796025 0.3743334 0.8973856 0.36249942 0.294453 0.75368863 0.38036788
0.31040716 0.28685912 0.40573242 0.54804665 0.38712037 0.45542422 0.48814774 0.20033844
0.40718955 0.46133655 0.36118555 0.009101767 0.20363605 0.2512094 0.2954315 0.8238037
0.8733849 1.1949279 0.4688275 0.295802 0.40118402 0.35208523 0.34360814 0.43649533
0.29096162 0.23882824 0.28189608 0.006543577 0.28161034 0.35667238 0.25852025 0.5790984
0.30924863 0.41758132 0.19737875 0.49175766 0.33169928 0.29347363 0.7038428 0.27308363
00000000: 7dc4 2a3f 065d 9e3e be5c 233f ef2f 343e
00000010: 6cee 4f3e 9ff4 c73e e582 213e 0d25 133f
00000020: 0878 2d3e d967 973e 3ae8 463f 757a a53e
00000030: 14b8 373e 90fd cb3e a7e8 e83e a223 c13e
00000040: 9f70 a33e 6e9c 9f3e 7aa1 f4bb 20d0 873e
00000050: 0a56 d93e 623c c53e 2697 e43e 8de5 933e
00000060: 4d51 e03e 3bf0 8e3e f116 363e c39b b83e
00000070: 208b cf3e 2096 8a3e c39d 883e 87d3 cd3e
00000080: ac30 d93e e93f c53e 9626 cc3e 05fb 993e
00000090: f9c8 b33e 6c4c af3e 002e 4d3e 3cc3 4b3e
000000a0: 8f40 b13e 2e14 d43e 272d ce3e 9e31 953e
000000b0: ac8a 8e3e 4034 1f3e f814 433e 3105 483e
000000c0: afce 903e 4ff3 0c3f 26b2 203f e3ca c73e
000000d0: 099f e93e 6e53 e83e 9650 f23e 053c 203f
000000e0: 5f89 0b3f 18f5 8f3e 309d c83e ac04 eb3e
000000f0: 17dd 953a f90e ab3e ec96 b73e e506 853e
00000100: 5ea8 063f 3161 103f 8761 c03e 3e1e 353a
00000110: 7f30 c13e 22c0 d33e 7d4a b23e 8f1b aa3e
00000120: 3552 cb3e ec32 173f bfa2 973e c424 3a3f
00000130: b185 fb3e 3606 d83e f82c bc3e 5b3f 743e
00000140: 04a7 b63e 2fde cf3e 56f2 b83e b550 9e3e
00000150: 9db2 143f 4f19 943e 3b97 843e 0726 013f
00000160: 8461 b13e 4492 143f 6414 f33e 160d 703e
00000170: 079f 203e d99b c73e f99a 9e3e 9c79 df3e
00000180: ad82 2c3f 2752 093f 66ce 3e3f 49e6 823e
00000190: e70d f13e 08a5 513e d11e ea3e f63e 7e3e
000001a0: 996a bd3e 4482 923e edc1 dc3e 6fe2 5d3e
000001b0: a2ce bc3e 88b0 913e e9ef 863e ec89 bb3e
000001c0: 76cc 543f 3b71 263f 0e19 973e c897 903e
000001d0: 42a7 623f 05df 083f 4f4e 763e 6296 103f
000001e0: b106 c43e b458 a43e 1086 da3e d17d a43e
000001f0: 68cc 2b3f ef24 d33e 21cf 6e3e 84f7 9c3e
00000200: 6ca8 473e f3af 233f 1370 053f 4051 ac3e
00000210: 7c28 203e e769 ad39 94e9 0d3f 9ddc 133f
00000220: ff6e 9e3e 99db f33e 9242 92bb 71d2 b93e
00000230: ea61 b23e 3042 d83d 21a3 023f 20c6 1e3c
00000240: 29b9 763e c17f c83e 05ed 703e ff66 753e
00000250: 343f 823e 145b 2e3e 6a65 313f 5aa0 8d3e
00000260: 4357 ed3e bd96 a13e 1e3a 6d3e 07bd 063f
00000270: 76d7 663e 5484 d43e 9165 ca3e a95f e23e
00000280: 5b0e 8f3e 9aed 913e 4f64 643e ff18 853e
00000290: 86de fd3e d1bf ab3e aabd 503e 90cc 893e
000002a0: 42cd 0b3e 41f6 303e 7ed1 d23e e5bf 793e
000002b0: 72e3 153f 3961 db3e 8200 dc3e 6cee a03e
000002c0: 61b0 ea3e c9e4 593e d93c 7a3e 3c90 013f
000002d0: b247 ad3e 3c83 bc3e 82f8 273f 5d18 873e
000002e0: 09c0 903e 7889 293e 1631 ab3e 375c b73e
000002f0: 9255 ba3e 3325 da3e 4dd6 313e 9dfd ea3c
00000300: e2a2 103f 4c34 3f3e e1f3 b03e 1f95 13bb
00000310: 7f18 3e3e 2656 b23e 0c9a ba3e fe77 c93e
00000320: a0d2 d43e fe1f a13e facc e53e 7080 9d39
00000330: 7f99 c03e 9156 873e 115a b03e c9d6 ad3e
00000340: 95c4 8c3e 9146 b73e a1a8 bf3e 10bb 653f
00000350: 8699 b93e 8bc2 963e bdf1 403f 94bf c23e
00000360: b0ed 9e3e 33df 923e 29bc cf3e c94c 0c3f
00000370: a434 c63e 5d2d e93e 80ee f93e 8525 4d3e
00000380: 267b d03e 4e34 ec3e 50ed b83e 941f 153c
00000390: f885 503e 859e 803e cc42 973e cde4 523f
000003a0: 2796 5f3f 66f3 983f 280a f03e 5c73 973e
000003b0: fe67 cd3e 8444 b43e 68ed af3e 517c df3e
000003c0: ecf8 943e 648f 743e af54 903e 816b d63b
000003d0: 3b2f 903e c39d b63e c45c 843e cb3f 143f
000003e0: d655 9e3e 38cd d53e a81d 4a3e a9c7 fb3e
000003f0: 7dd4 a93e 2d42 963e 0b2f 343f 9ed1 8b3e

normalizer.bias f4 [256]
-0.3513595 -0.3940733 -0.66195387 -0.057243988 -0.6109342 -0.30487835 0.122486025 -0.4350123
-0.52479863 -0.3951011 -0.7654109 -0.13184386 -0.57224876 -0.13093053 -0.4172926 -0.46314222
-0.3984781 -0.2728174 -0.0842343 -0.3878074 -0.36222365 -0.42888054 -0.45452887 -0.58605456
-0.50804013 -0.33674908 -0.44059715 -0.21148103 -0.47128317 -0.32972038 -0.2880274 -0.5364049
0.030834112 0.061021913 -0.40051875 -0.52909523 -0.00063905533 -0.49310577 -0.4232072 -0.41464236
-0.4894944 -0.4502309 -0.474643 -0.22214937 -0.3621843 -0.10850022 -0.08073049 -0.22062206
-0.47274712 -0.6075492 0.16422409 -0.6256593 -0.66152114 -0.7662122 -0.45908996 -0.062964186
-0.20612311 -0.21499448 -0.56868947 -0.48108363 -0.007644986 -0.23026937 -0.6587764 -0.40078005
0.14521292 -0.38940057 -0.63717204 -0.010081856 -0.35696027 -0.6320807 -0.37749958 -0.1595864
-0.45391232 -0.44469932 -0.39978805 0.37625927 -0.4761424 -0.58447903 -0.52921605 -0.43515405
-0.3905719 -0.6153133 0.19243693 -0.46358004 -0.3993534 -0.26514846 0.2872149 -0.21931684
-0.115310825 -0.52317554 -0.5751687 -0.34887576 -0.11593278 -0.3692282 -0.45998213 -0.3245422
-0.14573362 -0.17883894 -0.69831866 -0.15077353 -0.33793902 -0.4250753 -0.34372565 -0.40580449
-0.5741764 -0.32838747 -0.10287162 -0.43849146 -0.31962383 -0.4966618 0.056782782 -0.17605059
-0.08044414 -0.5374845 -0.5589945 -0.86858165 -0.25905573 -0.34334028 -0.47333124 -0.50534445
-0.34819308 -0.39290267 -0.31429967 -0.35542896 0.051506042 -0.3887457 -0.40898523 -0.50781757
-0.1780119 -0.49403673 -0.42726824 -0.47090587 -0.34066847 -0.024651429 -0.21147044 -0.4614406
-0.5053129 -0.47948292 -0.04172631 -0.5581228 -0.4356012 -0.67139775 -0.63329035 -0.07352638
-0.25834203 -0.21666664 -0.32312298 -0.23754708 -0.2598195 0.204367 -0.68904626 -0.030036084
-0.36911854 -0.25521913 -0.32116225 -0.78185016 -0.19403374 -0.05550048 -0.40604538 -0.5432922
-0.39258027 -0.49057952 -0.54962236 -0.36606348 -0.49779338 -0.32084364 -0.31949648 -0.48378024
0.34923264 0.073853336 -0.3485843 0.31172526 -0.3428445 -0.36307058 -0.58902645 -0.4166837
-0.44319898 -0.6103416 -0.27509725 -0.28861845 -0.38047633 0.18795794 -0.6856855 -0.34118348
-0.5728735 -0.41387698 -0.35100356 -0.43426695 -0.30913848 -0.2531073 -0.3177129 -0.15919387
-0.48788023 -0.4799321 -0.2856587 -0.014432402 -0.20729548 -0.4654213 -0.4935213 -0.4901192
-0.3105 -0.2950878 -0.46628243 -0.043403987 0.24145131 -0.09222436 -0.2810994 -0.4863427
-0.39769 -0.59985703 -0.2871907 -0.34234077 -0.557063 -0.08208811 -0.47276825 -0.31646737
-0.33798853 -0.6053592 -0.52522266 -0.7791481 -0.6418467 -0.4387843 -0.5647124 -0.29909644
-0.55232674 -0.2630425 -0.22573899 -0.07181646 -0.25278255 -0.35775107 -0.40909553 -0.462304
-0.68657887 -0.32762808 -0.49838883 -0.47990608 -0.44221118 -0.09060064 -0.48606744 -0.5061035
-0.19934316 -0.2836921 -0.5105876 -0.079426974 -0.42684233 -0.60200566 -0.5761575 -0.47919175
-0.3151264 -0.41870612 -0.39534274 -0.72245914 -0.35085645 -0.5007317 -0.3345968 -0.40631455
00000000: 64e5 b3be fac3 c9be cf75 29bf ac78 6abd
00000010: 2f66 1cbf 0419 9cbe f4d9 fa3d efb9 debe
00000020: 3459 06bf b14a cabe f8f1 43bf 1402 07be
00000030: e57e 12bf a712 06be 60a7 d5be fa20 edbe
00000040: 5205 ccbe b9ae 8bbe 0883 acbd b18e c6be
00000050: 6175 b9be 3b96 dbbe 02b8 e8be ac07 16bf
00000060: eb0e 02bf 606a acbe f395 e1be 7c8e 58be
00000070: 074c f1be 1cd1 a8be 5478 93be d551 09bf
00000080: d297 fc3c 1df2 793d cb10 cdbe c972 07bf
00000090: 4786 27ba 5c78 fcbe 9dae d8be 014c d4be
000000a0: 039f fabe aa84 e6be 6804 f3be 207b 63be
000000b0: 3870 b9be 5d35 debd 0756 a5bd c0ea 61be
000000c0: e90b f2be 5888 1bbf 5c2a 283e 352b 20bf
000000d0: 7359 29bf 7c26 44bf d70d ebbe 5ef3 80bd
000000e0: f011 53be 8327 5cbe a295 11bf 9850 f6be
000000f0: ca82 fabb bccb 6bbe 92a5 28bf 0b33 cdbe
00000100: b2b2 143e 835f c7be b51d 23bf 5e2e 25bc
00000110: 7fc3 b6be 0ad0 21bf a047 c1be 9e6a 23be
00000120: 3267 e8be a1af e3be 05b1 ccbe 0ea5 c03e
00000130: f0c8 f3be 6ba0 15bf b47a 07bf 83cc debe
00000140: 0af9 c7be 2c85 1dbf 300e 453e 5d5a edbe
00000150: 0d78 ccbe 8ac1 87be d50d 933e 9894 60be
00000160: 1528 ecbd d5ee 05bf 423e 13bf d89f b2be
00000170: 2a6e edbd 7b0b bdbe c782 ebbe 652a a6be
00000180: 323b 15be 8e21 37be 03c5 32bf 6064 1abe
00000190: 5806 adbe 78a3 d9be cffc afbe 9bc5 cfbe
000001a0: 39fd 12bf 6722 a8be 5bae d2bd f481 e0be
000001b0: bca5 a3be 754a febe 1095 683d 9b46 34be
000001c0: e6bf a4bd 9698 09bf 431a 0fbf 5e5b 5ebf
000001d0: f4a2 84be 4cca afbe 7958 f2be 415e 01bf
000001e0: 5d46 b2be 8a2a c9be e3eb a0be c9fa b5be
000001f0: 00f8 523d ad09 c7be 8366 d1be 5500 02bf
00000200: c048 36be 62f2 fcbe e7c2 dabe 931a f1be
00000210: 196c aebe cbf1 c9bc b58b 58be f141 ecbe
00000220: 305c 01bf c97e f5be 35e9 2abd 23e1 0ebf
00000230: 1f07 dfbe b9e0 2bbf 511f 22bf 0095 96bd
00000240: 6845 84be dcdd 5dbe 6070 a5be 8b3f 73be
00000250: 1007 85be 9545 513e 5665 30bf 3c0e f6bc
00000260: 1bfd bcbe 15ac 82be 616f a4be 5527 48bf
00000270: c8b0 46be 7954 63bd 2ee5 cfbe 3315 0bbf
00000280: 4800 c9be 3d2d fbbe 0db4 0cbf ac6c bbbe
00000290: c6de febe 9e45 a4be 0b95 a3be 0bb2 f7be
000002a0: 9fce b23e 6b40 973d a479 b2be 749a 9f3e
000002b0: 5089 afbe 63e4 b9be 70ca 16bf 9157 d5be
000002c0: faea e2be 593f 1cbf 8cd9 8cbe ccc5 93be
000002d0: cbcd c2be 0c78 403e 1689 2fbf 9aaf aebe
000002e0: d6a7 12bf afe7 d3be bdb6 b3be 3d58 debe
000002f0: 6647 9ebe 4897 81be 44ab a2be b803 23be
00000300: 70cb f9be a9b9 f5be db41 92be e275 6cbc
00000310: 4445 54be b34b eebe d3ae fcbe e7f0 fabe
00000320: dbf9 9ebe c015 97be 92bc eebe 61c8 31bd
00000330: 033f 773e 20e0 bcbd 43ec 8fbe e901 f9be
00000340: 069e cbbe 3b90 19bf a90a 93be 4a47 afbe
00000350: ae9b 0ebf d01d a8bd ae0e f2be 0308 a2be
00000360: d50c adbe d2f8 1abf fe74 06bf 4076 47bf
00000370: 1150 24bf 56a8 e0be fe90 10bf 2b23 99be
00000380: 4965 0dbf 82ad 86be 1f28 67be 8214 93bd
00000390: b76c 81be 262b b7be f874 d1be 1cb3 ecbe
000003a0: a2c3 2fbf debe a7be d22c ffbe 40b6 f5be
000003b0: 8169 e2be d48c b9bd d5dd f8be 0090 01bf
000003c0: 9d20 4cbe 1740 91be deb5 02bf 9caa a2bd
000003d0: 148b dabe 0b1d 1abf 0f7f 13bf 9f58 f5be
000003e0: 3f58 a1be a660 d6be 5d6a cabe 15f3 38bf
000003f0: 75a3 b3be f42f 00bf 4650 abbe 7608 d0be

normalizer.running_mean f4 [256]
0.3449531 1.056558 0.5360491 1.0337183 0.9506034 1.2461104 2.756368 -0.8991612
-2.8191042 1.0194347 -0.43492264 -0.32845527 0.09740252 0.09498485 1.567643 -1.6213397
-2.3006203 -0.022641316 -0.43590468 0.38237807 -2.0054853 0.40982008 -1.5044295 -3.7657006
-1.1250924 2.0477703 0.7017831 0.9302713 -0.83232325 -0.7713047 1.7289217 -3.1898417
1.5440103 -0.081132665 1.9487646 0.6217637 -1.0955477 -0.9816356 -1.9339001 -2.3616593
0.115054175 -2.0887377 -0.19443655 -1.3216395 -0.7855711 -0.10012939 2.7440872 0.19302826
-0.35623342 0.10798098 1.4941349 -3.2812684 -1.7396668 -0.99328434 0.25399005 0.8260527
1.3789228 -1.3818617 0.14332823 -0.030154478 0.20463713 -1.2091507 0.9599469 -1.6152034
1.4520848 0.114476316 0.83715135 0.11949473 -1.3351183 -1.697486 1.2874143 0.18196838
-1.3209203 0.30967924 2.6547754 -0.057111096 -0.20173523 -0.4040659 -1.5553045 -0.56160015
1.7374326 -4.495724 1.6189289 0.56154686 -0.76807123 0.038314804 1.5156307 -0.5104296
-1.3784828 0.50766826 -0.48698393 -1.9622736 -0.4832718 -1.0088726 -3.8849862 1.2718822
0.29573092 1.1406629 0.4249653 1.059019 0.6628491 -1.8262262 -0.33782646 1.4488139
-0.17332855 -2.6266663 0.5073154 0.24211977 0.5174998 -1.6600333 2.5493934 -1.1034355
-0.3687522 0.048810944 -1.7815436 -2.3616464 -0.37778446 -0.38090897 -2.288744 0.34184045
0.90189976 1.9864739 -1.1593003 -0.4056953 0.37374213 0.9940929 -2.6800947 -3.322713
-0.7689409 0.11811021 0.7060834 -2.4872549 4.187903 -0.32049745 -0.052609324 -0.8089289
-2.3349428 0.2487938 -0.19707556 -2.9537754 -1.2358251 -0.012738386 0.43485224 -0.33189917
-0.92409736 0.4074505 -1.5110312 2.3320832 2.0100155 1.2012556 -0.5589332 -0.12020714
0.61814106 -0.048606414 -0.0527551 -1.116957 -0.74014246 0.84026444 -0.06855104 -1.4415212
-1.9230288 -3.2324634 -0.9239659 -2.1409264 0.2811591 -0.4291282 -1.4892205 0.5046839
1.9670423 1.1673113 -2.282101 -0.2701504 -0.44240552 -0.056994226 -2.1559134 -2.1168792
-0.83401656 -1.8476367 1.3024683 0.12364936 -0.501829 0.18095133 -0.6334501 0.3313172
-1.2251645 -2.3529413 0.9502422 0.1266335 1.3831629 -0.8577647 1.5253179 -0.24865998
-0.0070150374 -3.7284133 0.2475224 0.3282122 2.411847 -0.057699077 -1.7262213 0.23387307
0.0787174 -0.27195966 3.3118632 -0.058300078 -0.021802172 0.5129937 -0.41541144 4.8318458
-2.5561447 -2.8886402 -0.56261814 0.11622877 -0.41432524 2.214855 -0.22849926 -0.8175328
-0.3079395 -0.92415315 0.45343658 -0.13823807 0.082475044 2.6918614 0.43671864 -1.1537685
-0.5968725 2.0338645 -0.7784629 0.5815487 0.22878219 -0.86886704 -3.3287191 0.022090813
0.68047446 0.8517492 1.2228312 -0.6869026 -0.087642916 2.0028174 -2.0588164 0.30790675
-0.87500906 0.4041205 0.027878512 -0.31676635 -2.6428525 -1.497367 1.352579 0.20130864
0.31704336 -0.65581155 2.4967966 -2.0439732 -0.4975467 2.6962023 -0.18523565 -1.2947512
00000000: b19d b03e 4b3d 873f 843a 093f e250 843f
00000010: bf5a 733f 8c80 9f3f 5568 3040 6e2f 66bf
00000020: 346c 34c0 d67c 823f 2eae debe 4a2b a8be
00000030: f97a c73d 6b87 c23d 87a8 c83f 0f88 cfbf
00000040: 5d3d 13c0 487a b9bc e62e dfbe 0fc7 c33e
00000050: df59 00c0 f0d3 d13e 2591 c0bf 3d01 71c0
00000060: 0703 90bf ab0e 0340 0fa8 333f 4326 6e3f
00000070: 2313 55bf 3a74 45bf 4e4d dd3f 5e26 4cc0
00000080: 21a2 c53f e228 a6bd 1e71 f93f e82b 1f3f
00000090: e83a 8cbf 784c 7bbf 0a8a f7bf 6d25 17c0
000000a0: 86a1 eb3d e1ad 05c0 601a 47be 7c2b a9bf
000000b0: 301b 49bf a310 cdbd 209f 2f40 33a9 453e
000000c0: 3a64 b6be 2225 dd3d d03f bf3f 4d00 52c0
000000d0: 67ad debf e247 7ebf fc0a 823e 3178 533f
000000e0: 8b80 b03f d8e0 b0bf a3c4 123e 8606 f7bc
000000f0: 658c 513e 73c5 9abf 14bf 753f fcbe cebf
00000100: eadd b93f 8f72 ea3d 8d4f 563f a7b9 f43d
00000110: 28e5 aabf 3947 d9bf fec9 a43f eb55 3a3e
00000120: eb13 a9bf 478e 9e3e d7e7 2940 53ed 69bd
00000130: ae93 4ebe bae1 cebe 3814 c7bf 07c5 0fbf
00000140: 3164 de3f f9dc 8fc0 1039 cf3f 89c1 0f3f
00000150: 51a0 44bf fcef 1c3d 3000 c23f 84ab 02bf
00000160: 2072 b0bf 8cf6 013f f555 f9be c82b fbbf
00000170: 676f f7be bd22 81bf 9da3 78c0 09cd a23f
00000180: 0b6a 973e 3e01 923f 0d95 d93e ef8d 873f
00000190: 7bb0 293f c8c1 e9bf 97f7 acbe bc72 b93f
000001a0: 0a7d 31be 4d1b 28c0 6cdf 013f 3fee 773e
000001b0: de7a 043f f97b d4bf 4329 2340 603d 8dbf
000001c0: 17cd bcbe fced 473d 9f09 e4bf 3725 17c0
000001d0: f76c c1be 8006 c3be c87a 12c0 b605 af3e
000001e0: e7e2 663f c744 fe3f f463 94bf 4bb7 cfbe
000001f0: 215b bf3e df7c 7e3f ac86 2bc0 54a7 54c0
00000200: 50d9 44bf c4e3 f13d e2c1 343f 2f2f 1fc0
00000210: 4d03 8640 3e18 a4be e07c 57bd f715 4fbf
00000220: b46f 15c0 cdc3 7e3e 2dce 49be a80a 3dc0
00000230: 842f 9ebf aab4 50bc f4a4 de3e b0ee a9be
00000240: a591 6cbf 5a9d d03e 7869 c1bf da40 1540
00000250: 18a4 0040 bec2 993f 3f16 0fbf 292f f6bd
00000260: 7e3e 1e3f 8517 47bd bb15 58bd 72f8 8ebf
00000270: fa79 3dbf 921b 573f 7d64 8cbd c483 b8bf
00000280: cf25 f6bf aee0 4ec0 0789 6cbf f004 09c0
00000290: 16f4 8f3e b1b6 dbbe c79e bebf f732 013f
000002a0: 0bc8 fb3f 756a 953f f10d 12c0 2751 8abe
000002b0: fa82 e2be c772 69bd 7cfa 09c0 f37a 07c0
000002c0: 1c82 55bf 5c7f ecbf 48b7 a63f e03b fd3d
000002d0: de77 00bf 4e4b 393e c929 22bf 68a2 a93e
000002e0: 31d2 9cbf 9796 16c0 1343 733f 36ac 013e
000002f0: 7b0b b13f 7896 5bbf 9e3d c33f b9a0 7ebe
00000300: 66de e5bb 539e 6ec0 8376 7d3e 6e0b a83e
00000310: b45b 1a40 de55 6cbd d2f4 dcbf 6c7c 6f3e
00000320: 9736 a13d 4c3e 8bbe 91f5 5340 10cc 6ebd
00000330: 789a b2bc 8e53 033f cfb0 d4be 7b9e 9a40
00000340: e097 23c0 7bdf 38c0 be07 10bf 5909 ee3d
00000350: 7022 d4be 2fc0 0d40 b6fb 69be d449 51bf
00000360: 3faa 9dbe 4d95 6cbf d728 e83e 488e 0dbe
00000370: ade8 a83d 7547 2c40 9699 df3e b0ae 93bf
00000380: a3cc 18bf d62a 0240 5849 47bf 60e0 143f
00000390: e145 6a3e 126e 5ebf bc09 55c0 cbf7 b43c
000003a0: 9333 2e3f 3c0c 5a3f bc85 9c3f d9d8 2fbf
000003b0: 217e b3bd 292e 0040 a6c3 03c0 f4a5 9d3e
000003c0: 9800 60bf e2e8 ce3e 7a61 e43c 332f a2be
000003d0: 7f24 29c0 b9a9 bfbf 4f21 ad3f da23 4e3e
000003e0: 8253 a23e 44e3 27bf 84cb 1f40 75d0 02c0
000003f0: 71be febe 948e 2c40 6aae 3dbe 68ba a5bf

normalizer.running_var f4 [256]
4.3732343 9.846551 1.0639238 13.261685 11.455961 17.772087 4.7786765 0.6318957
4.1247053 22.454739 3.4491096 7.370917 4.168535 24.939795 9.770157 21.099773
9.623823 18.555656 0.7917389 1.2276773 19.415258 22.137793 2.4736915 3.8757484
13.51823 7.349772 1.6113738 8.216532 1.8056527 8.725485 3.4703107 12.185074
6.15339 1.2918421 3.5829053 3.2297904 21.40201 16.262506 2.0783336 5.78129
17.449907 10.593157 33.2153 4.198028 4.1567583 3.393971 7.2148957 2.2747028
5.989509 5.114238 6.151652 6.7911925 4.3243217 1.5744218 7.2824454 3.8928654
25.225782 3.9460423 12.146766 6.1398935 0.3752428 4.405277 2.2634292 2.0461743
37.698532 6.4941154 8.533094 0.35473076 12.53874 9.351118 6.032635 11.460338
7.1685205 3.260389 13.911953 38.11553 2.0146842 8.705924 5.0422654 7.4596653
8.999289 15.930389 16.811031 5.0061455 4.1489906 16.816025 43.716614 1.0126861
3.4266014 1.7210892 3.2401412 4.946975 11.64181 7.600714 1.3934771 9.465083
10.212823 25.929295 5.5333385 6.693739 7.7571793 1.8410447 2.0043287 5.865685
5.8773184 17.092312 8.125355 2.9713423 4.4875016 3.8870907 11.835899 17.571257
5.1254363 4.627132 4.58481 3.7148812 4.438 4.2017636 3.052019 0.7284697
2.166088 10.317096 6.928462 8.596958 25.40008 18.329151 6.5714846 3.342425
4.03838 5.8760004 33.034115 5.250956 3.2760983 0.50495034 3.1273003 3.6252668
13.152718 13.152992 0.78164023 11.0592985 17.192125 13.597796 38.08096 0.37505963
3.163667 7.392113 5.4347534 9.087653 5.4489303 2.6091716 3.2687976 6.5863037
5.3404584 11.130266 2.193084 3.2981405 4.1137505 5.8507757 10.741385 8.46526
14.263178 4.85635 2.2149534 4.7893157 20.237972 5.0485253 13.071694 7.3977976
2.9371374 11.184707 18.564743 38.33361 7.712289 6.568611 4.525278 3.82652
2.254508 4.361487 13.859938 5.0778956 1.6008537 20.69479 3.5063436 5.8535614
7.366501 4.358238 3.8168547 30.16718 8.517942 23.431889 6.068831 1.8586484
4.5708323 18.862568 4.680381 0.24605614 2.699028 32.956448 32.69271 13.671227
3.613465 2.9856458 5.6453586 0.24181244 80.67822 3.744572 5.578722 7.1254697
3.2848287 5.539264 0.64784503 4.7376757 3.9540563 4.0135903 3.955359 0.85682523
11.306743 11.066098 3.383733 6.3870754 7.956261 10.932919 3.173453 8.529637
8.165953 20.312227 4.7955604 0.49785477 6.407684 2.9870596 13.480005 4.5422897
4.401913 4.564058 4.1244054 11.043853 6.453635 5.2751365 15.178379 7.339503
7.7900214 17.954311 7.1059113 0.4154914 4.9502616 4.163251 11.256978 2.2943325
0.8372632 4.565223 1.8610244 31.004152 6.9993277 11.557505 6.4520135 5.412572
00000000: 89f1 8b40 798b 1d41 a82e 883f dd2f 5441
00000010: 9e4b 3741 3c2d 8e41 ebea 9840 ebc3 213f
00000020: 96fd 8340 4ea3 b341 36be 5c40 8dde eb40
00000030: a464 8540 b384 c741 9052 1c41 56cc a841
00000040: 2efb 1941 fc71 9441 67af 4a3f 8824 9d3f
00000050: 7352 9b41 331a b141 f650 1e40 430c 7840
00000060: ac4a 5841 5531 eb40 7f41 ce3f ea76 0341
00000070: a11f e73f 969b 0b41 9219 5e40 10f6 4241
00000080: 92e8 c440 155b a53f 524e 6540 e3b4 4e40
00000090: 5137 ab41 9d19 8241 6b03 0540 5400 b940
000000a0: 6999 8b41 927d 2941 78dc 0442 3f56 8640
000000b0: 2a04 8540 d236 5940 6de0 e640 bb94 1140
000000c0: 0faa bf40 d6a7 a340 55da c440 7351 d940
000000d0: d860 8a40 a786 c93f cb09 e940 b524 7940
000000e0: 67ce c941 f58b 7c40 2759 4241 027a c440
000000f0: d31f c03e 07f8 8c40 06dc 1040 85f4 0240
00000100: 4ccb 1642 cbcf cf40 8e87 0841 459f b53e
00000110: ae9e 4841 2e9e 1541 590b c140 8b5d 3741
00000120: 8564 e540 37aa 5040 5c97 5e41 4d76 1842
00000130: 96f0 0040 774b 0b41 3d5a a140 94b5 ee40
00000140: 16fd 0f41 e0e2 7e41 fe7c 8641 5832 a040
00000150: 88c4 8440 3887 8641 d0dd 2e42 b39f 813f
00000160: 704d 5b40 a74c dc3f 795e 4f40 9f4d 9e40
00000170: db44 3a41 0d39 f340 755d b23f fb70 1741
00000180: b967 2341 326f cf41 1c11 b140 1c33 d640
00000190: d03a f840 5aa7 eb3f ec46 0040 b1b3 bb40
000001a0: fe12 bc40 0ebd 8841 7401 0241 792a 3e40
000001b0: 9d99 8f40 18c6 7840 d85f 3d41 ef91 8c41
000001c0: 9303 a440 7711 9440 c3b6 9240 9dc0 6d40
000001d0: 1904 8e40 d974 8640 4754 4340 fe7c 3a3f
000001e0: 30a1 0a40 d312 2541 f6b5 dd40 248d 0941
000001f0: 5d33 cb41 1aa2 9241 9a49 d240 4bea 5540
00000200: 693a 8140 3208 bc40 ef22 0442 d507 a840
00000210: 98ab 5140 6d44 013f b025 4840 5f04 6840
00000220: 8871 5241 a872 5241 9319 483f e3f2 3041
00000230: 7989 8941 9390 5941 e752 1842 d107 c03e
00000240: 8579 4a40 318c ec40 80e9 ad40 0767 1141
00000250: a35d ae40 abfc 2640 fb33 5140 00c3 d240
00000260: 09e5 aa40 9215 3241 7d5b 0c40 bc14 5340
00000270: d8a3 8340 8e39 bb40 b7dc 2b41 b471 0741
00000280: fa35 6441 3867 9b40 ccc1 0d40 1342 9940
00000290: 5ee7 a141 858d a140 a925 5141 c2ba ec40
000002a0: 0ffa 3b40 8ff4 3241 9884 9441 9e55 1942
000002b0: 12cb f640 1032 d240 14cf 9040 b4e5 7440
000002c0: dc49 1040 4d91 8b40 4ec2 5d41 1f7e a240
000002d0: c6e8 cc3f ee8e a541 ef67 6040 6050 bb40
000002e0: 60ba eb40 b076 8b40 5947 7440 6256 f141
000002f0: 7e49 0841 8274 bb41 dd33 c240 31e8 ed3f
00000300: 4244 9240 8ae6 9641 aec5 9540 24f6 7b3e
00000310: e0bc 2c40 67d3 0342 56c5 0242 59bd 5a41
00000320: 0343 6740 d214 3f40 c7a6 b440 ae9d 773e
00000330: 405b a142 11a7 6f40 e484 b240 d903 e440
00000340: a23a 5240 a741 b140 2cd9 253f 0a9b 9740
00000350: 420f 7d40 556f 8040 9a24 7d40 e658 5b3f
00000360: 6be8 3441 bd0e 3141 158f 5840 ec62 cc40
00000370: b199 fe40 3ced 2e41 db19 4b40 6579 0841
00000380: bea7 0241 717f a241 3b75 9940 d2e6 fe3e
00000390: bf0b cd40 fc2b 3f40 1aae 5741 705a 9140
000003a0: 79dc 8c40 c30c 9240 21fb 8340 9fb3 3041
000003b0: 2e84 ce40 ebcd a840 a4da 7241 35dd ea40
000003c0: db47 f940 6ea2 8f41 a063 e340 4abb d43e
000003d0: 8b68 9e40 5a39 8540 951c 3441 58d6 1240
000003e0: e256 563f 4f16 9240 0c36 ee3f 8108 f841
000003f0: 7efa df40 8aeb 3841 e576 ce40 ca33 ad40

fcs1.weight f4 [256, 33]
0.3542013 -0.21898057 0.068445414 0.028744021 0.031002192 -0.07368502 -0.2144425 -0.020082029
0.19353668 0.032625854 -0.044590488 -0.08117358 0.043605402 -0.28807855 0.089600414 -0.073085286
-0.03770062 0.0032380351 0.0070744874 0.059158165 0.009453633 0.0046942993 0.012063887 -0.24607885
-0.026254388 0.1884683 0.16011946 -0.049567424 0.23249245 -0.017643295 -0.008972847 -0.01598186
2.667904 -0.7671155 -0.6947173 0.1926458 0.0223234 -0.06960257 0.19918977 0.28604716
-0.076805 0.16679199 -0.4299429 -0.3911018 0.096207485 -0.085420296 -0.052941035 -0.024452223
-0.56904113 0.4626672 -0.031987235 -0.10898172 0.096042976 0.020388277 0.0011270712 -0.074934326
-0.44425875 -0.011725367 0.040097788 0.20511176 0.048140116 -0.12941787 -0.026041903 -0.05501324
-0.0058943555 -0.9108368 0.27626416 -0.69010216 -0.081393234 0.050848335 -0.025145391 -0.028346803
0.025509764 -0.03152198 -0.026617335 0.36513594 0.022360234 -0.17536297 -0.029705727 -0.6280083
0.4681781 0.13883072 -0.03036836 0.016884666 -0.057736877 -0.023865204 0.10690004 -0.022318594
-0.15738349 -0.10255033 0.09630368 0.023811463 0.4674145 0.030361673 -0.097725004 -0.06204529
0.011339056 -0.046474315 -0.7695795 -0.18418705 -0.40009403 0.064187 0.09023256 0.19856788
0.21665287 -0.30511764 -0.20476243 -0.14246766 0.47837293 0.4362801 -0.37748283 0.4184828
0.08018802 -0.0058356505 -0.26398855 -0.083523095 -0.26434913 -0.28366253 -0.016281024 0.29925022
-0.310072 -0.018607302 -0.16954526 -0.22065973 -0.22492094 0.6007944 -0.009306678 -0.013314662
-0.047210485 0.019743301 0.00021792203 0.46586907 0.0059322817 -0.043216147 -0.47362092 -0.16900508
0.07233413 0.24824414 -0.0074835694 -0.08091512 -0.38245204 0.32287845 0.42889223 0.15373114
0.6387728 0.1600822 -0.21503644 -0.12229415 0.17531407 0.2655636 -0.31013858 -0.20919605
-0.20092288 -0.030996386 -0.08234136 -0.008683124 0.20304751 0.4012202 -0.0018309334 -0.022632765
-0.24309012 -0.008424118 -0.06031214 0.002466254 -1.0321885 -0.05381671 0.022406226 0.2833896
0.25986418 0.38434836 0.2620863 0.00833244 -0.25357726 0.49677017 0.06362271 0.047043677
-0.16141306 0.15379596 0.043720216 -0.42314523 0.21888322 0.013411949 -0.11527883 0.097795635
0.0425926 -0.11042752 0.22485952 0.05015535 0.24053188 -0.051887695 -0.03415956 0.3425656
-0.033858795 0.32214385 -0.015213482 0.015101544 -0.03610988 2.093038 0.70736027 -0.53766966
-0.11068016 -0.006556664 0.3023596 -0.019528063 -0.25915504 -0.021222604 -0.27656886 -0.42479303
0.15369481 -0.38590828 -0.28982556 -0.00074340065 -0.24967985 -0.30052516 -0.0028033878 0.19959491
-0.027518835 -0.16039027 -0.32244778 -0.42479116 -0.4152074 -0.1256211 0.23537494 -0.113155
-0.32640737 -0.03406732 -0.014973267 0.032453857 0.033710543 0.02632422 0.18764535 0.4069888
-0.06696012 0.5514134 -0.09816149 -0.050265968 -0.10293287 -0.047234837 -0.050105177 -0.06343575
0.19954777 0.03643532 -0.0039631324 -0.014648808 -0.4752636 0.24111024 -0.5255358 -0.0037087528
-0.054564722 0.04545501 0.0036140012 0.009264602 -0.018207785 -0.104913756 -0.07126351 0.032651525
00000000: df59 b53e 713c 60be 1c2d 8c3d 9578 eb3c
00000010: 4ff8 fd3c 2ce8 96bd d196 5bbe 1183 a4bc
00000020: 7b2e 463e b0a2 053d 84a4 36bd 553e a6bd
00000030: 949b 323d 087f 93be 6c80 b73d bdad 95bd
00000040: f76b 1abd 3735 543b 1ad1 e73b d54f 723d
00000050: 69e3 1a3c a3d2 993b 9ca7 453c 18fc 7bbe
00000060: 7113 d7bc d6fd 403e 5bf6 233e 3607 4bbd
00000070: 8012 6e3e ac88 90bc d902 13bc 64ec 82bc
00000080: f0be 2a40 ae61 44bf fed8 31bf f144 453e
00000090: 90df b63c cb8b 8ebd 67f8 4b3e c674 923e
000000a0: f14b 9dbd 85cb 2a3e 7a21 dcbe 7f3e c8be
000000b0: 6e08 c53d d6f0 aebd b3d8 58bd 0750 c8bc
000000c0: aeac 11bf b7e2 ec3e 0c05 03bd cf31 dfbd
000000d0: 2eb2 c43d 5105 a73c 3cba 933a 2b77 99bd
000000e0: e275 e3be c11b 40bc 943d 243d d108 523e
000000f0: 922e 453d 1e86 04be d455 d5bc 9055 61bd
00000100: 7025 c1bb 9a2c 69bf 7f72 8d3e 89aa 30bf
00000110: 7fb1 a6bd 5846 503d b5fd cdbc 8e37 e8bc
00000120: daf9 d03c 311d 01bd 990c dabc 19f3 ba3e
00000130: cf2c b73c 5a92 33be 6d59 f3bc 27c5 20bf
00000140: 0ab5 ef3e a429 0e3e 11c7 f8bc b651 8a3c
00000150: 817d 6cbd f680 c3bc 68ee da3d 7cd5 b6bc
00000160: 2329 21be e805 d2bd dd3a c53d 4210 c33c
00000170: f450 ef3e 0bb9 f83c 0c24 c8bd 3423 7ebd
00000180: 73c7 393c da5b 3ebd 2a03 45bf 889b 3cbe
00000190: 20d9 ccbe 7974 833d d9cb b83d 6155 4b3e
000001a0: 40da 5d3e 6138 9cbe 3ead 51be 0be3 11be
000001b0: 4ced f43e 1b60 df3e 6e45 c1be 6143 d63e
000001c0: 9e39 a43d fc38 bfbb 8229 87be 280e abbd
000001d0: c558 87be 373c 91be c85f 85bc 5337 993e
000001e0: c2c1 9ebe 576e 98bc 469d 2dbe a0f4 61be
000001f0: ad51 66be a9cd 193f 097b 18bc bd25 5abc
00000200: c85f 41bd b4bc a13c 0082 6439 6486 ee3e
00000210: 9663 c23b 6a03 31bd 717e f2be ab0f 2dbe
00000220: eb23 943d b633 7e3e bb38 f5bb d4b6 a5bd
00000230: c1d0 c3be 5350 a53e c397 db3e b26b 1d3e
00000240: 9d86 233f 97ec 233e 8332 5cbe 5b75 fabd
00000250: 8885 333e f4f7 873e 7cca 9ebe 7d37 56be
00000260: babe 4dbe 22ec fdbc 96a2 a8bd a943 0ebc
00000270: b0eb 4f3e bc6c cd3e eefb efba 5968 b9bc
00000280: 9eec 78be 5005 0abc dd09 77bd e0a0 213b
00000290: c11e 84bf e96e 5cbd 438d b73c 7118 913e
000002a0: eb0c 853e 4fc9 c43e 2d30 863e c984 083c
000002b0: e1d4 81be a958 fe3e a04c 823d dfb0 403d
000002c0: 7749 25be b07c 1d3e f813 333d 7ea6 d8be
000002d0: ec22 603e cbbd 5b3c 4f17 ecbd 1449 c83d
000002e0: 9475 2e3d d327 e2bd 9341 663e b26f 4d3d
000002f0: fd4d 763e 3188 54bd e5ea 0bbd c264 af3e
00000300: 85af 0abd 0af0 a43e f841 79bc 776c 773c
00000310: f4e7 13bd 56f4 0540 9015 353f b8a4 09bf
00000320: 48ac e2bd 49d9 d6bb e1ce 9a3e 51f9 9fbc
00000330: f8af 84be 07db adbc 6f9a 8dbe 797e d9be
00000340: 2c62 1d3e c595 c5be 0464 94be c6e0 42ba
00000350: 13ac 7fbe 6fde 99be 0bb9 37bb 9c62 4c3e
00000360: 2e6f e1bc 593d 24be e017 a5be 3a7e d9be
00000370: 1096 d4be d1a2 00be 2106 713e cfbd e7bd
00000380: de1e a7be 2d8a 0bbd 6f52 75bc 56ee 043d
00000390: 1114 0a3d e4a5 d73c 1a26 403e d660 d03e
000003a0: 6322 89bd 6e29 0d3f e408 c9bd b0e3 4dbd
000003b0: 78ce d2bd 5179 41bd 163b 4dbd 9aea 81bd
000003c0: 4056 4c3e 343d 153d 2add 81bb 8e01 70bc
000003d0: c055 f3be 9ae5 763e 8489 06bf 8c0e 73bb
000003e0: 427f 5fbd 082f 3a3d e1d8 6c3b 8fca 173c
000003f0: 7e28 95bc 06dd d6bd 9af2 91bd 9bbd 053d

fcs1.bias f4 [256]
-0.028976953 -0.09136901 0.13558999 -0.05334808 0.07686789 -0.0055386014 -0.17236923 0.04782264
0.07735274 0.1535821 -0.14991224 0.12459406 -0.07056497 0.1444171 0.16950506 0.16340469
0.0773128 0.017007532 -0.08751581 -0.10284261 0.048515692 -0.07421594 0.035186563 0.1577385
-0.078464076 0.02249469 0.16735856 0.037245445 0.032553464 -0.086981684 -0.05896557 -0.034802724
0.04848053 -0.12342782 -0.099374555 0.120662734 -0.1173675 -0.119666785 0.15473782 0.0646716
-0.14292671 0.037713904 0.13390878 0.15649965 0.14789607 -0.0289759 0.11617987 -0.009373706
0.1443195 0.11165818 -0.12705153 0.082493365 -0.05423255 -0.013446421 -0.047746535 0.09258557
-0.029006194 0.08210896 -0.15808484 0.057086628 -0.056292422 -0.053457577 0.029250883 0.016842708
-0.04891676 -0.13352531 0.16388312 0.00430122 0.059477277 -0.070446655 0.13645197 -0.1131913
-0.16423847 0.08846866 0.07533368 0.09777489 -0.08950757 0.011600743 -0.113282956 0.043037422
0.16383062 0.043174457 -0.10485707 -0.0048782607 0.07175221 0.09743983 -0.17414033 -0.07731093
-0.061365046 0.1416233 -0.015725786 0.08575116 0.077653185 0.14802279 0.0059898905 0.01044132
-0.028999286 -0.16034652 -0.026749348 0.0989419 0.08122035 0.08663107 0.047187336 0.060992178
0.042714547 -0.016303126 -0.06760088 0.036152594 0.014573562 0.0042155776 0.16423145 -0.04801118
-0.15204759 -0.14821778 0.076191664 -0.018084506 -0.100567415 -0.0723285 0.12359853 -0.02554123
0.13648488 0.13176897 -0.04217045 0.1255983 0.1626218 0.091649845 -0.09759259 -0.06549631
-0.080513254 -0.16827661 -0.1070313 -0.15044415 0.13187785 -0.07651827 -0.04137512 0.055821802
0.019557383 -0.10871721 -0.07172061 -0.032435045 0.004373896 -0.009100052 0.07628663 0.00087228755
-0.10126387 -0.06957294 -0.040245913 0.118439004 0.12424124 -0.14781782 -0.13445756 0.023652272
0.07779088 -0.03230935 0.05705729 0.00033866207 -0.08723832 0.088451445 -0.05845666 -0.11310912
-0.004208623 -0.073048845 0.09620873 0.15559295 0.10788602 -0.05396026 -0.085193254 -0.06258802
-0.09960729 -0.05083851 0.1466917 0.17233339 -0.06610018 0.05660101 0.010786982 0.044509426
-0.13443208 -0.094913244 -0.041052204 -0.054289844 -0.037633345 0.04782177 -0.0040255724 -0.14336608
0.007354737 0.034482237 0.12670356 -0.09404475 -0.098424256 0.122619435 -0.06394168 0.059704892
0.14188375 -0.03146087 -0.0152419135 -0.10259524 0.083248466 0.08950633 -0.14697774 0.105194286
0.16955034 0.16088809 0.063190535 0.16769609 0.030553015 -0.08919525 -0.13694453 -0.13779113
0.069188066 0.07368827 -0.08926488 0.013355881 -0.074927494 0.07450004 -0.122531414 0.022288475
-0.051766742 -0.099226974 -0.062284913 0.17138481 0.039686717 -0.14083435 0.06560825 -0.14877738
0.13883738 -0.14588818 -0.056773037 -0.16232675 -0.060030293 0.1258614 0.0790516 0.007932454
-0.12211791 0.1324571 -0.017580068 -0.024181118 0.080831364 0.08921784 -0.12129416 0.008948365
-0.11701081 -0.11747679 0.0005546713 -0.0048080496 0.04464413 -0.110083446 0.04660898 0.11104268
0.014663818 0.15040968 0.0026080946 -0.12717563 -0.07746694 0.052796923 -0.11935328 -0.10350237
00000000: 1361 edbc ad1f bbbd 1ad8 0a3e 8483 5abd
00000010: ea6c 9d3d 287d b5bb 8f81 30be ace1 433d
00000020: 1d6b 9e3d a044 1d3e 9882 19be 2c2b ff3d
00000030: 5e84 90bd 14e2 133e bc92 2d3e 8f53 273e
00000040: 2c56 9e3d 6153 8b3c 7d3b b3bd 259f d2bd
00000050: 64b8 463d 87fe 97bd c91f 103d 3486 213e
00000060: c6b1 a0bd c946 b83c 0b60 2b3e ae8e 183d
00000070: c856 053d 7423 b2bd e285 71bd 4d8d 0ebd
00000080: 8593 463d bac7 fcbd e384 cbbd 061e f73d
00000090: 5f5e f0bd dc13 f5bd 9773 1e3e 8b72 843d
000000a0: 615b 12be e579 1a3d 621f 093e 7241 203e
000000b0: 1172 173e de5e edbc b6ef ed3d 2c94 19bc
000000c0: 7ec8 133e 0bad e43d cc19 02be 48f2 a83d
000000d0: f322 5ebd 614e 5cbc df91 43bd 819d bd3d
000000e0: 669e edbc be28 a83d fee0 21be abd3 693d
000000f0: e292 66bd 55f6 5abd 8c9f ef3c b8f9 893c
00000100: f15c 48bd dcba 08be fad0 273e 40f1 8c3b
00000110: 729e 733d 5646 90bd 11ba 0b3e d7d0 e7bd
00000120: 212e 28be 0f2f b53d 8b48 9a3d 343e c83d
00000130: bf4f b7bd 0b11 3e3c e500 e8bd 0248 303d
00000140: 37c3 273e b3d7 303d 4ebf d6bd d1d9 9fbb
00000150: d3f2 923d 898e c73d d851 32be 3155 9ebd
00000160: ea59 7bbd b305 113e 5dd3 80bc 4e9e af3d
00000170: a208 9f3d 4993 173e d846 c43b 1212 2b3c
00000180: e98f edbc e131 24be 7321 dbbc 0da2 ca3d
00000190: db56 a63d a16b b13d 8247 413d efd2 793d
000001a0: 73f5 2e3d 228e 85bc 5572 8abd be14 143d
000001b0: f3c5 6e3c d422 8a3b 4a2c 283e 5fa7 44bd
000001c0: 5db2 1bbe 67c6 17be 600a 9c3d f525 94bc
000001d0: 4af6 cdbd f720 94bd 3a21 fd3d d73b d1bc
000001e0: b1c2 0b3e 72ee 063e ecba 2cbd d79c 003e
000001f0: 5486 263e eab2 bb3d a0de c7bd ee22 86bd
00000200: 22e4 a4bd b450 2cbe 3a33 dbbd 080e 1abe
00000210: fd0a 073e 9cb5 9cbd f578 29bd 67a5 643d
00000220: ce36 a03c 21a7 debd 41e2 92bd 9cda 04bd
00000230: e652 8f3b 6218 15bc 2a3c 9c3d 3aaa 643a
00000240: 6f63 cfbd 427c 8ebd e6d8 24bd 2690 f23d
00000250: 3172 fe3d 8e5d 17be 3eaf 09be 69c2 c13c
00000260: d350 9f3d cf56 04bd e8b4 693d 748e b139
00000270: 01aa b2bd 0826 b53d 4070 6fbd c1a5 e7bd
00000280: 7de8 89bb a29a 95bd 1509 c53d c253 1f3e
00000290: 58f3 dc3d 6f05 5dbd cd79 aebd 262e 80bd
000002a0: e8fe cbbd 0b3c 50bd 5936 163e 2a78 303e
000002b0: 885f 87bd 76d6 673d e2bb 303c 844f 363d
000002c0: 90a8 09be e061 c2bd 5b26 28bd 075f 5ebd
000002d0: 6c25 1abd c3e0 433d f3e8 83bb 8fce 12be
000002e0: 0100 f13b 3f3d 0d3d 94be 013e 899a c0bd
000002f0: a892 c9bd e61f fb3d dbf3 82bd 1e8d 743d
00000300: f949 113e 1ddd 00bd 38b9 79bc 741d d2bd
00000310: 2c7e aa3d 184f b73d 5581 16be 1a70 d73d
00000320: 9b9e 2d3e d9bf 243e 0a6a 813d 86b8 2b3e
00000330: 514a fa3c 00ac b6bd 303b 0cbe 1e19 0dbe
00000340: 79b2 8d3d e0e9 963d 81d0 b6bd a0d2 5a3c
00000350: 9673 99bd 7a93 983d c0f1 fabd 5296 b63c
00000360: 5d09 54bd 8337 cbbd 771e 7fbd 807f 2f3e
00000370: 8a8e 223d e136 10be 9e5d 863d 1959 18be
00000380: 632b 0e3e b663 15be d88a 68bd fc38 26be
00000390: 53e2 75bd d0e1 003e cee5 a13d 20f7 013c
000003a0: f418 fabd d6a2 073e 1304 90bc 7b17 c6bc
000003b0: ea8a a53d d8b7 b63d 1369 f8bd 2a9c 123c
000003c0: 5da3 efbd ac97 f0bd 5c67 113a d88c 9dbb
000003d0: c3dc 363d 6e73 e1bd 0fe9 3e3d 586a e33d
000003e0: 8340 703c ff04 1a3e 91ec 2a3b 543a 02be
000003f0: fda6 9ebd 9641 583d 7e6f f4bd 0df9 d3bd

fc2.weight f4 [128, 260]
-0.07961041 -0.072936945 -0.07456451 -0.015837835 -0.057493377 -0.09778529 -0.0055086026 0.03418045
0.028614469 -0.06901816 -0.105855115 -0.005100312 0.017414695 0.029675376 -0.07935303 0.019576106
-0.0819125 -0.044152204 0.024973001 0.0444803 -0.06050708 -0.10735222 -0.046475057 0.04263476
-0.08721833 -0.09066547 -0.09618173 0.0323104 0.07278077 -0.06227921 0.009587232 -0.013234522
-0.053171124 -0.14106834 0.0074256174 -0.04340974 -0.0524838 0.028682211 -0.054008998 -0.038907867
-0.10603209 -0.05122692 -0.019303737 -0.14640129 0.010737516 -0.031637717 -0.04835771 0.06424963
0.03413435 -0.001550432 -0.03897218 0.0058694687 -0.10508887 0.024066886 -0.0143782105 -0.11533183
-0.017791929 -0.02396865 0.032206003 -0.041991662 -0.008470164 -0.0934005 -0.05155757 0.0154481325
-0.060386546 -0.08388629 -0.094260715 0.03516589 -0.023955317 -0.064463675 -0.08020002 -0.06253188
-0.06309805 -0.07288247 -0.037882894 0.05446599 0.003922798 -0.014075277 0.007853383 0.0878053
-0.025524499 -0.029401181 -0.025717279 -0.026306033 0.009742169 -6.5768545e-05 -0.07391146 -0.075023
-0.13328485 -0.012340947 0.01035658 -0.09473593 -0.06763065 0.03593516 -0.026142217 -0.026069144
-0.040917862 -0.002357055 -0.05448895 0.03565056 -0.013194814 0.0034702795 -0.087063275 -0.008431577
-0.05727359 -0.087190226 -0.068283826 0.037020434 -0.07618667 -0.15203886 -0.0755452 0.011716908
-0.064511515 -0.055101722 0.00999959 -0.040641826 -0.0075125494 -0.09156163 -0.09794506 -0.04008723
0.048772536 -0.09853128 -0.072692744 0.03377879 -0.09745063 0.0050051124 -0.009755581 -0.054246593
-0.083007164 -0.11828506 -0.12137802 -0.04232342 -0.015007327 -0.08696314 -0.086676985 -0.08387723
0.012163509 -0.08518423 0.057253987 -0.014505759 -0.12986887 -0.022388188 -0.08553909 0.015490837
-0.0955826 -0.031105805 -0.02925097 -0.027788382 -0.016684974 -0.08323597 -0.044112146 -0.013435002
0.0054589664 0.043444432 -0.08520746 -0.118936025 -0.14868444 -0.060379237 -0.118572816 0.019309018
0.04082039 -0.065687 -0.068743154 -0.1521125 -0.10503813 -0.060909398 -0.009479124 -0.15343721
-0.01211184 -0.053505726 0.0014714499 -0.10394358 0.0708507 -0.08449407 -0.060821135 -0.022844108
-0.04362985 -0.092405654 -0.016710263 -0.01248996 -0.1714732 -0.049236905 -0.114365615 0.049076732
-0.04643474 -0.060638256 -0.03403786 0.023259306 -0.0555892 0.032325953 -0.05409414 -0.07832472
-0.10674001 -0.026309168 -0.07913454 -0.01456957 -0.119910054 0.0004137099 -0.095738806 -0.06732755
-0.031665515 -0.0032048398 0.012518259 0.03803769 -0.18184008 -0.06402758 0.047977045 0.014393731
-0.04768667 -0.10389855 -0.08695113 -0.12061405 0.0025022556 -0.030153234 -0.11970996 -0.10112319
0.0019815373 -0.0024232175 -0.015101686 -0.11633888 0.05988325 -0.05622484 0.0034661293 0.011876444
-0.04177444 -0.06331031 -0.044170305 -0.009058205 -0.08892821 -0.087026894 -0.009133935 -0.106129564
-0.100526884 -0.13522893 -0.041760214 0.00036886512 0.08738713 0.026496775 0.05737507 -0.07081204
-0.121804014 -0.11060341 -0.121660165 -0.036561165 -0.13156189 0.0217095 -0.08749786 -0.08490332
-0.09662641 -0.0123759955 -0.008991891 0.012328148 -0.08639655 0.010634225 -0.0533168 -0.012014077
00000000: c80a a3bd f75f 95bd 47b5 98bd 59be 81bc
00000010: 2d7e 6bbd a743 c8bd 8281 b4bb cd00 0c3d
00000020: e468 ea3c 6559 8dbd 91ca d8bd 8520 a7bb
00000030: 43a9 8e3c c619 f33c d783 a2bd 125e a03c
00000040: bec1 a7bd f1d8 34bd 2e94 cc3c fa30 363d
00000050: 46d6 77bd 7bdb dbbd a15c 3ebd c9a1 2e3d
00000060: 869f b2bd d1ae b9bd edfa c4bd e957 043d
00000070: 160e 953d 7c18 7fbd c413 1d3c 9cd5 58bc
00000080: f7c9 59bd 3874 10be 9852 f33b 69ce 31bd
00000090: 41f9 56bd f5f6 ea3c 8a38 5dbd db5d 1fbd
000000a0: 5a27 d9bd 52d3 51bd df22 9ebc 38ea 15be
000000b0: 68ec 2f3c 8d96 01bd bc12 46bd 4f95 833d
000000c0: 76d0 0b3d dd37 cbba 4ba1 1fbd ac54 c03b
000000d0: d538 d7bd eb27 c53c 9692 6bbc 1833 ecbd
000000e0: 61c0 91bc e759 c4bc 71ea 033d 73ff 2bbd
000000f0: 71c6 0abc c348 bfbd 082e 53bd 2a1a 7d3c
00000100: e257 77bd 93cc abbd c30b c1bd 1c0a 103d
00000110: f13d c4bc 8805 84bd e83f a4bd b710 80bd
00000120: 8d39 81bd 6843 95bd 182b 1bbd bb17 5f3d
00000130: d18a 803b fe9b 66bc 7aab 003c 44d3 b33d
00000140: c118 d1bc bfda f0bc 0bad d2bc c07f d7bc
00000150: 9e9d 1f3c 38ed 89b8 e45e 97bd a9a5 99bd
00000160: d37b 08be af31 4abc a5ae 293c e904 c2bd
00000170: f081 8abd bf30 133d 3428 d6bc f58e d5bc
00000180: 7d99 27bd d278 1abb ce2f 5fbd 5206 123d
00000190: 102f 58bc a16d 633b 3b4e b2bd 9924 0abc
000001a0: b697 6abd ca90 b2bd 64d8 8bbd bda2 173d
000001b0: c207 9cbd 13b0 1bbe 71b7 9abd 46f8 3f3c
000001c0: 9d1e 84bd 58b2 61bd 52d5 233c 0b78 26bd
000001d0: d52b f6bb aa84 bbbd 6b97 c8bd 8232 24bd
000001e0: b6c5 473d c5ca c9bd efdf 94bd a15b 0a3d
000001f0: 3294 c7bd ed01 a43b dfd5 1fbc ad31 5ebd
00000200: a9ff a9bd 703f f2bd 0a95 f8bd 535b 2dbd
00000210: 4be1 75bc bb19 b2bd b483 b1bd d3c7 abbd
00000220: 7449 473c 1275 aebd 2883 6a3d 90a9 6dbc
00000230: 58fc 04be 6f67 b7bc 1e2f afbd 48cd 7d3c
00000240: cfc0 c3bd 9ad1 febc bb9f efbc 76a4 e3bc
00000250: edae 88bc 9f77 aabd f0ae 34bd 7c1e 5cbc
00000260: 21e1 b23b caf2 313d 4081 aebd bb94 f3bd
00000270: bc40 18be 3850 77bd 4ed6 f2bd f22d 9e3c
00000280: 4833 273d e886 86bd 36c9 8cbd 61c3 1bbe
00000290: 3b1e d7bd 227c 79bd 544e 1bbc a51e 1dbe
000002a0: bd70 46bc d228 5bbd aadd c03a 5fe0 d4bd
000002b0: 2c1a 913d 3a0b adbd 951f 79bd 9123 bbbc
000002c0: 37b5 32bd 2d3f bdbd f6e3 88bc b0a2 4cbc
000002d0: ac96 2fbe a3ac 49bd 8538 eabd af04 493d
000002e0: 5b32 3ebd d25f 78bd 486b 0bbd 4d8a be3c
000002f0: 80b1 63bd 3868 043d d191 5dbd b668 a0bd
00000300: 829a dabd 5386 d7bc 4a11 a2bd 35b5 6ebc
00000310: 6793 f5bd 34e7 d839 b512 c4bd 07e3 89bd
00000320: b3b3 01bd 4a08 52bb 6219 4d3c 69cd 1b3d
00000330: 4934 3abe e420 83bd 9483 443d afd3 6b3c
00000340: 1953 43bd c3c8 d4bd 6f13 b2bd 8004 f7bd
00000350: e2fc 233b ea03 f7bc 7f2a f5bd ad19 cfbd
00000360: aedc 013b d8ce 1ebb 106d 77bc 1443 eebd
00000370: 2448 753d 054c 66bd 0028 633b 6b95 423c
00000380: ad1b 2bbd d6a8 81bd eceb 34bd de68 14bc
00000390: fe1f b6bd 283b b2bd 80a6 15bc 755a d9bd
000003a0: 0ae1 cdbd 7479 0abe c20c 2bbd 3d64 c139
000003b0: 06f8 b23d c40f d93c 1f02 6b3d e705 91bd
000003c0: 6274 f9bd 0a84 e2bd f728 f9bd 29c1 15bd
000003d0: 29b8 06be 1fd8 b13c 1432 b3bd cbe1 adbd
000003e0: 11e4 c5bd b0c4 4abc b952 13bc 00fc 493c
000003f0: adf0 b0bd 2c3b 2e3c b862 5abd b1d6 44bc

fc2.bias f4 [128]
-0.038954865 -0.10486569 0.10875364 -0.13840517 -0.096735 -0.05154021 0.0727543 0.63457125
-0.06456465 -0.045320183 0.5386724 0.6669854 -0.06202708 0.41859007 0.49950576 -0.30172256
0.60513645 -0.082670435 -0.1955824 -0.11019478 -0.072483405 0.24715532 -0.11335838 -0.1364212
-0.1119755 -0.06772919 -0.039981514 0.020091502 0.250033 -0.06346733 -0.07447242 -0.13817033
-0.0991762 -0.122705996 0.88318205 -0.079424016 -0.104486585 0.39461246 -0.10852853 -0.11886889
-0.100492425 0.49083382 -0.049447764 -0.0602033 -0.05502003 0.5653315 -0.054147247 0.3268894
0.03660128 -0.11076894 -0.030423608 -0.07356998 -0.11652416 -0.09239912 -0.06487077 0.10475341
-0.09021775 -0.020005478 -0.052412145 -0.050518326 -0.052390482 -0.021553166 0.40290436 0.24167395
-0.12754296 -0.020037856 -0.059071053 0.511671 0.35629752 -0.37522689 -0.054380126 -0.1992605
-0.06314968 -0.101119734 -0.070144564 -0.08397183 -0.050916303 -0.093417875 -0.2108465 -0.103071705
-0.08309049 -0.070776895 -0.11577497 -0.2234846 -0.06847681 -0.09097689 -0.15118402 -0.107010156
0.44266734 -0.08323901 -0.096472904 -0.061335284 -0.007852398 -0.108568184 0.24548762 0.6394613
-0.12337971 0.77148074 -0.44525793 0.04155536 -0.07403105 -0.042606093 -0.27833217 -0.08383439
-0.036327165 -0.012478767 -0.15429975 -0.02286995 -0.086514756 0.21524726 0.63315696 -0.063171655
-0.06510416 -0.06845631 -0.07639961 0.4504138 -0.06833888 -0.09505932 -0.10663196 0.59463805
-0.02953597 0.5730414 -0.0459226 -0.095020756 0.3432421 -0.15770075 0.73829603 -0.10876031
00000000: 238f 1fbd d3c3 d6bd 3aba de3d 16ba 0dbe
00000010: 001d c6bd d41b 53bd 3500 953d 4373 223f
00000020: 793a 84bd a8a1 39bd 6fe6 093f 8ebf 2a3f
00000030: 1c10 7ebd 7051 d63e 38bf ff3e 617b 9abe
00000040: 39ea 1a3f 1e4f a9bd c146 48be cdad e1bd
00000050: 2e72 94bd 4916 7d3e 7028 e8bd 00b2 0bbe
00000060: 6953 e5bd 9ab5 8abd a8c3 23bd ef96 a43c
00000070: 5304 803e 29fb 81bd ff84 98bd 867c 0dbe
00000080: e41c cbbd 484d fbbd 3818 623f 0fa9 a2bd
00000090: 10fd d5bd a50a ca3e 3544 debd 8871 f3bd
000000a0: f9ce cdbd 924e fb3e bd89 4abd bc97 76bd
000000b0: af5c 61bd 91b9 103f 81c9 5dbd 0c5e a73e
000000c0: 39eb 153d d3da e2bd ee3a f9bc dcab 96bd
000000d0: 38a4 eebd c03b bdbd f7da 84bd f588 d63d
000000e0: 15c4 b8bd 87e2 a3bc 1eae 56bd 4eec 4ebd
000000f0: 6797 56bd 4490 b0bc 7b49 ce3e 6079 773e
00000100: 9f9a 02be 6e26 a4bc 7df4 71bd dffc 023f
00000110: a16c b63e bd1d c0be b2bd 5ebd f20a 4cbe
00000120: 9f54 81bd dd17 cfbd f4a7 8fbd 6cf9 abbd
00000130: 9d8d 50bd df51 bfbd 25e8 57be 4217 d3bd
00000140: 592b aabd 7af3 90bd 6d1b edbd 26d9 64be
00000150: 923d 8cbd 1752 babd fccf 1abe 2428 dbbd
00000160: 4ba5 e23e 3779 aabd 9693 c5bd b53a 7bbd
00000170: 58a7 00bc ff58 debd 1b61 7b3e bcb3 233f
00000180: 80ae fcbd c37f 453f d9f8 e3be f435 2a3d
00000190: 979d 97bd ba83 2ebd 8e81 8ebe 5db1 abbd
000001a0: cbcb 14bd be73 4cbc c100 1ebe c359 bbbc
000001b0: a62e b1bd c769 5c3e 9316 223f 2460 81bd
000001c0: 5455 85bd d232 8cbd 6677 9cbd a39c e63e
000001d0: 41f5 8bbd 76ae c2bd db61 dabd 333a 183f
000001e0: 6bf5 f1bc d7b2 123f 5619 3cbd 3e9a c2bd
000001f0: 6ebd af3e 4e7c 21be f800 3d3f babd debd

fc3.weight f4 [1, 128]
-0.017001415 -0.009020037 0.045731988 0.014401531 -0.0241702 0.0040340247 0.063205846 0.055460174
0.015656482 -0.009061714 0.063844875 0.115291476 -0.0017766696 0.024541728 0.07548652 -0.03575125
0.07078858 0.013921903 -0.078617856 0.02657967 -0.029913848 0.039195847 -0.027856804 0.04097181
-0.001575635 0.026636438 0.028932273 -0.040810965 0.030165613 -0.0101995375 0.009693159 -0.013560957
-0.02449922 -0.007888232 0.13183352 -0.045789458 0.020031277 0.026419362 -0.07448608 0.006397364
0.008891194 0.063211106 -0.010475033 0.012628786 0.012380159 0.084597126 0.08791362 0.057199713
0.074682474 0.02728791 0.004294153 -0.014174571 -0.00028116733 -0.024004534 0.013450522 0.069507055
0.026196552 -0.00057771517 0.022167336 -0.012658569 0.018493593 -0.0006045273 0.02265339 0.040032037
0.004199679 0.0069795754 -0.1006299 0.0785143 0.04580215 -0.04163984 0.02422098 -0.036920533
-0.0059020887 0.013553576 -0.009174162 -0.014323535 0.015034081 -0.0013779077 -0.10543688 0.002861722
-0.0003603526 -0.025263073 -0.012258006 -0.032952707 -0.028655568 0.02610758 -0.06262684 -0.0118739
0.09579896 0.02347828 0.008224945 -0.0061156573 0.03615175 -0.0023961507 0.06849656 0.08684661
0.025282398 0.17863612 -0.04427085 0.05515637 -0.0032122044 0.01750386 -0.10280995 -0.00023235322
0.07341915 0.00033396925 0.020112388 -0.013852841 -0.024802461 0.055636548 0.10456897 0.0076583913
-0.018271936 -0.0007796828 0.011552547 0.056218106 -0.014109691 -0.027761726 0.0029822204 0.087674715
0.001669166 0.10160132 -0.021978717 -0.027243964 0.0209057 0.0024930155 0.07483287 0.018256983
00000000: 8d46 8bbc c7c8 13bc 7751 3b3d 66f4 6b3c
00000010: 9500 c6bc da2f 843b 1172 813d 352a 633d
00000020: 0642 803c 9577 14bc 1ac1 823d f01d ec3d
00000030: 24df e8ba bc0b c93c ad98 9a3d e76f 12bd
00000040: 9af9 903d b218 643c 6602 a1bd 9cbd d93c
00000050: e30d f5bc d38b 203d f433 e4bc 0fd2 273d
00000060: 8a85 ceba a934 da3c 6003 ed3c 6629 27bd
00000070: e01d f73c f61b 27bc 0ed0 1e3c c72e 5ebc
00000080: 97b2 c8bc a53d 01bc 5eff 063e ba8d 3bbd
00000090: a218 a43c 6b6d d83c 288c 98bd fba0 d13b
000000a0: 5fac 113c d374 813d 799f 2bbc f8e8 4e3c
000000b0: 27d6 4a3c 4241 ad3d 0e0c b43d 3f4a 6a3d
000000c0: 20f3 983d e58a df3c f7b5 8c3b 763c 68bc
000000d0: a469 93b9 28a5 c4bc 945f 5c3c b759 8e3d
000000e0: 279a d63c cf71 17ba 4698 b53c e365 4fbc
000000f0: e07f 973c 2479 1eba 9a93 b93c a2f8 233d
00000100: 769d 893b ecb4 e43b 0d17 cebd 1bcc a03d
00000110: 099b 3b3d 898e 2abd 146b c63c fc39 17bd
00000120: 4f66 c1bb d10f 5e3c 394f 16bc 43ad 6abc
00000130: 8251 763c e99a b4ba 4aef d7bd ba8b 3b3b
00000140: b5ed bcb9 81f4 cebc ced5 48bc 6bf9 06bd
00000150: 15bf eabc 90df d53c 8042 80bd bf8a 42bc
00000160: 3f32 c43d 8655 c03c ebc1 063c da65 c8bb
00000170: db13 143d bd08 1dbb ed47 8c3d a3dc b13d
00000180: 081d cf3c 63ec 363e 5a55 35bd a5eb 613d
00000190: d983 52bb 4164 8f3c 068e d2bd d8a3 73b9
000001a0: c85c 963d 9818 af39 bcc2 a43c 07f7 62bc
000001b0: 882e cbbc 26e3 633d 4228 d63d 3ef3 fa3b
000001c0: 07af 95bc a163 4cba e546 3d3c f544 663d
000001d0: 552c 67bc 8f6c e3bc 5b71 433b cd8e b33d
000001e0: ebc7 da3a 5a14 d03d b60c b4bc bc2e dfbc
000001f0: 6e42 ab3c dc61 233b fa41 993d ab8f 953c
