p2_continuous-control/checkpoint_critic.pth (torch_old, 601156 bytes, 5 tensors)

fcs1.weight f4 [512, 33]
-0.021853233 0.013538328 -0.0046266112 -0.040983748 -0.005126456 0.024529338 0.0006890922 -0.010117613
-0.014009702 -0.082638666 -0.013292996 0.045732222 0.0050598956 -0.023655377 -0.02058586 -0.009686102
-0.0035694798 0.015689975 0.0024816904 0.0057208696 -0.034081638 -0.01261585 -0.010071662 0.015284793
-0.01925046 -0.002555262 -0.0027098674 0.085309826 -0.0025572255 -0.023541428 -0.05756009 5.767867e-05
-0.01887901 0.04296242 -0.01607859 0.024480347 0.039650902 0.006294223 0.023854151 0.008609358
-0.03684899 -0.006789042 -0.052358553 0.006244439 -0.014294812 0.0066606877 -0.0025983392 -0.012409051
-0.038749915 0.029741082 -0.024709059 -0.023107223 0.0043856497 -0.026991153 0.011298945 0.048786316
-0.008415814 0.004157234 0.0071138125 0.010587164 0.08174342 -0.009485031 0.004423432 -0.07562331
0.0038110018 0.21595456 0.033350233 -0.047708035 0.055810183 -0.006283958 0.04150494 -0.0486419
-0.05968387 0.0060800184 0.044933166 0.051361185 0.019905508 -0.0068065273 -0.03319565 0.05231314
-0.03170686 -0.023435902 0.020379666 0.014002803 0.02644042 0.012665043 -0.025950467 -0.00043370522
-0.038845528 0.02691852 -0.035031915 -0.0048664003 -0.04541152 -0.026681319 -0.03528621 -0.019829992
0.023055954 0.0027915686 0.12745579 0.042065036 -0.017067526 -0.05184865 -0.006104719 -0.012433173
0.057521246 -0.038791135 0.0058437665 -0.031886827 -0.015758244 0.018362904 0.02454236 0.018381553
-0.009934187 0.015655443 0.0013546187 -0.013514606 0.006115334 -0.015188929 -0.024550328 0.045553386
-0.014149284 0.00638764 -0.010629489 -0.017047316 -0.007294134 -0.06810193 0.022190368 0.0425931
0.002200488 0.036722157 0.00831059 0.023023143 0.055010356 0.06100169 0.035576895 0.045677688
-0.028781934 -0.0040394943 0.030993298 0.00380597 -0.043046467 -0.0504606 0.016659316 -0.009534857
-0.025426973 0.023893753 -0.002646805 -0.026928259 -0.04890303 0.042276066 -0.010478424 -0.03377513
-0.030576928 0.033606432 0.019531928 -0.013448637 -0.005192812 0.012850982 0.09634535 0.056328956
-0.037998848 0.013306204 -0.054014474 0.014021967 0.08134489 0.012683363 -0.014728419 0.016781354
-0.07344412 0.071788 0.021659028 -0.026859337 -0.03858031 0.022135131 0.011177081 0.035651047
0.035094257 0.023833506 -0.013712608 -0.029409513 0.027994463 -0.013842236 -0.037185676 -0.0052325744
-0.025085965 -0.058376186 0.002961636 -0.017380876 -0.018267948 -0.002749872 -0.018182462 -0.0030080394
-0.014650167 0.02780288 -0.017294774 -0.046440806 0.0070937313 0.4154289 0.009437827 0.06839448
-0.017634926 -0.00080456445 0.0064582992 0.0016573659 -0.039741553 0.022893408 -0.04585805 -0.068476245
0.044782765 -0.0117013585 0.009320165 -0.044326115 0.041305322 -0.004496931 -0.049172837 0.0068781185
0.02953172 -0.015551814 -0.013993383 -0.025316542 -0.031123407 -0.017986935 0.012227805 -0.03455985
-0.007963669 0.102086924 -0.0045386036 -0.008908078 -0.12785454 0.038713936 -0.023890594 0.04345554
-0.023752203 -0.018981278 -0.049130034 0.055304684 -0.0046340767 -0.083039984 0.005048108 0.06294379
0.05905402 0.015685389 -0.0031052916 0.023639927 0.0638172 -0.034199785 -0.0022238984 -0.0026865872
-0.031043014 0.04265407 0.0026764164 -0.016536504 -0.006284964 0.013628668 -0.035797473 -0.021935234
00000000: 8d05 b3bc ddcf 5d3c d49a 97bb 93de 27bd
00000010: d4fb a7bb c0f1 c83c 32a4 343a 58c4 25bc
00000020: f388 65bc 763e a9bd deca 59bc b651 3b3d
00000030: 7bcd a53b ecc8 c1bc ada3 a8bc 75b2 1ebc
00000040: efed 69bb 4388 803c dba3 223b 2276 bb3b
00000050: 3099 0bbd b6b2 4ebc 9d03 25bc 126d 7a3c
00000060: 24b3 9dbc 2f76 27bb 0898 31bb ebb6 ae3d
00000070: 2097 27bb f4d9 c0bc 21c4 6bbd 00ec 7138
00000080: 27a8 9abc 5df9 2f3d 3fb7 83bc 028b c83c
00000090: fc68 223d c53f ce3b c869 c33c 440e 0d3c
000000a0: f7ee 16bd 9d76 debb ec75 56bd 279e cc3b
000000b0: ca34 6abc e641 da3b e648 2abb 554f 4bbc
000000c0: 3bb8 1ebd 92a3 f33c a76a cabc 5c4b bdbc
000000d0: 7fb5 8f3b 8d1c ddbc 361f 393c 29d4 473d
000000e0: 7be2 09bc 6839 883b fc1a e93b c975 2d3c
000000f0: 1869 a73d 1a67 1bbc 70f2 903b 65e0 9abd
00000100: 00c2 793b 3123 5d3e 419a 083d 8069 43bd
00000110: 3899 643d a9e9 cdbb 1501 2a3d bb3c 47bd
00000120: 1377 74bd e43a c73b d70b 383d 1b60 523d
00000130: e010 a33c 4a09 dfbb 29f8 07bd 4e46 563d
00000140: 0ddf 01bd a6fc bfbc 42f3 a63c 036c 653c
00000150: 9499 d83c 0a81 4f3c 1396 d4bc ee62 e3b9
00000160: 7d1c 1fbd 3a84 dc3c a07d 0fbd 5376 9fbb
00000170: 6e01 3abd c892 dabc 4688 10bd 8272 a2bc
00000180: d7df bc3c c0f2 363b c583 023e 634c 2c3d
00000190: 32d1 8bbc 405f 54bd 180a c8bb 82b4 4bbc
000001a0: 669b 6b3d 74e3 1ebd 117d bf3b c39b 02bd
000001b0: 6f17 81bc cd6d 963c 0f0d c93c e994 963c
000001c0: 00c3 22bc d83f 803c 768d b13a 5e6c 5dbc
000001d0: 2463 c83b fcda 78bc c51d c9bc 3096 3a3d
000001e0: 66d2 67bc 684f d13b 4f27 2ebc d0a6 8bbc
000001f0: a103 efbb 0679 8bbd 93c8 b53c 1a76 2e3d
00000200: 1036 103b f969 163d 2429 083c 089b bc3c
00000210: 8a52 613d e8dc 793d 14b9 113d 8718 3b3d
00000220: 17c8 ebbc bc5d 84bb a8e5 fd3c 956d 793b
00000230: 7e51 30bd c6af 4ebd 1e79 883c 1738 1cbc
00000240: 3a4c d0bc d5bc c33c 0576 2dbb a798 dcbc
00000250: 8b4e 48bd ab29 2d3d b2ad 2bbc ca57 0abd
00000260: 777c fabc e6a6 093d 6c01 a03c ac57 5cbc
00000270: 7728 aabb ed8c 523c b650 c53d 31b9 663d
00000280: aea4 1bbd 4402 5a3c 483e 5dbd 64bc 653c
00000290: 2698 a63d e1cd 4f3c 774f 71bc 0d79 893c
000002a0: df69 96bd 9605 933d 466e b13c 1d08 dcbc
000002b0: 6306 1ebd bc54 b53c 1320 373c d506 123d
000002c0: ffbe 0f3d 7c3e c33c d9aa 60bc 38ec f0bc
000002d0: a554 e53c 8cca 62bc 0250 18bd 0476 abbb
000002e0: 1581 cdbc de1b 6fbd 0218 423b 5762 8ebc
000002f0: aaa6 95bc 3237 34bb 63f3 94bc 8722 45bb
00000300: 4107 70bc dec2 e33c c5ad 8dbc b738 3ebd
00000310: 8872 e83b 19b3 d43e 1ea1 1a3c 6812 8c3d
00000320: 1f77 90bc 68e9 52ba 24a0 d33b f93b d93a
00000330: 0ac8 22bd f58a bb3c a7d5 3bbd 463d 8cbd
00000340: 226e 373d 0eb7 3fbc 9bb3 183c 4d8f 35bd
00000350: c52f 293d fe5a 93bb 7569 49bd d761 e13b
00000360: 81ec f13c 09cd 7ebc 8144 65bc a364 cfbc
00000370: 84f6 febc 5659 93bc 2257 483c a18e 0dbd
00000380: 0c7a 02bc f312 d13d 91b8 94bb 30f3 11bc
00000390: 4dec 02be 8192 1e3d 35b6 c3bc 70fe 313d
000003a0: fb93 c2bc a07e 9bbc 933c 49bd 2a87 623d
000003b0: 74d9 97bb de10 aabd 996a a53b ace8 803d
000003c0: a1e2 713d a57e 803c 2682 4bbb 85a8 c13c
000003d0: 98b2 823d 1315 0cbd d3be 11bb 7411 30bb
000003e0: eb4d febc 09b6 2e3d d166 2f3b 9077 87bc
000003f0: 19f2 cdbb c74a 5f3c 5fa0 12bd 85b1 b3bc

fcs1.bias f4 [512]
-0.19967459 0.052068725 -0.1175365 0.12157601 -0.003746817 0.14403889 0.032988474 0.011862495
-0.029445069 -0.048031684 -0.15291777 0.012132371 -0.16442327 -0.04414138 -0.108936556 -0.17345423
0.0057205865 -0.2115071 0.083441064 0.0034404623 -0.021610811 0.16899048 -0.2128902 0.02771725
-0.107703485 0.033572417 -0.08691792 -0.09709188 -0.061285306 0.11560245 0.01669963 0.0065702745
0.040006682 -0.18756612 0.029333869 0.1261286 -0.21630076 0.012264337 -0.075962774 -0.20784843
-0.06991705 0.09995397 0.15673098 -0.08902563 -0.0521792 -0.05628069 -0.13427511 -0.0011870287
-0.09211559 0.15844233 -0.024540715 -0.10228006 -0.13638873 -0.0902198 -0.05672003 -0.021899771
0.062854804 -0.2277956 -0.032487407 -0.08201721 0.16354012 -0.12251471 -0.17218646 0.04320569
-0.15897554 0.123305224 0.14907439 -0.12789711 -0.06867861 0.08520014 0.1838609 -0.12806542
0.12212931 0.13027272 -0.16078301 -0.20173304 0.05558317 -0.025803309 -0.12528479 -0.114300005
-0.08074112 0.038554095 -0.17136891 -0.06519944 0.041014094 -0.22465058 0.11507351 -0.05862244
-0.20674203 0.021696595 -0.08071286 -0.15965523 0.011448465 0.027754685 0.17710988 0.02216675
-0.021630846 -0.07668997 -0.09188466 -0.13038963 -0.08449387 -0.12248343 0.06392811 -0.0419877
0.07738635 0.11504206 -0.01427675 -0.19100343 -0.069676034 0.08798792 -0.053808827 -0.20192574
-0.037307985 -0.11859305 -0.12214061 -0.10664431 0.011286152 0.051686764 -0.08760823 0.082317196
-0.21563159 -0.17901722 0.0659878 0.13875996 -0.1690813 -0.06498492 -0.12972918 -0.12937006
-0.15082826 -0.19488892 0.07964856 -0.14896767 0.008202208 -0.14002798 0.023389295 -0.114302576
0.10488778 -0.013726628 -0.105472505 0.07894965 0.06136955 -0.031623445 0.1392806 0.12122199
-0.02888298 -0.055862203 -0.0022832032 -0.1134585 0.0769129 -0.12803274 -0.08746718 -0.17872098
0.014578201 0.10031551 -0.06275144 -0.12855437 0.046237264 -0.19473271 -0.18037722 -0.035165768
-0.08385197 -0.14178154 0.017932983 -0.02352412 -0.05637678 -0.1979038 0.18380727 0.06368083
0.017177798 -0.10044341 -0.19106391 -0.084183715 -0.11749588 0.13676465 -0.13296798 0.0469691
0.03753033 0.1664816 0.017518735 -0.01909545 -0.032094363 -0.09083287 0.11051611 -0.037286807
-0.005475525 -0.12557068 -0.07737611 0.17284006 0.0792998 -0.033448722 0.09840531 -0.047164395
-0.06262592 -0.09365289 -0.08972893 0.009499621 0.023841541 0.119495414 -0.04891837 -0.0897139
0.074054606 -0.019444004 0.060538094 0.08224438 -0.09531108 -0.24477062 -0.2193483 -0.09033265
-0.18979831 -0.025655713 0.13791955 -0.16455528 -0.13891266 0.047300644 0.18110272 -0.21809074
-0.17785352 -0.18358526 -0.08825113 -0.14736085 -0.1688974 0.08531099 -0.015962759 -0.00091765757
-0.08729225 0.11032409 -0.022057053 -0.07551226 -0.21520442 -0.09675515 -0.14728372 -0.10192191
0.040358946 0.035126943 -0.02083772 0.015021867 -0.14072253 -0.079860106 -0.028886408 -0.15983611
-0.17320976 -0.22287402 -0.17891225 0.027542057 -0.14360589 0.030303055 0.1687417 -0.17630334
0.0027230547 -0.052728143 0.115614615 -0.10692645 -0.11654021 0.009866105 -0.20032807 -0.10540014
00000000: 7f77 4cbe 0446 553d fab6 f0bd d8fc f83d
00000010: 288d 75bb ee7e 133e ec1e 073d e95a 423c
00000020: c936 f1bc dfbc 44bd 7a96 1cbe dac6 463c
00000030: 935e 28be 97cd 34bd 211a dfbd fc9d 31be
00000040: c273 bb3b 5195 58be 26e3 aa3d 6179 613b
00000050: 2809 b1bc d70b 2d3e e3ff 59be 490f e33c
00000060: a593 dcbd 3b83 093d 0602 b2bd 1cd8 c6bd
00000070: 4d06 7bbd fac0 ec3d aacd 883c 754b d73b
00000080: 0cde 233d 5511 40be 954d f03c db27 013e
00000090: f27d 5dbe 5cf0 483c 5f92 9bbd 38d6 54be
000000a0: ac30 8fbd abb4 cc3d 167e 203e 1253 b6bd
000000b0: dbb9 55bd 9586 66bd 6a7f 09be 1396 9bba
000000c0: 19a7 bcbd b53e 223e 9c09 c9bc 3578 d1bd
000000d0: 7da9 0bbe 29c5 b8bd 4353 68bd 2667 b3bc
000000e0: 05ba 803d 4043 69be 8411 05bd a4f8 a7bd
000000f0: 1077 273e fee8 fabd a651 30be 73f8 303d
00000100: 7cca 22be 7387 fc3d f5a6 183e 76f7 02be
00000110: 5fa7 8cbd 697d ae3d 0846 3c3e 9523 03be
00000120: ef1e fa3d 3666 053e 4da4 24be 1b93 4ebe
00000130: 2eab 633d 7661 d3bc a84a 00be 1f16 eabd
00000140: 9a5b a5bd e6ea 1d3d 557b 2fbe 4987 85bd
00000150: 65fe 273d cd0a 66be a9ab eb3d 151e 70bd
00000160: 2fb4 53be 0fbd b13c c94c a5bd a97c 23be
00000170: 5892 3b3c cb5d e33c 4b5c 353e 0b97 b53c
00000180: 2c33 b1bc a20f 9dbd 062e bcbd dc84 05be
00000190: 1f0b adbd 98d8 fabd beec 823d 4bfb 2bbd
000001a0: bc7c 9e3d 2c9b eb3d 08e9 69bc 6796 43be
000001b0: 4fb2 8ebd 0333 b43d a566 5cbd 9fc5 4ebe
000001c0: 42d0 18bd eae0 f2bd db24 fabd 5568 dabd
000001d0: 8de9 383c 80b5 533d f26b b3bd eb95 a83d
000001e0: 87ce 5cbe 4a50 37be 9d24 873d 1717 0e3e
000001f0: a623 2dbe d016 85bd bad7 04be 9679 04be
00000200: b972 1abe f690 47be c91e a33d fb8a 18be
00000210: 8e62 063c 7f63 0fbe e89a bf3c 7817 eabd
00000220: 68cf d63d a7e5 60bc f801 d8bd 5bb0 a13d
00000230: a35e 7b3d 9687 01bd 939f 0e3e 3c43 f83d
00000240: 009c ecbc c4cf 64bd cba1 15bb ee5c e8bd
00000250: 8384 9d3d 041b 03be fe21 b3bd a202 37be
00000260: 68d9 6e3c 3872 cd3d d483 80bd c2a3 03be
00000270: 4963 3d3d 0368 47be ceb4 38be fb09 10bd
00000280: 95ba abbd 2e2f 11be 31e8 923c a8b5 c0bc
00000290: 57eb 66bd 4ba7 4abe f937 3c3e 186b 823d
000002a0: 74b8 8c3c 46b5 cdbd 42a6 43be 8368 acbd
000002b0: aea1 f0bd 080c 0c3e c228 08be ac62 403d
000002c0: 67b9 193d 277a 2a3e 7383 8f3c 106e 9cbc
000002d0: 6175 03bd 9506 babd 4556 e23d 0dba 18bd
000002e0: 086c b3bb 9a95 00be 5e77 9ebd fcfc 303e
000002f0: ef67 a23d 8701 09bd b988 c93d 742f 41bd
00000300: 0542 80bd 16cd bfbd cdc3 b7bd 4ca4 1b3c
00000310: 564f c33c 03ba f43d a15e 48bd ecbb b7bd
00000320: f1a9 973d 0849 9fbc cbf6 773d be6f a83d
00000330: 7532 c3bd 26a5 7abe d79c 60be 5300 b9bd
00000340: 7d5a 42be ee2b d2bc c83a 0d3e 2e81 28be
00000350: 1f3f 0ebe 52be 413d fe72 393e 2e53 5fbe
00000360: 3c1f 36be c6fd 3bbe 02bd b4bd c3e5 16be
00000370: 71f3 2cbe 87b7 ae3d 55c4 82bc f58e 70ba
00000380: 47c6 b2bd 99f1 e13d feb0 b4bc 2ca6 9abd
00000390: 8c5e 5cbe 9027 c6bd 8bd1 16be 6fbc d0bd
000003a0: 6c4f 253d 45e1 0f3d deb3 aabc 471e 763c
000003b0: 9119 10be b28d a3bd 30a3 ecbc 14ac 23be
000003c0: e65d 31be 1639 64be c634 37be e19f e13c
000003d0: 6c0d 13be 1d3e f83c a0ca 2c3e dd88 34be
000003e0: 4775 323b 77f9 57bd 5bc7 ec3d 41fc dabd
000003f0: a2ac eebd 72a5 213c cd22 4dbe 07dc d7bd

fc2.weight f4 [256, 516]
-0.062222593 -0.004723496 -0.070510134 -0.053829834 0.041911993 -0.048006106 -0.03912189 0.055892155
-0.061575413 -0.062552154 -0.017190319 -0.04702262 -0.029702073 -0.017195707 -0.057515994 -0.03546461
-0.042362735 0.016801588 0.029813798 -0.03596148 -0.030992825 0.037463218 -0.0017672039 0.02357366
0.043653168 0.049367536 -0.019275982 0.03270726 0.03648737 0.04539508 -0.054110236 0.052019663
-0.02175939 0.015440571 -0.053894836 -0.052366484 -0.060975417 0.05226781 0.041803237 -0.051706366
0.044157885 0.017648889 -0.041184068 0.03000091 -0.05790823 0.05491423 0.05176761 -0.056977406
-0.028604966 0.021561155 -0.024641825 0.020302556 0.02979976 -0.0042158063 -0.048293233 -0.033451766
-0.014502259 -0.05496911 -0.05870651 0.04711448 -0.03429863 -0.03917463 -0.034146503 0.051348034
0.033973712 -0.046841323 -0.015546194 0.041619755 -0.059170727 -0.011708698 -0.053262822 0.061301325
-0.0059713474 -0.023940165 -0.036830164 -0.05831708 0.028086163 -0.030076727 0.041232623 0.020167204
-0.0028418347 -0.025860634 -0.032538604 -0.018984549 0.01923932 -0.043293186 -0.05903495 0.03363241
0.046741508 0.0043396726 -0.05890795 -0.051820714 0.036330003 0.013034642 -0.05649975 -0.050081447
0.023233349 -0.036337547 0.020218141 -0.040158607 0.023670927 -0.010237432 -0.030828742 -0.002508144
-0.03635177 0.038774133 0.02557047 -0.00082451187 0.052614894 -0.05455499 -0.062925674 -0.051593043
-0.003714514 0.018385882 -0.039841205 0.02459914 -0.009570478 -0.030674722 -0.0039538434 -0.022722378
-0.03253337 -0.042905673 -0.046780217 0.032910798 -0.064758554 -0.058414612 0.04173873 -0.051566746
0.051605206 -0.019242026 -0.017620986 -0.031216364 -0.05490355 0.018907957 -0.043327324 -0.010623731
0.0153697785 -0.03278146 0.0533162 0.045716416 0.02287221 0.051631868 -0.018723354 -0.015387804
-0.04094317 -0.022861192 -0.060736444 0.031111354 0.030646013 0.05292027 -0.008626722 -0.059601948
0.05869137 -0.012515227 -0.0145884445 -0.06325673 0.025241151 -0.045638695 0.009461224 -0.010578533
0.040297367 0.026168277 0.01932489 0.012179682 -0.002792067 0.014112108 0.038212568 0.038936075
0.016159542 -0.062071443 -0.015875692 -0.05737675 -0.01744118 -0.060131874 -0.04375612 -0.017392047
0.011695661 -0.039952867 0.038358845 0.02340058 0.028070766 0.014746162 -0.02139128 -0.042725936
0.019581633 -0.0036492136 0.042280935 -0.028975654 -0.027313035 0.013099296 0.017503828 -0.024374064
-0.0016346008 -0.0025976296 -0.036315713 0.04732509 -0.016956164 -0.0020162337 -0.008378506 6.0342114e-05
-0.03243651 -0.011043724 0.023084203 0.0045614378 -0.0447626 -0.043889444 0.0028485805 -0.025492128
0.042217262 0.008690605 0.055483732 -0.06833905 -0.05220636 0.03392573 -0.036707185 -0.0304228
-0.04711709 -0.036461003 -0.007822161 0.022029782 0.01898611 -0.033296555 0.033817478 -0.036437787
-0.039247178 -0.005336782 -0.042578846 0.011466051 0.054994475 -0.029564181 0.019277243 -0.05097454
-0.019204982 0.04803655 -0.06577841 0.037046485 -0.061454542 0.013982995 -0.026649801 -0.045526568
-0.062741354 0.051580854 0.05147051 -0.030320212 -0.012810811 0.033400964 -0.058703683 0.0045211837
-0.04824353 0.049032886 -0.014970152 -0.058909338 0.028439235 -0.00036274642 -0.054123353 0.033308182
00000000: 1edd 7ebd 8ec7 9abb 9e67 90bd ac7c 5cbd
00000010: e9ab 2b3d 0da2 44bd 463e 20bd 2cef 643d
00000020: 8036 7cbd 581b 80bd b6d2 8cbc ca9a 40bd
00000030: c351 f3bc 03de 8cbc e495 6bbd 5743 11bd
00000040: 8c84 2dbd 7ca3 893c 113c f43c 584c 13bd
00000050: aae4 fdbc 0873 193d 86a1 e7ba 8c1d c13c
00000060: aacd 323d 9d35 4a3d aae8 9dbc 0cf8 053d
00000070: c873 153d 31f0 393d b2a2 5dbd 9212 553d
00000080: c040 b2bc 73fa 7c3c d5c0 5cbd 3d7e 56bd
00000090: 5cc1 79bd c516 563d df39 2b3d 0eca 53bd
000000a0: e6de 343d 6794 903c a0b0 28bd 78c4 f53c
000000b0: 2e31 6dbd beed 603d 460a 543d 2461 69bd
000000c0: f654 eabc 05a1 b03c a7dd c9bc 8c51 a63c
000000d0: a01e f43c bf24 8abb 20cf 45bd b804 09bd
000000e0: e29a 6dbc 4a27 61bd 3d76 70bd 1dfb 403d
000000f0: b87c 0cbd 9475 20bd 34dd 0bbd 5152 523d
00000100: 0528 0b3d b0dc 3fbd 77b5 7ebc 7a79 2a3d
00000110: 015d 72bd d7d5 3fbc 1e2a 5abd 1917 7b3d
00000120: 4bab c3bb 2a1e c4bc 3adb 16bd e4dd 6ebd
00000130: f414 e63c 7863 f6bc 8ae3 283d b135 a53c
00000140: 133e 3abb aed9 d3bc 3347 05bd 7c85 9bbc
00000150: c79b 9d3c 3254 31bd a2ce 71bd 23c2 093d
00000160: 0674 3f3d d033 8e3b 7649 71bd f541 54bd
00000170: c5ce 143d 408f 553c 486c 67bd 3422 4dbd
00000180: dd53 be3c aed6 14bd 84a0 a53c 5a7d 24bd
00000190: 88e9 c13c e7ba 27bc 8f8c fcbc ac5f 24bb
000001a0: 98e5 14bd a0d1 1e3d 2a79 d13c 0e24 58ba
000001b0: b782 573d 0e75 5fbd 2ddf 80bd 3a53 53bd
000001c0: 346f 73bb fd9d 963c 8830 23bd 2384 c93c
000001d0: 7fcd 1cbc 8e49 fbbc 3e8f 81bb 4824 babc
000001e0: b641 05bd dcbd 2fbd 9d9c 3fbd 79cd 063d
000001f0: 22a0 84bd 2944 6fbd 3bf6 2a3d a737 53bd
00000200: fb5f 533d 74a1 9dbc e359 90bc 76b9 ffbc
00000210: 8be2 60bd dce4 9a3c fe77 31bd 280f 2ebc
00000220: 86d1 7b3c da45 06bd 1662 5a3d 2341 3b3d
00000230: 805e bb3c f07b 533d b861 99bc 211d 7cbc
00000240: 07b4 27bd 6547 bbbc c7c6 78bd 3ddd fe3c
00000250: 590d fb3c edc2 583d 1857 0dbc 2c21 74bd
00000260: 5d66 703d ab0c 4dbc 5f04 6fbc bf8c 81bd
00000270: 88c6 ce3c a4ef 3abd 4003 1b3c 9551 2dbc
00000280: da0e 253d db5e d63c 3b4f 9e3c 4a8d 473c
00000290: 1cfb 36bb 7936 673c c884 1c3d 6f7b 1f3d
000002a0: 0461 843c a03e 7ebd bd0d 82bc e203 6bbd
000002b0: cee0 8ebc d74c 76bd 9e39 33bd c479 8ebc
000002c0: 289f 3f3c 9ea5 23bd 2a1e 1d3d 93b2 bf3c
000002d0: aaf4 e53c e399 713c c43c afbc 6401 2fbd
000002e0: a969 a03c a527 6fbb c62e 2d3d 5a5e edbc
000002f0: 96bf dfbc 6e9e 563c 3064 8f3c 1eac c7bc
00000300: 1a40 d6ba fe3c 2abb c9bf 14bd f4d7 413d
00000310: a7e7 8abc ca22 04bb 0046 09bc da17 7d38
00000320: 25dc 04bd bcf0 34bc 151b bd3c 1d78 953b
00000330: fd58 37bd 6bc5 33bd 40af 3a3b ded4 d0bc
00000340: 02ec 2c3d 0a63 0e3c e942 633d 58f5 8bbd
00000350: 56d6 55bd b5f5 0a3d 465a 16bd 3c39 f9bc
00000360: dafd 40bd 2258 15bd 8528 00bc cd77 b43c
00000370: c288 9b3c f861 08bd 3284 0a3d ca3f 15bd
00000380: a6c1 20bd 2ce0 aebb 2867 2ebd 1bdc 3b3c
00000390: e341 613d 9530 f2bc 4feb 9d3c aeca 50bd
000003a0: c453 9dbc f9c1 443d d5b6 86bd 0ebe 173d
000003b0: c2b7 7bbd ef18 653c af50 dabc 117a 3abd
000003c0: 8a7e 80bd 7246 533d bed2 523d 1862 f8bc
000003d0: 70e4 51bc 73cf 083d 4673 70bd 7026 943b
000003e0: 029b 45bd b5d6 483d 5e45 75bc eb4a 71bd
000003f0: 66f9 e83c 002f beb9 73b0 5dbd 296e 083d

fc2.bias f4 [256]
-0.035348978 0.16309933 -0.039928928 -0.051700495 0.052397624 0.012816245 0.18293174 0.03239232
0.002679054 0.1927864 0.15187971 0.009178762 0.0071026403 -0.03258791 0.22334501 -0.0012157353
-0.031394955 0.012470608 -0.025218245 -0.035781518 0.15036881 0.03660028 -0.02708682 0.004840999
-0.030193923 0.040088437 -0.028451055 -0.017513413 0.02011313 -0.015151497 -0.05898171 0.025491767
-0.0014374987 -0.005410631 0.038652387 -0.05766611 0.0004678627 0.1443754 -0.023003796 0.013604124
0.15955964 0.019280167 -0.05301415 0.053681154 0.019185243 0.014459663 0.04665946 -0.0076746917
-0.008495089 0.014658311 -0.027131137 -0.0058436138 0.025764532 -0.0077646743 0.0069700107 -0.015101318
0.15027586 -0.03595647 0.043323513 -0.045671422 -0.047391485 -0.0041431175 0.17802761 -0.056611694
-0.05712046 -0.03711651 0.004383519 0.0043363464 0.13615456 0.025100647 -0.006405116 -0.005322554
-0.027682383 -0.038339302 0.18514669 -0.0016480535 -0.041141547 0.01926528 -0.029670687 -0.022510933
0.116012156 -0.037188206 -0.0040577534 -0.011513519 0.0025197733 0.045342665 0.009971665 -0.011275583
-0.04771436 -0.048711605 -0.01965118 -0.018175656 0.0053078025 0.029623566 -0.015329654 0.045055207
-0.035844237 0.020105908 -0.014617272 -0.018709928 0.013521493 -0.024522202 -0.016605591 -0.032706164
0.050195772 0.21696289 -0.019418262 -0.026480304 -0.04692929 0.095182225 -0.011508252 -0.025685204
-0.040744923 0.058029093 0.021100946 0.14938794 -0.028939942 0.04284176 -0.028291672 0.03432278
0.04539263 -0.011481188 -0.026009614 -0.024535539 -0.0015696039 0.014688964 -0.039255656 -0.045898024
-0.004006927 -0.026527505 -0.0005904496 0.008054046 -0.01162028 0.025158707 0.009725426 -0.054084096
0.032832988 -0.00777946 -0.026741829 0.20072104 -0.004685275 0.026590671 -0.02726913 0.0073935855
-0.038506243 0.025888154 0.000112631205 0.02038027 0.014908349 -0.040972423 0.029614162 -0.031543333
0.007060571 -0.014759771 -0.015708596 0.035054397 -0.02944045 -0.026842574 0.02716714 -0.024808517
-0.048442416 -0.041865453 0.018905552 0.0016930971 0.019399978 0.0053228843 0.008074994 0.04424323
0.034205183 0.014242016 -0.017535329 0.02846605 -0.011427161 -0.026047176 -0.043835536 0.08039304
0.053742573 -0.043187603 -0.023632526 -0.04203019 -0.010216506 -0.005578872 -0.01569831 0.18133965
-0.051196698 -0.03324621 -0.0481868 -0.032430287 0.12853976 0.034838468 0.011926123 -0.027804578
-0.0145989815 -0.02380772 0.13879544 -0.038417004 0.0062364847 -0.05205541 -0.020905873 0.018107276
-0.00044789753 0.018982971 -0.019255549 -0.043574475 0.22388119 -0.02371678 -0.017438177 0.026054533
-0.0467495 0.01160751 0.00066326594 -0.021624923 0.11013498 -0.039320264 0.026102753 -0.018851433
0.017467737 0.037529405 0.0020895386 -0.050576657 -0.024186607 -0.022108678 -0.040106505 -0.013439501
0.0247284 0.0325977 -0.015691083 -0.02417539 0.013435168 -0.053354412 -0.005402212 0.012098365
-0.0548427 -0.03463393 0.0008075753 0.20358098 -0.00028931722 0.016202178 -0.02032802 0.03239214
0.058894612 0.13701099 0.0073365364 -0.003980335 0.03621247 -0.03849603 -0.030071657 -0.002689817
-0.058512397 -0.041011985 -0.02614844 0.08046419 0.0059275166 -0.0059873653 0.0027792084 -0.043418895
00000000: 17ca 10bd 8303 273e 848c 23bd e6c3 53bd
00000010: e49e 563d 3afb 513c 7552 3b3e cfad 043d
00000020: 1193 2f3b cc69 453e 5b86 1b3e 8562 163c
00000030: 44bd e83b e67a 05bd 8eb4 643e 4f59 9fba
00000040: ff97 00bd 8551 4c3c 7e96 cebc a48f 12bd
00000050: 48fa 193e 2dea 153d 2ee5 ddbc 3ea1 9e3b
00000060: 3f59 f7bc c633 243d 3012 e9bc 4a78 8fbc
00000070: 4ac4 a43c fc3d 78bc ce96 71bd 1cd4 d03c
00000080: 746a bcba aa4b b1bb f751 1e3d 4d33 6cbd
00000090: 784b f539 25d7 133e 7572 bcbc d5e3 5e3c
000000a0: 9a63 233e 71f1 9d3c 5e25 59bd c5e0 5b3d
000000b0: 5f2a 9d3c 39e8 6c3c fd1d 3f3d fb7b fbbb
000000c0: fc2e 0bbc 6a29 703c 1e42 debc c97b bfbb
000000d0: 2410 d33c cf6e febb b064 e43b 856b 77bc
000000e0: eae1 193e 1747 13bd ff73 313d f511 3bbd
000000f0: 931d 42bd fdc2 87bb df4c 363e aae1 67bd
00000100: 25f7 69bd 7b07 18bd 9fa3 8f3b e917 8e3b
00000110: 1a6c 0b3e df9f cd3c 02e2 d1bb d268 aebb
00000120: 2ac6 e2bc ac09 1dbd 1897 3d3e 8003 d8ba
00000130: 0a84 28bd 38d2 9d3c f10f f3bc d968 b8bc
00000140: c897 ed3d a952 18bd e7f6 84bb 33a3 3cbc
00000150: c822 253b 3bb9 393d 3260 233c 39bd 38bc
00000160: 2270 43bd d285 47bd 83fb a0bc 1de5 94bc
00000170: 13ed ad3b 1fad f23c 3b29 7bbc cf8b 383d
00000180: 68d1 12bd 25b5 a43c 487d 6fbc 9045 99bc
00000190: 4189 5d3c c9e2 c8bc 7308 88bc e6f6 05bd
000001a0: 159a 4d3d 852b 5e3e 0c13 9fbc 39ed d8bc
000001b0: ed38 40bd e6ee c23d 1b8d 3cbc c769 d2bc
000001c0: 26e4 26bd eaaf 6d3d e4db ac3c 27f9 183e
000001d0: 7513 edbc d77a 2f3d f0c3 e7bc 0b96 0c3d
000001e0: 9fed 393d 981b 3cbc 1d12 d5bc c1fe c8bc
000001f0: 2bbb cdba fba9 703c 8aca 20bd 91ff 3bbd
00000200: 8a4c 83bb 3650 d9bc 67c8 1aba 1ef5 033c
00000210: fd62 3ebc a219 ce3c 6557 1f3c 4987 5dbd
00000220: e27b 063d d7ea febb ae11 dbbc d189 4d3e
00000230: ef86 99bb aed4 d93c 8363 dfbc e445 f23b
00000240: b9b8 1dbd 6513 d43c 6b34 ec38 86f4 a63c
00000250: 2642 743c b3d2 27bd 6699 f23c 9533 01bd
00000260: 5d5c e73b f7d2 71bc 50af 80bc 3395 0f3d
00000270: 192d f1bc f5e4 dbbc 9f8d de3c 3b3b cbbc
00000280: 8e6b 46bd 1c7b 2bbd d1df 9a3c e9ea dd3a
00000290: b4ec 9e3c 976b ae3b fb4c 043c 6438 353d
000002a0: bc1a 0c3d 5857 693c 40a6 8fbc a231 e93c
000002b0: fd38 3bbc e360 d5bc e48c 33bd 1ba5 a43d
000002c0: 2c21 5c3d 7ce5 30bd 0099 c1bc d927 2cbd
000002d0: 2263 27bc f8ce b6bb be99 80bc 1ab1 393e
000002e0: a1b3 51bd 2e2d 08bd 865f 45bd 9fd5 04bd
000002f0: ed9f 033e c8b2 0e3d c965 433c 6dc6 e3bc
00000300: 9130 6fbc 6808 c3bc 6420 0e3e 265b 1dbd
00000310: 6d5b cc3b 0e38 55bd cb42 abbc b655 943c
00000320: cad3 eab9 2d82 9b3c d0bd 9dbc 267b 32bd
00000330: 1c41 653e b149 c2bc 82da 8ebc 5170 d53c
00000340: 677c 3fbd 6d2d 3e3c 06df 2d3a c026 b1bc
00000350: 738e e13d 490e 21bd 71d5 d53c 526e 9abc
00000360: 8018 8f3c 6fb8 193d a4f0 083b 7829 4fbd
00000370: fe22 c6bc 421d b5bc b846 24bd 5a31 5cbc
00000380: 3793 ca3c 2a85 053d 968a 80bc 780b c6bc
00000390: 2e1f 5c3c 288a 5abd 0a05 b1bb 3938 463c
000003a0: bda2 60bd 4fdc 0dbd 76b3 533a 8877 503e
000003b0: 80af 97b9 6eba 843c f386 a6bc 9fad 043d
000003c0: 7a3b 713d 9c4c 0c3e 5467 f03b 786d 82bb
000003d0: 8753 143d 03ae 1dbd d658 f6bc a447 30bb
000003e0: b2aa 6fbd 2ffc 27bd 4135 d6bc 69ca a43d
000003f0: 9d3b c23b a931 c4bb 6123 363b 03d8 31bd

fc3.weight f4 [1, 256]
0.0018330745 0.032220114 -6.0365135e-05 -0.19040117 0.77347 -0.0017501236 0.073387615 0.41234577
1.5933761e-05 0.07488521 0.041031893 0.16621314 0.0035795467 -0.08205757 0.07616115 0.35187465
-0.26903138 0.001801988 -0.71253586 -0.0017567157 0.05614852 -0.14139411 -0.30322397 0.36577776
1.477778e-05 -0.15770666 0.57362515 -0.19371273 -0.2267788 0.17094156 -3.358464e-05 0.32716104
0.1144568 -0.07066642 -0.31471762 -0.0006397765 -0.25673768 0.07300508 -0.034473978 0.0010021109
0.06898329 -0.0008846929 0.0025625115 -0.0568635 -0.26065004 0.3633084 0.24919517 0.5547558
-0.021719621 -0.00070506026 0.19983536 0.3648721 -0.34845182 -0.1999848 -0.000491312 0.15939899
0.071696624 -0.35075384 -0.09027683 -0.17348789 -0.50296897 -0.001208793 0.09154092 -0.0015117195
4.219108e-05 -0.0044820993 -0.00017071482 -0.45109215 0.06953617 -0.2338796 0.010508837 0.19376677
0.28498444 -0.104952455 0.06718479 -0.0011959738 -0.0014975759 -0.3455368 -0.572303 -0.36318153
0.06279761 -0.09125488 0.0015493378 -0.023257526 -0.34264064 -0.00032831272 0.22048742 0.0013970305
0.0023660674 -0.00054127275 -0.17520466 -0.0014062007 0.088398255 -0.14903224 -0.3178674 0.01979899
-0.00082531245 -0.072879195 0.0018757475 0.52141196 -0.25899896 -0.0049448707 -0.4246418 -0.00036830019
-0.32721993 0.082205094 0.004857558 -0.59797657 -0.00088121137 0.046723254 -0.2346099 0.0016310341
-0.27311778 0.15673181 0.18694764 0.06955111 -0.000998214 -0.06900922 -0.4697837 0.42567703
-0.08829149 -0.046874672 0.3794183 -0.10199402 0.052310493 -0.18834053 5.1256106e-05 -0.104400754
-0.0026309227 1.1587708 0.00077747146 0.12383095 -0.12583579 0.0048913388 -0.0007199819 2.201968e-05
0.001907293 0.00028215008 -0.016931372 0.0662727 0.09856513 0.45600834 -0.12599565 0.2344074
0.4934055 0.049283564 -0.18973371 0.0019992366 -0.0025176157 -0.0017471521 0.00018586397 0.2660455
0.002498331 -0.002734519 -0.002031331 -0.1873296 0.0015374845 0.08961337 -0.52086407 0.4287078
-0.7110309 -0.26909858 -0.53464735 0.4651987 0.00020411701 -0.32079855 -0.06909356 -0.21537238
-0.30527106 -0.16989021 0.27363217 -0.15940328 -0.00014410188 -0.34767205 0.0020137392 0.24674164
0.13055779 -0.098798774 0.0008297272 -0.0007104451 -0.1590284 -0.0012280971 -0.40705127 0.080729574
-0.00014940427 -0.0009096386 0.42678607 -0.0014741604 0.0686377 0.28556716 -0.09801442 -0.3512272
-0.06752466 -0.24957547 0.041753702 -0.002175033 -0.5292023 -0.38621056 -0.0201541 -0.00026980042
-0.103975296 -0.0016558156 -0.18103164 -0.28425923 0.08228785 -0.00032884796 0.0051344363 0.0011475377
0.0006137467 0.0013079268 -0.09683478 -0.07656986 0.04579651 -2.532406e-05 -0.6181819 -0.11118561
0.0007853953 -0.67645407 -0.0018780464 -0.14392756 -0.16531484 0.22589302 0.00029187178 0.0020548075
-0.36631733 -0.2627206 0.4420663 -0.299687 -0.45736057 0.0013808047 -0.29871026 0.07167757
0.28399804 0.22293667 -0.020897789 0.07221017 0.28762606 -0.070540614 0.0012584745 -0.0017428248
0.071545996 0.06868344 -0.0007411109 -0.0002608899 0.46578872 -0.22404727 0.45116475 -0.028485922
-0.0011728087 -0.0016005208 0.0004202949 0.03442593 5.466849e-05 0.26548496 0.28168046 0.0012930256
00000000: c643 f03a 3df9 033d 9230 7db8 86f8 42be
00000010: 2102 463f 6764 e5ba 3f4c 963d fc1e d33e
00000020: 7ea9 8537 6b5d 993d 0f11 283d c733 2a3e
00000030: d496 6a3b cd0d a8bd 61fa 9b3d ea28 b43e
00000040: 7bbe 89be af30 ec3a c068 36bf 9941 e6ba
00000050: fefb 653d 9ec9 10be 2c40 9bbe 3947 bb3e
00000060: 15ee 7737 db7d 21be 19d9 123f a15c 46be
00000070: b438 68be 4e0b 2f3e 3cdd 0cb8 a781 a73e
00000080: 5468 ea3d 8eb9 90bd ab22 a1be adb6 27ba
00000090: 1f73 83be b083 953d 9634 0dbd 4359 833a
000000a0: 1c47 8d3d bcea 67ba cfef 273b b4e9 68bd
000000b0: ec73 85be 8f03 ba3e 052d 7f3e 7a04 0e3f
000000c0: 59ed b1bc cbd3 38ba a4a1 4c3e 84d0 ba3e
000000d0: 4768 b2be d1c8 4cbe 64cb 00ba 7d39 233e
000000e0: aed5 923d 0296 b3be 0fe3 b8bd cfa6 31be
000000f0: 93c2 00bf 5d70 9eba ce79 bb3d e424 c6ba
00000100: 54f6 3038 93de 92bb e901 33b9 8df5 e6be
00000110: fb68 8e3d 227e 6fbe 422d 2c3c cc6a 463e
00000120: 7be9 913e 50f1 d6bd 2e98 893d 39c2 9cba
00000130: 4f4a c4ba 33ea b0be 7382 12bf eef2 b9be
00000140: 099c 803d d7e3 babd 2613 cb3a 9186 bebc
00000150: 986e afbe 6321 acb9 74c7 613e 911c b73a
00000160: 0610 1b3b 33e4 0dba da68 33be 4450 b8ba
00000170: 250a b53d e89b 18be 84bf a2be 7e31 a23c
00000180: c859 58ba b041 95bd a4db f53a 417b 053f
00000190: 839b 84be 9508 a2bb a66a d9be 6a18 c1b9
000001a0: 5f89 a7be 255b a83d 262c 9f3b fe14 19bf
000001b0: 1801 67ba e260 3f3d 943d 70be 6cc8 d53a
000001c0: 18d6 8bbe 4e7e 203e 346f 3f3e d070 8e3d
000001d0: 81d6 82ba b554 8dbd 7d87 f0be 57f2 d93e
000001e0: 2bd2 b4bd a8ff 3fbd 1e43 c23e 3ee2 d0bd
000001f0: 8743 563d 57dc 40be d3fb 5638 10d0 d5bd
00000200: 8f6b 2cbb 9a52 943f 3acf 4b3a 159b fd3d
00000210: 19db 00be 8647 a03b 2bbd 3cba e7b6 b837
00000220: 22fe f93a 8bed 9339 a9b3 8abc fbb9 873d
00000230: 84dc c93d ed79 e93e 0105 01be 7e08 703e
00000240: a59f fc3e 90dd 493d 8e49 42be a005 033b
00000250: 95fe 24bb b200 e5ba 7be4 4239 1e37 883e
00000260: 0abb 233b 9e35 33bb 1420 05bb 55d3 3fbe
00000270: 6b85 c93a 3787 b73d 5957 05bf 977f db3e
00000280: 1f06 36bf 4ac7 89be a6de 08bf 862e ee3e
00000290: 3e08 5639 b53f a4be ed80 8dbd 948a 5cbe
000002a0: 7d4c 9cbe b3f7 2dbe 8419 8c3e 9d3a 23be
000002b0: 0e1a 17b9 1202 b2be f0f8 033b d7a9 7c3e
000002c0: f1b0 053e 0357 cabd 0d82 593a 2a3d 3aba
000002d0: 57d8 22be 1af8 a0ba 0669 d0be 8c55 a53d
000002e0: 67a9 1cb9 d074 6eba b483 da3e 9d38 c1ba
000002f0: ec91 8c3d dc35 923e c9bb c8bd 0dd4 b3be
00000300: 5e4a 8abd b690 7fbe ee05 2b3d 008b 0ebb
00000310: cd79 07bf 64bd c5be 361a a5bc 0074 8db9
00000320: 00f1 d4bd f407 d9ba 5c60 39be 6d8a 91be
00000330: 8886 a83d 3a69 acb9 c63e a83b fa68 963a
00000340: d8e3 203a be6e ab3a 5051 c6bd a9d0 9cbd
00000350: 1f95 3b3d 016f d4b7 2b41 1ebf 48b5 e3bd
00000360: fde2 4d3a 182c 2dbf c828 f6ba bf61 13be
00000370: 4b48 29be 8050 673e 5e06 9939 f3a9 063b
00000380: f28d bbbe 5183 86be 8456 e23e 9370 99be
00000390: 2a2b eabe 1efc b43a 8df0 98be b1cb 923d
000003a0: 3168 913e 8349 643e d731 abbc ede2 933d
000003b0: b943 933e 9977 90bd 66f3 a43a 7f6f e4ba
000003c0: b586 923d e7a9 8c3d 1c47 42ba 0dc8 88b9
000003d0: dc7b ee3e a66c 65be 11ff e63e 4f5b e9bc
000003e0: eeb8 99ba 91c8 d1ba 075b dc39 3402 0d3d
000003f0: d84b 6538 a5ed 873e 6c38 903e bd7a a93a
