p2_continuous-control/checkpoint_actor.pth (torch_old, 169564 bytes, 6 tensors)

fc1.weight f4 [256, 33]
00000000: d59e ef3d 2740 9c3e 869e 763e c5c3 75bd
00000010: d339 713d 6518 bdbc 9cba cb3a f854 53be
00000020: ad38 5c3e 699c c83e e1c4 8b3e b63a 323d
00000030: 55b7 3d3e 50d1 c3bc b7e4 01bd ed14 b6bc
00000040: 2dae 0e3d bcf3 8abd bd2c 2e3d 3b7f 87bc
00000050: 7017 413d 1d8c 91bd 9eb2 d83d 0cba 173e
00000060: 59e9 033e 671d 88bd 59d5 08be 3d28 5b3e
00000070: 22bb 97bd d2df 3d3d 04e3 52be 2c23 acbc
00000080: 85cd 173f 534a 883d b6f4 0dbd 47f4 a3be
00000090: b454 10ba e0c6 0dbd 73c1 3ebc 9123 d3bc
000000a0: ba08 86bd fbc9 653e 99ca c4bd f985 cd3d
000000b0: 8003 38be 6fe4 87bd e8c2 0a3d 41d5 323d
000000c0: 0c7c a33e f305 4dbd 8bdf f33c 917e c4bc
000000d0: f102 203c 2e66 733d 5215 d43d 73e0 d2bb
000000e0: ded5 75bd 7437 213e 7de6 4b3e d09c 023e
000000f0: 3ca7 33be f294 9a3c 4286 1a3d ad0e 473e
00000100: b80c c0bc b927 873b bb66 8dbc d7b2 f93c
00000110: 465d 373b 8c1a 38bd 77ff e5bd b11c 8fbc
00000120: a69b 4b3a 3add 20be 6e91 263d f430 98be
00000130: 0174 a7bd 412d 1c3e 75d8 85bd 037c 203e
00000140: 2c16 213d 1333 2cbe 24e8 babb 4ea5 623c
00000150: 872e 083c c20d 21bd c66c e4bc a378 2fbd
00000160: dacd 323d d502 ea3d 73f3 d4bd b41b 9e3c
00000170: b4d9 903d 2026 ff3c b3a0 93bd b8de 41bc
00000180: 3f17 9fbd ae3d 1ebd 7719 563e 35ab 973d
00000190: 3b11 a33d 168d c8bd c576 32bd e93d 313d
000001a0: ae53 143d 2af4 473d 739f ecbd 0159 e43c
000001b0: ea9f 0f3e a7f0 ab3e c43b 353e 64c1 26be
000001c0: 1fa7 673d 3e9d d63d 0d2f 463d 76bc c1bc
000001d0: 1200 11bc 282e b9bc 1160 bc3c 209f 9a3d
000001e0: 775c 09be 7945 ce3a ff9b ec3c 1034 bebd
000001f0: f00f d03d a20a 0cbd c434 8f3d 3a53 8abd
00000200: 800a f83b 8e32 c8bd d033 d13c 1ee1 17be
00000210: bc19 8bbe 5709 09be 1123 073e a832 01bd
00000220: 54e9 3fbd 2930 9cbb 79cc bd3c 78ee 903d
00000230: e717 7bbe 0eb9 833c 6994 a4bd 1633 b13d
00000240: c779 e4bc 9f63 20bd 0eac 2fbc 4022 b53d
00000250: 67e1 91bb a893 95bc 82cb 87bd 3472 7b3b
00000260: 55d7 29be f855 df3d 1aeb 78be c0d1 89bd
00000270: 412e 723d 5e3c 413e 6c11 aa3d a5d2 f8bd
00000280: a93a b23d c6c3 2e3d ef9b 033e 70e1 e1bb
00000290: e3a3 113f 4033 b53d 3446 0dbe c065 c4bd
000002a0: 8d13 663c c778 363d 53b3 38bd 8f18 0e3d
000002b0: db1c 0c3d 4018 20bb 342d 213e dc65 703d
000002c0: 43e6 2b3d ab55 92bc 8a19 ce3d 95cf 563b
000002d0: 7da6 9738 4813 acbc 0ae5 193d b1e1 753d
000002e0: 2dde 59bc 9cf7 2f3d 7eb6 74bd d0b7 6abd
000002f0: dae8 b93d f1cb 8cbc 01e4 cabc e7f1 8d3d
00000300: 4860 0f3e e4a2 c23d 0093 e13a 2210 a3bd
00000310: 5010 423d 92d4 ab3e 6042 24be 363e 8f3e
00000320: 2bac 9fbe 3230 833d f00c b2ba c361 973c
00000330: 7697 b5bc 1b1a 383e c9ff 0f3e 64cd 4f3e
00000340: a2b9 a8bd 9924 78bd 4d0e 5cbe 3323 1fbe
00000350: 032a 76bc a9e0 aabd 87de 083c ce51 1bbc
00000360: 19be 3f3d 9159 18bc 95ab 0c3d dfdf 193d
00000370: 8bbd 023e e072 48be 17b5 e53a e029 23bc
00000380: eb89 ff3d 506a 8c3d bb8d d3bc 3671 6f3d
00000390: 9abe 663c a8f0 bb3c eeb6 a7be 70d5 593e
000003a0: eaf0 c7bd 30ec 7fbd 8394 1c3c d339 9c3c
000003b0: fdc3 d7bc 26df be39 858b 033e dab1 323e
000003c0: 3241 08be 1c51 55bd 211f 473d d678 fe3b
000003d0: def6 cdbc 11b1 023d 3faa bfbd c8ed 3fbd
000003e0: 4b6c aa3b f12b 2e3d 27ae b2bc 7504 bdbc
000003f0: 71fe 0c3e a08e 1abc 42a0 813d 4b2e 56bd
0.11700217 0.30517694 0.2408391 -0.060001153 0.058893036 -0.023082921 0.0015543285 -0.20637882
0.21505995 0.3918183 0.27298644 0.043513022 0.18526967 -0.023903519 -0.03171226 -0.022226775
0.034834076 -0.0678477 0.042523134 -0.01654016 0.047141492 -0.071068026 0.105809435 0.14817065
0.12881984 -0.06646233 -0.13362636 0.21402068 -0.074087396 0.04635603 -0.20594412 -0.021012865
0.5929797 0.06654801 -0.034657203 -0.32022306 -0.0005505786 -0.03461349 -0.011642802 -0.025773795
-0.06544633 0.2244033 -0.09608955 0.10035319 -0.17970085 -0.06635367 0.033877283 0.043660406
0.31930578 -0.0500545 0.02976968 -0.023986133 0.009766326 0.059423618 0.10355629 -0.006435448
-0.060018413 0.1574381 0.19912143 0.12755132 -0.17544264 0.01886985 0.037725694 0.19439192
-0.023443565 0.0041246084 -0.0172609 0.030480785 0.002797918 -0.044947192 -0.11230367 -0.017469736
0.0007767029 -0.15709391 0.040666036 -0.29724848 -0.08176423 0.15251638 -0.065354265 0.15672307
0.039327785 -0.16816358 -0.005703943 0.013833357 0.008311874 -0.03931976 -0.027883898 -0.042839658
0.043653347 0.114263214 -0.10397997 0.01930032 0.070727736 0.03114611 -0.07208385 -0.011832885
-0.07768106 -0.03863304 0.20908152 0.07405702 0.07962271 -0.09792535 -0.0435703 0.043271933
0.036212616 0.048816837 -0.1155385 0.027874472 0.14025846 0.3358204 0.1769858 -0.1628471
0.056555863 0.1047921 0.048384715 -0.023649435 -0.008850114 -0.022605017 0.022995027 0.07549882
-0.13414179 0.0015737257 0.028882978 -0.09287274 0.1015929 -0.034189828 0.06992486 -0.067541555
0.007569611 -0.097752675 0.025537401 -0.14831969 -0.2716807 -0.13382469 0.1319697 -0.03154245
-0.04685338 -0.0047664833 0.02316879 0.07076734 -0.24520837 0.016079452 -0.080361195 0.08652322
-0.0278901 -0.039157506 -0.010722173 0.08844423 -0.004451919 -0.018258885 -0.06630613 0.003836763
-0.16586049 0.10905069 -0.24308434 -0.0672946 0.059126142 0.18870685 0.08304104 -0.12149552
0.08702595 0.042667173 0.12852453 -0.0068933293 0.56890696 0.08847666 -0.13796312 -0.0958972
0.014042747 0.044548776 -0.045092892 0.03469139 0.034207206 -0.0024428517 0.157399 0.05869089
0.04196764 -0.017863115 0.10063465 0.0032777537 7.231252e-05 -0.021005288 0.037571944 0.06002969
-0.0132976 0.042960748 -0.05974435 -0.057304204 0.09077616 -0.01718709 -0.024766924 0.06930905
0.14001572 0.09503725 0.0017209947 -0.079620615 0.047378838 0.33560616 -0.16040945 0.2797715
-0.3118604 0.06405677 -0.0013584178 0.018479234 -0.022166949 0.17978708 0.14062418 0.20293194
-0.08238532 -0.060581777 -0.2148983 -0.15540771 -0.015024665 -0.08343632 0.008353836 -0.009479953
0.04681215 -0.009298698 0.03434332 0.037567016 0.12767617 -0.19575071 0.0017525282 -0.009958714
0.12477478 0.06856215 -0.025824418 0.058457576 0.014083529 0.022941902 -0.32756752 0.21272826
-0.097627476 -0.062481105 0.009556892 0.019070541 -0.026338572 0.00036405883 0.12846191 0.17450657
-0.1330612 -0.052079305 0.04861367 0.0077658696 -0.02514213 0.031907145 -0.09358644 -0.046857625
0.005200898 0.042522375 -0.021811558 -0.023073414 0.13768937 -0.0094334185 0.06329395 -0.052290242

fc1.bias f4 [256]
00000000: 9464 6abe f5b0 373d f62d 813d a558 bebd
00000010: c16d 243e c3e3 e5bd b299 47be b0e3 fdbc
00000020: d5f1 183e d520 0c3f 7470 68bc 9526 203e
00000030: 0459 313e 868e 193e aa8d 063e c8ef 343e
00000040: e1d2 253e c4c5 b3bc 700b 07be 108c babd
00000050: af49 c43d b16a 9e3d e72b 983e 090b 4f3d
00000060: dd7f e63d 8fa0 3e3e 2fdd 8b3e 70b8 2abd
00000070: 6faa 043d c045 00be 4feb 25be c25a 83bd
00000080: dfe9 723e 3699 25be 885b 69bd e4fb 0e3e
00000090: f3a9 f4bc 68b3 2ebe 0741 303e bb4b 7fbe
000000a0: 7342 833d 7a5c ab3d ebbb 6f3e 31cf 993e
000000b0: 714b bb3d ae7a 2bbf 4bc6 e4be cc95 b03d
000000c0: 169f 813e 9955 893e 183d d2bd e0e3 423d
000000d0: c19c 313e b5d3 31be 3318 333d 51c7 963e
000000e0: dc01 783d dd0e 833e 927b bb3d db3d ac3d
000000f0: 31a1 883d 870f 24bd 710c a3bb b93c b3bc
00000100: 2aee b4bd 1d10 f23d 38f0 083e b3fa 81bd
00000110: 759f 5a3d 7b82 27be be4d 2d3e c080 0abe
00000120: 3b9f 103e 1454 bdbc 8ca7 9abd 282b e23e
00000130: 4cf5 2bbd 344f be3d 7d32 e4bd 3bb2 053e
00000140: 68b3 9a3e ecb5 ec3d 8ab3 8ebe 8341 4a3e
00000150: d51e 3abc 0c0f 4fbd c887 a2be 2748 90bd
00000160: e8a8 86bc 2960 ce3b 5fcb 03be a9b2 b13e
00000170: bbb3 ac3e a8d2 0c3e c94c 94be a4c3 bebd
00000180: ab30 8ebd 0368 37be 5455 2cbe 97f3 133d
00000190: fdce aa3e 6edb e63e 73db 3d3e 8bf4 87bc
000001a0: 802c 09be 1c54 95bc 83ec ebbd 3cc6 903d
000001b0: d345 693d 561c aebe d14e 3d3e 5218 d13d
000001c0: 61a8 86be fb56 63be 45be 223e 6fab 383e
000001d0: 208f 40be 01e0 cc3d 4dcc 4a3e 1553 ba3c
000001e0: 25fb 67bc c93d 253e 1adf 793d f7c1 a43e
000001f0: 20cb db3d 0174 813d 0d01 953e ce4d 153e
00000200: d304 22be f65e 58bd e381 17bf 4c85 73be
00000210: 735d fa3d 0f81 563d ff45 a5bd 34b7 d8bd
00000220: e990 0f3e 0c29 6c3c 863f 98be cf9c 443d
00000230: 1a7d 353e 243e 08be 60c5 b7bd 0ad9 d73c
00000240: 5bb9 50bd e94e 6e3c f5b6 b4bd b9b7 0f3e
00000250: 31ca c1bc 5d2b e2bc 10a2 0bbd 0d8e b3bc
00000260: 58d4 073e 2c43 2fbd 289c efbd d8ac 06be
00000270: 1b20 f8bd 1309 853e 10f5 82bd c264 d7bd
00000280: 3d9f 4abc cea3 07be 3ea5 343e 4c48 6e3e
00000290: e673 c03e 9ae7 ccbc fa6b 3fbe 899a f23e
000002a0: d2e9 1ebd 3edc edbc 64e0 59bd d8a4 c93e
000002b0: b043 0bbd b0e4 4abe 48ab d43d e1d9 373e
000002c0: 85ce 86bd 9da0 7fbe 5273 bdbd 1224 92be
000002d0: f73c c63d a13e e8be e0d9 e1bd 4c96 793d
000002e0: dce4 dd3d 7daa e53c 0b48 b43d 690d a33e
000002f0: 34b7 28be 37a4 b03d dab8 9dbe df7c 0cbd
00000300: 651d 343e 66fe f83b 9b10 e8bd fb5f 13be
00000310: f13e 1e3d 3a6b 383e ee9d 4ebe 059d 833e
00000320: 0088 4e3d 95d2 863d f244 433e 82a3 ca3e
00000330: 072b 3e3c cd83 08be 447c 8dbe 08a9 92be
00000340: 9116 ca3d 8ce1 893e af3f e0bd 4f61 95be
00000350: d6f3 e2bd 5d47 0c3e ddc0 dbbc df0b 6dbd
00000360: 7d9b 9fbd 189d fcbd 8bfd 383e 0a3e b43e
00000370: 2d5e f23d 7eb6 3ebe f54d 503d 4d5d 8ebe
00000380: 7b08 053e c2aa 243e f05b 0c3e cb04 c6be
00000390: d023 273e ee58 473e f11c b93e 66ee 3e3e
000003a0: 7608 6f3d 0ecb 953e 16ea 45be 5dcd 41be
000003b0: a154 523d 9635 0e3e cb51 e4bd 0440 9d3b
000003c0: fc57 1cbe af6d b9bd 09a1 1abe 12c4 81bd
000003d0: 0ed0 313e 9dd5 44be adee 2dbc 820a 953e
000003e0: 9b3b 0dbf 1288 d43e c5ec 7d3e 2a9a c2bd
000003f0: 2d72 aabc 544a 0f3c 9187 e2bd 6181 c1bd
-0.2288993 0.044846494 0.063075945 -0.09294251 0.16057493 -0.11225083 -0.19492224 -0.030992359
0.14936002 0.547376 -0.014186967 0.15639718 0.17319113 0.14995775 0.13139978 0.17669594
0.16193725 -0.021944888 -0.13187957 -0.09108746 0.095843665 0.077351935 0.29720995 0.050547633
0.11254857 0.18615936 0.27317187 -0.0416798 0.0323891 -0.12526608 -0.16203044 -0.06413795
0.23722027 -0.16171727 -0.056972057 0.13963276 -0.029866194 -0.17060626 0.17212306 -0.24931233
0.064091586 0.08367248 0.23411529 0.30040887 0.09145249 -0.6698407 -0.44682536 0.086223215
0.25316685 0.26823118 -0.10265559 0.0475806 0.17344953 -0.17365916 0.04372425 0.2944894
0.06054865 0.25597277 0.091544285 0.084102355 0.0667137 -0.04005387 -0.0049758484 -0.02187954
-0.08834489 0.118194796 0.13372886 -0.06346645 0.053374726 -0.16358368 0.16924188 -0.13525677
0.14123242 -0.02311138 -0.07551488 0.4417355 -0.04198198 0.092924505 -0.111424424 0.13056271
0.30215 0.11558136 -0.27871352 0.19751553 -0.01135989 -0.05055146 -0.31744218 -0.07045012
-0.016437963 0.0062980843 -0.12870549 0.3470662 0.33730873 0.13752234 -0.28964832 -0.09314659
-0.069428764 -0.17910771 -0.16829425 0.036120977 0.33361045 0.45089287 0.18540744 -0.0165961
-0.13395882 -0.018228583 -0.115197204 0.0706906 0.056951355 -0.34005994 0.18487097 0.10209717
-0.26300338 -0.22201149 0.15892895 0.18034147 -0.18804598 0.10003663 0.19804497 0.022744695
-0.014158999 0.1613685 0.06100378 0.32179233 0.107321024 0.06320954 0.29102364 0.14580461
-0.15822153 -0.052824937 -0.59182566 -0.23781317 0.12224855 0.052369174 -0.08069991 -0.10581818
0.14020123 0.014414083 -0.29735965 0.048001107 0.17723504 -0.13304955 -0.08973193 0.02634861
-0.05095802 0.014545181 -0.08823959 0.14034928 -0.023655983 -0.027608568 -0.0340901 -0.021918321
0.13264596 -0.04278867 -0.11699706 -0.13151872 -0.12115499 0.25983486 -0.06394398 -0.10517265
-0.012367067 -0.1324608 0.1764116 0.23269767 0.37588423 -0.02501278 -0.18693534 0.47383526
-0.038797207 -0.029035684 -0.05319251 0.39383578 -0.0340001 -0.198138 0.10384232 0.17954208
-0.06582359 -0.24963613 -0.09250511 -0.28543144 0.09679597 -0.45360282 -0.110278845 0.06093435
0.10834667 0.028035397 0.088028036 0.3184617 -0.16476136 0.086250715 -0.30805093 -0.034298774
0.17589338 0.007598686 -0.11331292 -0.14392082 0.038634244 0.18009654 -0.20177433 0.25705734
0.05042267 0.06583134 0.1906927 0.39577872 0.011606938 -0.13331528 -0.2763387 -0.28644586
0.098675855 0.2692989 -0.10949647 -0.29175803 -0.11081664 0.13699098 -0.026825363 -0.05787265
-0.07793329 -0.12334651 0.18065469 0.35203582 0.11834369 -0.18624303 0.050855596 -0.27805558
0.12991516 0.16080764 0.13706946 -0.38675532 0.16322255 0.19467518 0.36154893 0.1864563
0.05835768 0.2925648 -0.19327578 -0.18925996 0.05135024 0.13887629 -0.11148413 0.004798891
-0.15267938 -0.090541236 -0.15100493 -0.063362256 0.17364523 -0.19222112 -0.010615987 0.2910958
-0.55169076 0.41510063 0.24797352 -0.09502061 -0.020806396 0.008745749 -0.110610135 -0.09448505

fc2.weight f4 [128, 256]
00000000: a6d9 77be 3349 e4bc db70 63be 7a9e c83c
00000010: ea66 49be 9840 0f3e 2ac9 bb3d 0943 22be
00000020: 0456 ba3e 1752 b3bd 216c 82bc 3463 233e
00000030: 2f7b 9ebd 7a8f d53d 528f 883d bfc8 75be
00000040: 5eac 7c3c 592c 453e 9c66 04be 640e b03d
00000050: 990a 133e 5a18 b6bb ea2b ea3d 89cb abbd
00000060: 690a 9cbd f384 34bd a9b7 453c 67eb 453e
00000070: b52e 19bd 7ae8 3cbe 7cec cebd a44e f2bd
00000080: 56be 913d cef0 403e bf0e bebd 513c efbc
00000090: d6d5 aabd 7db7 7a3d bbfa 0d3d a1df 59be
000000a0: 1732 e3bc ffc2 073e d3d4 65b9 e8ae 563e
000000b0: 3134 7b3e 81e2 093e 5093 a1be edb1 e4bd
000000c0: 4ad4 a93c 5d33 02be 2eea 5cbc bcee 863e
000000d0: 9ba3 1dbe f401 893d 7147 32be e35f 243c
000000e0: e4bd cb3c 7aa7 a4bd 42a4 bd3d 6d3f ad3d
000000f0: 6306 85bc 4f00 02bd a987 13be 2e26 403e
00000100: 08e1 633e b3e5 79b9 bbce 893d 583d 95be
00000110: 28a5 53be 93c9 193e 85b6 96be 3047 583d
00000120: 3b63 f13d f33a c4bc 279c 8e3d 6eb5 bf3d
00000130: 66a0 71bd d0bc 48bd 11b0 9d3e 8358 843d
00000140: 87af f3bd 206d 47bd e5bc c7bc 02b8 97bd
00000150: dfd1 2e3e f941 043e b1bb 16be e969 44be
00000160: 011a 75ba 9a1a 663d 5b08 143d e128 643c
00000170: 8896 653e c7aa 4dbd 456c 77bd 9258 663e
00000180: ab0c 363d e1a6 393d 49f0 ac3d fb10 50be
00000190: 8487 83bb 31a8 a5bc 472b 1abd 378e ba3d
000001a0: 8943 b03e 55cf bc3c 7451 4dbe 543f 213e
000001b0: f270 94bd 3527 c0be 9f78 a4bc ff10 323e
000001c0: 4b89 0ebe 1bc3 1dbe c351 563c 4b09 9a3d
000001d0: b793 56bd e511 41bc 1727 6bbd 7b53 1cbe
000001e0: c514 6fbd 7286 583d 39ff 263e e2ca 23bd
000001f0: 535c 503e c70a bc3d 1a7c f0bd bd29 343e
00000200: 5c9f c03d 0892 a1bd ccbe ab3c c829 e5bd
00000210: bf3c 6ebd 160d c33d 79ce 29be 0cb8 333e
00000220: 8114 ecbd f287 eebd d15e f83b cea2 1a3e
00000230: ff4e 9a3b 2e1b 0fbe 6102 083d 09fd 693e
00000240: 1bdc 18be d9f4 653c 32a6 babc 17a4 febd
00000250: 8a5a 8ebe 6207 97be 2a7f 23bd d157 78bd
00000260: 69c5 b53d 9068 113e 59a9 8b3d c9bc 873e
00000270: b38f 03be ff88 de3d bb65 6b3d d97e 19be
00000280: f4e3 323e 21e1 93bd 609b 983e 587d 263e
00000290: e455 763d 77ff b1bd f97f 403e a8d7 153d
000002a0: 7b6d 97be 1d8b 5a3d 507e fc3d 9304 3a3d
000002b0: 13d7 033e f703 a2bd 9a2b d6bd 39cd 523e
000002c0: 8e64 05be c7eb 963d da78 b53c d349 9c3c
000002d0: 097e bebd c9b0 793c 621d 303e a55f 89bd
000002e0: 9bef 353e 603e a03c def8 89bc 2a27 b9bd
000002f0: 0cb8 2ebe c090 4ebd 004b 4d3c 26f8 43be
00000300: e53d 4d3e 0e05 81bd 580f 5b3d 696b 70bd
00000310: a299 d5bb b1a8 42bd ed64 c3bd 602a 4a3e
00000320: 8fc9 fd3c 9b82 8ebd 0c83 d2bd b83c 25bd
00000330: e34e 853e 6625 02bd db96 b63d cb68 2a3e
00000340: d5dc e9bd 9662 a3bd 1142 48bd 7e9d d4be
00000350: 3ae4 28be 887b 453e 78b4 afbd 203a b93e
00000360: ce15 07be ec4e d63d d160 9abd daed 39be
00000370: fbd0 1cbd d17d 673d ffe7 f9bc 2e7d 573e
00000380: 0bb6 a6bd 557a 16be 5d5e 24be 3b24 59be
00000390: 7964 313e 1a21 e1bd 79d3 f5bd 3cef ca3d
000003a0: ebf4 8ebd 169f cbbd d1e4 bebe 3e08 fcbd
000003b0: 279d 2ebb bb61 3bbe 6efd d33d 305f c03d
000003c0: fbae d8bc ee6b 01be 1d0b 853e bb3a 223d
000003d0: 2a8b b43c 11af 593e 3485 14be b931 f43c
000003e0: 37df 86be b0e5 8fbd a7a1 64be ac28 bcbd
000003f0: 0977 20be 7dcc b33d ae93 0abe 041a 39be
-0.2420412 -0.027866935 -0.2221102 0.02448963 -0.19668165 0.13989484 0.091692284 -0.15845884
0.3639375 -0.08755892 -0.0159207 0.15955812 -0.07738339 0.104277566 0.06667961 -0.2400236
0.015421955 0.19255199 -0.12929767 0.08596495 0.14359511 -0.005557102 0.11434157 -0.083884306
-0.07619173 -0.044072103 0.012067714 0.1932808 -0.03739806 -0.18448058 -0.101036996 -0.11831406
0.07116382 0.1884186 -0.09280156 -0.029203566 -0.08341567 0.061210144 0.034662943 -0.21276714
-0.027733846 0.13257979 -0.00021918425 0.20965159 0.24531628 0.1346531 -0.31557703 -0.11166749
0.02073111 -0.12714906 -0.013483567 0.26354015 -0.15394442 0.06689826 -0.17410065 0.010032627
0.02487082 -0.08039756 0.09259845 0.08459363 -0.016238397 -0.031738576 -0.14407219 0.18764564
0.22253811 -0.0002383206 0.06728884 -0.29148364 -0.20668471 0.150183 -0.29436126 0.052802265
0.11786505 -0.02395389 0.069633774 0.09360777 -0.05899086 -0.04900819 0.3079839 0.06462195
-0.118987136 -0.048688054 -0.024382064 -0.074081436 0.17072247 0.12915792 -0.14720036 -0.19181027
-0.0009349883 0.056177713 0.03614078 0.013925762 0.22420704 -0.050211694 -0.06040599 0.22494724
0.044445675 0.045325164 0.08444268 -0.20318978 -0.0040139575 -0.020221801 -0.03763893 0.091091566
0.34426525 0.023048082 -0.20050603 0.15746814 -0.07248105 -0.37529913 -0.020077048 0.17389296
-0.1391956 -0.15406458 0.013081017 0.07521304 -0.052386966 -0.011784052 -0.057410326 -0.1526622
-0.058369417 0.052862592 0.16308297 -0.039988406 0.20347719 0.09181743 -0.117424205 0.17594047
0.094053954 -0.078891814 0.020965002 -0.1118961 -0.0581634 0.0952398 -0.1658267 0.17550677
-0.11527348 -0.11647023 0.0075796624 0.15101168 0.004709124 -0.13975212 0.033205394 0.22850432
-0.14927714 0.014035427 -0.022784326 -0.124336414 -0.2780345 -0.2949782 -0.039916195 -0.060630623
0.088755436 0.14200044 0.0681941 0.2651122 -0.12847786 0.10865974 0.057470065 -0.14989795
0.1746977 -0.07220674 0.29806042 0.16258752 0.060140505 -0.08691304 0.18798818 0.03658262
-0.29575714 0.053355325 0.1232878 0.04541452 0.12875013 -0.079109125 -0.10457535 0.20586099
-0.1302664 0.0736919 0.022152353 0.01907817 -0.09301383 0.015239903 0.17198709 -0.06707696
0.17767183 0.019560993 -0.016842302 -0.09040673 -0.17062396 -0.050431013 0.012530088 -0.1913763
0.20043142 -0.06299792 0.05348143 -0.058696184 -0.0065185586 -0.047524158 -0.095407344 0.19742727
0.0309799 -0.06958505 -0.102789015 -0.04034111 0.26036748 -0.031773947 0.08915492 0.16641538
-0.114190735 -0.07977788 -0.04889113 -0.41526407 -0.16493312 0.19285405 -0.085793436 0.36177158
-0.13191912 0.10464272 -0.075379975 -0.1815714 -0.038285237 0.056516472 -0.030506132 0.21043846
-0.08140191 -0.14695103 -0.16051622 -0.21205227 0.17323484 -0.10992642 -0.12003226 0.099089116
-0.06980308 -0.099424526 -0.37283948 -0.123062596 -0.0026643963 -0.18299 0.10351072 0.093931556
-0.026450625 -0.12638828 0.2598504 0.03960679 0.022039015 0.21258189 -0.14503938 0.029808866
-0.26342174 -0.07026231 -0.2232729 -0.09187445 -0.15670408 0.087792374 -0.13532898 -0.1807633

fc2.bias f4 [128]
00000000: c3b4 08bd ad19 363d ddd6 863d a5b6 5b3d
00000010: ebd5 1c3e 834a 82bd 4c8d 55bc b567 4cbc
00000020: f444 eebb 472e 2dbe e1e3 cdbc 91e2 99bd
00000030: 09c3 06be c8d1 03bc b07f ca3c 0aa3 d63a
00000040: 88b7 5ebe d6d1 233d 6432 93bc 6b39 bfbd
00000050: 263d 353e b2e8 edbc a6c6 7fbd 91c9 fb3c
00000060: e6ae 31be 0e9a eb3d f2bb 2f3d 7fb9 cf3d
00000070: fa6d 36bc c14e dfbc 5e40 e0bd 6395 aabd
00000080: 17ee b83d 0927 e63c 8110 3dbd 2487 1fbe
00000090: d6b7 74bd bfc6 8d3d 0e6c 99bd fafc 06bd
000000a0: 567e cbbb 4410 733d 9849 d2bd 382f 22bd
000000b0: bc5a 843d 7792 ecbc 3d5a f3bc 3da1 04be
000000c0: b376 4c3d a2bb 873d 88ce 62bd 1b45 e1bc
000000d0: 6ef4 c3bd a853 073d d9c5 41bd 4136 1bbe
000000e0: da77 06bc 4acf cd3d ea2c 1abd 9d64 1f3d
000000f0: 9cf7 303d 6174 be3c 1e74 643c 4a56 1cbe
00000100: 4282 9ebd c647 a73d 412d b5ba b7c6 22bd
00000110: 9df3 74bd f193 abbd 26ad 7abe f220 dbbd
00000120: 7d30 c6bd 4cb9 ddbc a46b e2bc b96b 1bbc
00000130: 5fa4 fc3c 3d72 cdbd 34b3 4ebd c9cc 8bbb
00000140: 42fd 793b 5cac 82bd 6451 42bd 99d4 8c3c
00000150: f78d d43a de7a 2ebd b7be d8bd 5acc 9c3d
00000160: c87c aabd f211 8c3d ee85 d8bd 625d e63c
00000170: feae 56bd 78bb c83c 3391 cf3c 1d9a c23c
00000180: d17b 00bd 7d88 8fbc 32d7 b03d 8413 1bbe
00000190: c244 143e 8337 083d 32c0 f8bd ea01 683c
000001a0: a30e 003c 5401 05be d045 cb3d bbcc 513d
000001b0: a762 ca3d 7885 3fbd da47 30bd face b1bc
000001c0: cc50 86bc 7bab 073d d15f 7bbd a811 43bb
000001d0: 1838 9ebd 1f15 32bc 571b cf3b 0028 6ebd
000001e0: d173 6f3d 96e7 d63d 08a2 013c d5fc 1e3d
000001f0: 5d94 ec3d 18de f6bc 6133 103d 1fd7 a3bb
-0.033375513 0.04445808 0.06583951 0.05364098 0.15315978 -0.06361868 -0.013034176 -0.012475898
-0.0072714034 -0.16912185 -0.025133075 -0.07513917 -0.13160338 -0.008045621 0.02471909 0.0016375494
-0.21749699 0.039995037 -0.017968364 -0.093371235 0.17699108 -0.029041622 -0.062445305 0.030735763
-0.17351875 0.11503993 0.042903848 0.101428024 -0.011134619 -0.027259232 -0.10949777 -0.083292745
0.09029787 0.028094785 -0.046158317 -0.15578896 -0.059745632 0.069226734 -0.07491313 -0.0329561
-0.006210129 0.059341684 -0.10267943 -0.039595813 0.06462619 -0.028878434 -0.029706115 -0.12952133
0.049917888 0.06627585 -0.055372745 -0.027498772 -0.09568106 0.033038765 -0.047307823 -0.15157415
-0.008207286 0.10049303 -0.03764049 0.03891431 0.04320489 0.023248853 0.0139437 -0.15267292
-0.077396885 0.081679866 -0.0013822691 -0.03974029 -0.05980264 -0.08377827 -0.24480113 -0.10699643
-0.09677217 -0.027065895 -0.027639218 -0.009486132 0.030840097 -0.10031555 -0.05046387 -0.0042663557
0.0038145338 -0.06380531 -0.0474409 0.017191218 0.0016216625 -0.042597644 -0.10583251 0.076561645
-0.083245814 0.0683936 -0.1057242 0.0281207 -0.05241298 0.024503455 0.025337791 0.023755128
-0.03136808 -0.017521137 0.08634795 -0.15144163 0.14479354 0.033256065 -0.12146033 0.014160613
0.00781599 -0.12988788 0.09925425 0.051220637 0.09882098 -0.046758145 -0.043037273 -0.02170514
-0.016395949 0.03312252 -0.061370675 -0.0029765163 -0.07725543 -0.0108692935 0.006320398 -0.058143616
0.05846006 0.1049339 0.007912166 0.03881534 0.115517356 -0.0301352 0.03520525 -0.0050000097

out.weight f4 [4, 128]
00000000: 417e 4bbe 45b0 f6be 2db7 4c3d 9f2f 473d
00000010: 0e17 163f 7844 143f 6078 02be 3d08 ba3e
00000020: 2bf1 073f 1297 263e 9434 983e b07b 583f
00000030: 2c5a d93e 16a5 023f 471e bbbf ba30 85be
00000040: 327a 9e3f 3f3c aebe d587 843f 730a 1f3e
00000050: 21b0 59bf 684c babb ef72 9a3e 8a80 5a3d
00000060: 4594 8fbd 2e1c 26bf 21d1 453f 792f eb3e
00000070: a465 a23e eb72 2d3d aa5c 473c 0104 313f
00000080: 2a46 4fbf 54fc 74bf 27db c13e 27c8 adbf
00000090: 29bf 3dbe 9c58 853d 3eb4 623f 25d5 a23f
000000a0: 1f37 60be 1b94 42be 3723 7cbd 4ba6 953d
000000b0: b68e 36bd 2c72 113f effa e6bd 0791 6cbf
000000c0: 1e96 81bd 07b7 25be d93b 1dbe b1da fdbd
000000d0: ab81 dbbd b335 e33c b4d5 c33e 018d 87be
000000e0: a5b2 97be bc22 2cbc cbab 143e 069b e7bc
000000f0: 6cf1 42be 8489 03bd 00e4 26bf 12df 5d3d
00000100: 3135 d3ba 91f6 1f3f 2eaa cabe 930b aabd
00000110: 7d50 373f 1868 783f 53cf 1d3e ceae 593f
00000120: b674 8ebd 790f 9ebe d8c1 3a3f 9aac d33e
00000130: 0280 ef3d bb67 8b3f bed6 e0bc 33ba b0bf
00000140: d6db 843d 79ec a23f d94f c43d 36ad cabd
00000150: c5fc 633d 7a38 7ebb e498 41be 98c6 a33e
00000160: 41a0 293f f24e 29bf 6f10 f6bb e785 1cbe
00000170: af24 893e 2bb9 3ebe 7464 bcbe 234b c6be
00000180: b2ee a93e 2429 093e 0ed0 12bf 9cfc 50be
00000190: 9b03 9cbc 096f 33bf 36f7 863f 02db 4f3e
000001a0: 8a0e d9be b604 0d3e 9a0f f4be 6ded 02bd
000001b0: 69e8 73be d7e5 b03c 5cf2 85bd 6cd1 34bc
000001c0: 5074 0140 4a35 563e 75f3 0f3e 028d 22bd
000001d0: 2879 423d 6b55 21bf e78c a13d 61dc 593e
000001e0: 1bd4 3dbf 3e9f d83d cc5c 38bd b2c5 8ebc
000001f0: da0c 14bd 3f8b 503e cffd 1abe 4a60 26bf
00000200: c621 87bf 5abe af3c 1d19 143f e89d 913e
00000210: 1c5d 183f 67c5 3c3f f18d 983f 18b1 a63e
00000220: 3720 963f 3c3c 403e bb47 5abf 3ab1 073d
00000230: fb43 99bf 95dc 893e 0165 6c3d ee8c 3b3e
00000240: 607d 333f 72cf 1fbf 6fed 9e3f 0e02 803f
00000250: 0edf aabf 041a 0cbf 24b8 1cbf f5ab cdbd
00000260: ee06 58bf 299e bebf 7c66 b63e 5215 ef3e
00000270: f372 263f d426 f83e c6a7 553e 7da7 0d3f
00000280: 35b9 1b3e 8fe8 833d 56c4 2c3e 4dd2 8c3c
00000290: a7c6 e13f 9cbf 323e aed9 913f 6131 9bbe
000002a0: 8dcc 2abf d4f5 54bd 8681 b4be 57e3 4c3e
000002b0: 71a0 4dbd b44b 023f e068 9c3f 0453 3abf
000002c0: 3a3e 16bf 63dc a1bf e632 ecbd 8600 36be
000002d0: 4d26 fdbe 2f31 033f 9af2 d0bf 5f66 df3e
000002e0: 907d b13f 7b39 4bbe 2377 5dbe 0a69 c4bc
000002f0: 557d b0bd 9c0c 9bbf aec8 21be 26b7 c03d
00000300: 5ddb b33d 9389 883f 7a64 1bbf 9e45 8bbf
00000310: 6e4d f53d db3f 173e 8fd9 bbbd 4ad8 0cbc
00000320: a912 873f 7dbe b23d 5d60 c93f 5a9c 1f3d
00000330: b53f ef3f ece6 ab3f 6cf5 783f f2c3 373e
00000340: ec9e 043e f757 063f 4dba be3f f9b1 22be
00000350: d8ce 493e 44b1 0c3e f950 28bf 0ff9 c23f
00000360: 55aa 00bf 67c1 fe3d e872 5ebe 7f9e 97bf
00000370: 2cb1 fcbd bd14 013e b726 03be c635 c93d
00000380: 8242 a1be 7cf3 843e f0ac 80bf 0fb6 cfbe
00000390: 490f 833f a412 9ebe a079 6a3f e4ad 043f
000003a0: 2aa1 f43d 9781 7abd e190 2cbf 2c64 52be
000003b0: e21c 88be 0ed0 cc3c 70ef a3be b90c 523d
000003c0: 3d24 bd3e 6fb6 3cbd de0a 2f3e 6f8a 8dbc
000003d0: 9f88 46bd 8090 0abe 2c15 3cbd df68 673f
000003e0: a1f2 96be 1517 993f 660b fa3e 85b7 a0be
000003f0: 5c43 be3f 28dc 53bf 5dc4 523d 48aa bebe
-0.19872381 -0.48181358 0.049979378 0.0486294 0.5862893 0.57916975 -0.12741232 0.3633441
0.5310237 0.16268566 0.29727614 0.8456373 0.42451608 0.5103315 -1.4618615 -0.26013738
1.2381041 -0.3403034 1.0353953 0.1553133 -0.85034376 -0.005685378 0.30165812 0.05334524
-0.07010702 -0.6488675 0.7727223 0.45934656 0.3171817 0.042345922 0.012168089 0.69146734
-0.80966437 -0.9569752 0.37862512 -1.3576707 -0.18529953 0.065110415 0.8855628 1.2721297
-0.21896027 -0.1900181 -0.06155702 0.073071085 -0.044569694 0.5681484 -0.112783305 -0.92408794
-0.06327461 -0.161831 -0.15354861 -0.12395228 -0.107180916 0.027735567 0.3824898 -0.26474765
-0.29628482 -0.010506328 0.14518659 -0.028272163 -0.19037408 -0.032113567 -0.6519165 0.054167815
-0.0016113875 0.62485605 -0.39582962 -0.08302989 0.7160719 0.97033834 0.15411119 0.85032356
-0.069558546 -0.3087118 0.7295203 0.41342622 0.116943374 1.0891031 -0.027446147 -1.3806823
0.06487243 1.2728416 0.09585542 -0.098963186 0.05566098 -0.0038790987 -0.1890598 0.31987453
0.66260153 -0.66136086 -0.0075092833 -0.15285455 0.267858 -0.18625323 -0.3679539 -0.387292
0.33189923 0.133946 -0.57348716 -0.20408863 -0.019044688 -0.700913 1.0544193 0.20298389
-0.42393905 0.13771328 -0.47668153 -0.031964708 -0.23819126 0.021593971 -0.06540367 -0.011036258
2.0227242 0.20918766 0.14057715 -0.039685257 0.047478825 -0.6302096 0.07888203 0.21275474
-0.7415177 0.10577248 -0.045010373 -0.017428253 -0.03614507 0.20365618 -0.15135883 -0.64990675
-1.0557182 0.021453071 0.5785082 0.28440785 0.59517074 0.7373871 1.1918317 0.32556987
1.1728581 0.18772978 -0.852657 0.033128 -1.1973871 0.26926103 0.057713512 0.18315479
0.7011318 -0.6242591 1.2416209 1.0000627 -1.3349321 -0.54727197 -0.61218476 -0.10042564
-0.84385574 -1.4892017 0.35625064 0.46695954 0.6501915 0.48467124 0.20864782 0.5533369
0.1520737 0.064408414 0.16871771 0.017190123 1.7638749 0.17455906 1.1394556 -0.3031111
-0.6671837 -0.051992252 -0.3525507 0.20008598 -0.050201837 0.50896764 1.2219505 -0.7278292
-0.586887 -1.2645382 -0.115331456 -0.17773637 -0.49443284 0.51246923 -1.6324036 0.4363279
1.3866444 -0.19846146 -0.21627478 -0.023975868 -0.08617655 -1.2113223 -0.1579921 0.09409933
0.087820746 1.0666984 -0.6070019 -1.088062 0.11977659 0.14770453 -0.091723554 -0.008596489
1.055257 0.08727739 1.5732533 0.038967468 1.8691317 1.3429847 0.97249484 0.17945841
0.12951249 0.52477974 1.4900604 -0.15888204 0.19707811 0.13739496 -0.65748554 1.5232257
-0.50259906 0.12439232 -0.21723521 -1.1845244 -0.1233848 0.12605567 -0.12807737 0.098247096
-0.31496054 0.25967014 -1.0052776 -0.40568587 1.023904 -0.30873597 0.91591835 0.51827836
0.11944802 -0.061158743 -0.6740857 -0.20546025 -0.26584536 0.025001552 -0.32018614 0.051281665
0.3694171 -0.04607242 0.17093989 -0.017277924 -0.048470136 -0.13531685 -0.04591863 0.90394396
-0.29481986 1.1960169 0.4883682 -0.31390014 1.4864306 -0.82757807 0.051456798 -0.3723929

out.bias f4 [4]
00000000: 1b83 a1be 750f 3fbe 398a d2bd 0130 c1be
-0.31545338 -0.1865824 -0.1028027 -0.37731937
